data/processed/model_20250726_203713/best_at.pth (torch, 496268 bytes, 29 tensors)

input_proj.weight f4 [64, 834]
0	0xbaebb575	-0.0017983156
1	0x3cf8611b	0.030319741
2	0xbc3fe281	-0.011711718
3	0xbd1cf248	-0.038316995
4	0x3dada72f	0.08479153
5	0xbd1bf81c	-0.038078412
6	0xbcac06ed	-0.020999396
7	0xbb95ec38	-0.0045752786
8	0x3c35e692	0.0111023355
9	0xbd811013	-0.06301894
10	0xbae7103f	-0.0017628743
11	0x3d3bd2f1	0.045855466
12	0x3a460d02	0.0007555039
13	0xbb3da3ff	-0.002893686
14	0x3d257512	0.04039485
15	0xbbb4e8ae	-0.0055209016
16	0xbe0c28c9	-0.13687433
17	0x3ba7742b	0.005110284
18	0xbbaf148a	-0.0053430246
19	0xbb1ce6da	-0.002394131
20	0xbdbe8f78	-0.09304708
21	0x3cdbe911	0.026844533
22	0xbd240bf8	-0.040050477
23	0x3d08db16	0.03341206
24	0xbbab71a0	-0.005232051
25	0xbb166640	-0.002294913
26	0x3d6c9ed3	0.057768654
27	0x3d86d4dd	0.06583569
28	0xbd051831	-0.032493774
29	0xbb739c76	-0.0037172115
30	0xbb80f658	-0.0039356165
31	0xbb4ff1f6	-0.0031729913
32	0x3b7beaa4	0.0038439417
33	0xbb955224	-0.004556911
34	0x3d81bbf1	0.06334675
35	0x3ced7ce8	0.028990224
36	0x3c0c8d9d	0.008578685
37	0xba74fabb	-0.0009345223
38	0xbe00f1cd	-0.1259224
39	0x3b476496	0.0030424944
40	0xbbfaf8aa	-0.0076590376
41	0xb98a98d9	-0.00026435292
42	0xbac46784	-0.0014984463
43	0x3b29e2fc	0.0025922647
44	0x3d0b5370	0.03401512
45	0xba843759	-0.0010087296
46	0x3a9ba91f	0.0011875964
47	0x3b13eaf5	0.0022570465
48	0xbb5a4ff8	-0.0033311825
49	0x3be747f0	0.007058136
50	0x3bccfa57	0.006255429
51	0x3d2bae05	0.041914005
52	0xbd170905	-0.036873836
53	0x3c642287	0.013924248
54	0xbdc1c5fb	-0.0946159
55	0x3afb843c	0.0019189189
56	0xbbb4504e	-0.005502737
57	0x3d8c746b	0.068581425
58	0x3c90cd99	0.017676162
59	0xbd4bbd93	-0.04974134
60	0x3bbfab7f	0.0058493013
61	0xbdc5093b	-0.09620901
62	0xbdd4d428	-0.10392028
63	0xbaa6d632	-0.001272863
64	0xbb7830f3	-0.0037870973
65	0xbbdc990d	-0.0067321123
66	0xbc201f26	-0.009773051
67	0x3c117ca9	0.008879819
68	0x3b61e75b	0.0034470174
69	0x3b066856	0.0020508966
70	0x3c2e56a4	0.010640774
71	0xbd19c701	-0.0375433
72	0x3bf43003	0.0074520125
73	0xbcfc96e3	-0.030833667
74	0xbb0e10a7	-0.0021677406
75	0xba8d17aa	-0.0010764499
76	0x3c2bcb3c	0.010485467
77	0x3eb519f2	0.35371357
78	0xbaf914be	-0.0019003374
79	0x399447b4	0.00028282183
80	0x3d5d83b3	0.054080676
81	0xbc9d3d66	-0.019194316
82	0x3e952869	0.29132393
83	0x3bab2663	0.005223082
84	0xba983365	-0.0011611996
85	0xbaecc2c0	-0.0018063411
86	0x3d8b39ac	0.067981094
87	0x3c4429f3	0.011972892
88	0x3ab2d348	0.0013643289
89	0xbb52b1eb	-0.0032149504
90	0x3b476e09	0.0030430576
91	0x3d86e2ca	0.06586225
92	0xbcbe75b5	-0.023249486
93	0xbc2194f0	-0.00986217
94	0x3ad391e3	0.00161415
95	0x3d1718a3	0.03688873
96	0x3bc2c7b4	0.0059442166
97	0xbd855c47	-0.06511741
98	0xbaca68c9	-0.0015442605
99	0xbd8152a6	-0.06314592
100	0xbbd18ce4	-0.0063949693
101	0xbca8ec41	-0.020620467
102	0x3e2a4590	0.16628098
103	0x3be1944d	0.006884134
104	0x3c0e46d4	0.008683879
105	0xb9a285ed	-0.0003099883
106	0x3d523956	0.05132421
107	0x386fc54e	5.7165795e-05
108	0xbbd03d62	-0.0063549737
109	0xba60acae	-0.0008570653
110	0xbb790e8d	-0.0038003058
111	0x3ca8be5d	0.020598585
112	0x3a933acc	0.0011232733
113	0x3bb7c11b	0.0056077368
114	0x3b16c736	0.0023006923
115	0x3ab21a2b	0.0013588121
116	0x3b21009f	0.002456702
117	0xbb846ca9	-0.0040412736
118	0x392c9a5a	0.00016460699
119	0x3bad285c	0.005284352
120	0xbc0da70f	-0.008645787
121	0x3d94eb66	0.07271461
122	0x3e1f2369	0.15540852
123	0x3b5d93c9	0.003381001
124	0x3bd6bda3	0.006553368
125	0xbc2b985c	-0.010473337
126	0x399b34ca	0.00029603235
127	0xbabe0271	-0.0014496577
128	0x3a3000c9	0.0006713984
129	0x3d1ee457	0.03879198
130	0xba89f0a4	-0.0010523987
131	0xbde7fcdc	-0.11327526
132	0x3bf1819d	0.0073701874
133	0x3d988a94	0.07448307
134	0x3c40fecc	0.011779498
135	0x3af46299	0.0018645107
136	0x3d452a6f	0.04813617
137	0xbb96d4a0	-0.0046029836
138	0x3d6baa73	0.0575356
139	0xba7e6907	-0.00097049813
140	0xbcad4d7f	-0.021155117
141	0x3da20029	0.07910187
142	0x3db48655	0.08814684
143	0x3d5db613	0.054128718
144	0x3d153bc3	0.036433946
145	0x3bb09546	0.0053888885
146	0xbc03c524	-0.008042607
147	0xbd5b3918	-0.053521246
148	0x3b88fe23	0.004180686
149	0x3b6199dd	0.0034423985
150	0x3b73f071	0.0037222172
151	0xbc8fc623	-0.017550534
152	0xbaadd47a	-0.0013262175
153	0x3bb4c32c	0.0055164304
154	0xbc3cd9e4	-0.011526559
155	0x3eafea25	0.34358326
156	0x3d8c23a7	0.06842738
157	0x3b8a1b89	0.004214708
158	0xbbad5493	-0.005289623
159	0xbac28359	-0.001484017
160	0x3e23145b	0.15925734
161	0x3b6b6531	0.003591847
162	0x3bb4c2dd	0.0055163936
163	0xbbd1a73b	-0.0063981093
164	0x3bd385fd	0.0064551816
165	0x3b64829b	0.0034867886
166	0x3b2b7faa	0.0026168623
167	0x3cb45d41	0.022017123
168	0x3c679f2e	0.0141370725
169	0x3b3c53d3	0.0028736487
170	0x3c984039	0.018585311
171	0x3c45f0cd	0.012081337
172	0x3c8d647e	0.017259832
173	0x3ab1ef5a	0.0013575361
174	0xbcfabdc7	-0.030608071
175	0xbd269e16	-0.040678106
176	0xbbaf4bb7	-0.005349602
177	0xbaa9a7a3	-0.0012943636
178	0xbdebb157	-0.11508434
179	0xbac322aa	-0.001488765
180	0x3b741c08	0.0037248153
181	0x3ba91918	0.005160462
182	0xbbd98883	-0.006638588
183	0xbb4b72e9	-0.0031043834
184	0xbaa1090a	-0.0012286019
185	0xbab0a0e9	-0.0013475689
186	0xbb65550d	-0.0034993321
187	0x3b7fa7ee	0.0039010006
188	0x3b7cae31	0.0038555975
189	0xbbff591f	-0.0077926065
190	0x3c79f91f	0.015257149
191	0xbc87ec3b	-0.016592136
192	0x3b46498a	0.0030256235
193	0xbbf4c3fb	-0.0074696518
194	0xbb8f1650	-0.0043666735
195	0x3dc0c89d	0.09413264
196	0xbbe00477	-0.0068364698
197	0xbb802fe0	-0.003911957
198	0x3c5f21bb	0.013618882
199	0xbbad02a3	-0.0052798553
200	0x3ce1dafc	0.02757024
201	0xbdf190a1	-0.11795164
202	0x3de4f1df	0.11178946
203	0xbdc499bc	-0.09599635
204	0xb9278912	-0.00015977424
205	0xba91bf9e	-0.0011119728
206	0x3d06ea3d	0.03293823
207	0x3cd53afe	0.026029106
208	0xbb114982	-0.0022169058
209	0xbd092a5f	-0.033487674
210	0xbc9be555	-0.019030252
211	0xbb87869d	-0.00413592
212	0xba805847	-0.0009791934
213	0x3d0407d8	0.032234043
214	0x3c034f06	0.008014446
215	0x3bbfcc51	0.005853214
216	0x3bf43ac9	0.007453297
217	0x3b479a13	0.0030456826
218	0x3b8d0c8c	0.004304474
219	0xbd75960e	-0.059957556
220	0x3c51bc7b	0.012801285
221	0x3d5485d7	0.051885452
222	0xbc1de71a	-0.009637618
223	0x3d42c50c	0.0475512
224	0xbb0f559c	-0.0021871096
225	0xb9f5074b	-0.00046735475
226	0xba039c8d	-0.00050205813
227	0xbc19d4e0	-0.009389132
228	0xbb6b5e5c	-0.0035914397
229	0xbb17123f	-0.0023051647
230	0x3ad6bb4e	0.0016382725
231	0x3ce1a47b	0.02754425
232	0x3c3fbc59	0.01170262
233	0xba89cb9b	-0.001051295
234	0x3c6b26e2	0.014352532
235	0xbe2b4a95	-0.1672767
236	0xbbcd53f2	-0.0062661106
237	0xbc732b89	-0.014841923
238	0xbbc0c9d7	-0.005883436
239	0x3b89fbc6	0.004210922
240	0xbde7fb85	-0.113272704
241	0x3beaddc6	0.0071675507
242	0xbac59834	-0.0015075267
243	0x3b5c389c	0.0033603078
244	0xba36683c	-0.0006958281
245	0x3cb7d527	0.022440506
246	0x3b12f0c8	0.002242135
247	0x3d63f53b	0.055653792
248	0x3bdfdf60	0.0068320483
249	0x3bc19bb4	0.005908454
250	0x3b51a5b5	0.0031989638
251	0x3b3a81f0	0.0028458796
252	0xbbdc0e0a	-0.006715541
253	0xbb1c6a42	-0.0023867046
254	0x3cab5f31	0.020919414
255	0xbaee66ff	-0.0018188654

input_proj.bias f4 [64]
0	0x3e498c3d	0.19682403
1	0x3e972406	0.2951967
2	0x3e85f26d	0.2616152
3	0x3f0c6a85	0.54850036
4	0x3e645cf6	0.22301087
5	0xbe0774de	-0.13228175
6	0xbea341c5	-0.31886116
7	0x3dd952ae	0.10611473
8	0xbe205249	-0.1565639
9	0x3ea0885a	0.31354028
10	0xbe1a5c3a	-0.15074244
11	0x3f02212f	0.50831884
12	0xbea0b402	-0.31387335
13	0x3e51e4ba	0.20497409
14	0xbe0b5918	-0.13608205
15	0x3f086300	0.5327606
16	0xbeb059ec	-0.34443605
17	0x3e4ef959	0.20212306
18	0xbc2100e4	-0.0098268725
19	0xbec14a3e	-0.37751955
20	0xbe2d10fb	-0.16901009
21	0xbdbd5b79	-0.09245963
22	0xbeee162d	-0.46501294
23	0xbe6353ba	-0.22199908
24	0x3d31f036	0.043441974
25	0xbe910a2b	-0.2832807
26	0x3e95eca8	0.29282117
27	0x3d2b5d72	0.041837163
28	0xbcde46e7	-0.027133418
29	0xbef759e5	-0.48310772
30	0x3d620a6b	0.055185717
31	0xbe935221	-0.28773597
32	0x3e33221b	0.17493479
33	0x3c9bb285	0.019006023
34	0x3e240d26	0.1602064
35	0xbe3e18ad	-0.185641
36	0xbda38db6	-0.079860136
37	0x3e3707e9	0.17874111
38	0xbe136106	-0.1439248
39	0xbe2828dd	-0.16421838
40	0x3e921316	0.28530186
41	0xbe58906e	-0.21148846
42	0xbe32c58a	-0.17458168
43	0xbe145704	-0.14486319
44	0xbc6f21ff	-0.014595508
45	0xbe82b1a7	-0.25526163
46	0x3de946e3	0.11390474
47	0x3e1be526	0.15224132
48	0x3d4f1695	0.050558645
49	0xbedf721a	-0.4364174
50	0xbdf83869	-0.121201344
51	0xbeeaf991	-0.4589353
52	0x3eeecd42	0.46640974
53	0xbc2f61d6	-0.010704478
54	0x3d918034	0.07104531
55	0x3dfa45b5	0.12220327
56	0xbcb92298	-0.022599503
57	0xbe47f8c7	-0.19528495
58	0x3d80771e	0.0627272
59	0x3e9e365c	0.30900848
60	0xbe964e99	-0.2935684
61	0xbf1985fe	-0.5997008
62	0x3dedb744	0.11607221
63	0x3d2e87f5	0.042610127

pos_enc.pe f4 [1, 16, 64]
0	0x00000000	0.0
1	0x3f800000	1.0
2	0x00000000	0.0
3	0x3f800000	1.0
4	0x00000000	0.0
5	0x3f800000	1.0
6	0x00000000	0.0
7	0x3f800000	1.0
8	0x00000000	0.0
9	0x3f800000	1.0
10	0x00000000	0.0
11	0x3f800000	1.0
12	0x00000000	0.0
13	0x3f800000	1.0
14	0x00000000	0.0
15	0x3f800000	1.0
16	0x00000000	0.0
17	0x3f800000	1.0
18	0x00000000	0.0
19	0x3f800000	1.0
20	0x00000000	0.0
21	0x3f800000	1.0
22	0x00000000	0.0
23	0x3f800000	1.0
24	0x00000000	0.0
25	0x3f800000	1.0
26	0x00000000	0.0
27	0x3f800000	1.0
28	0x00000000	0.0
29	0x3f800000	1.0
30	0x00000000	0.0
31	0x3f800000	1.0
32	0x00000000	0.0
33	0x3f800000	1.0
34	0x00000000	0.0
35	0x3f800000	1.0
36	0x00000000	0.0
37	0x3f800000	1.0
38	0x00000000	0.0
39	0x3f800000	1.0
40	0x00000000	0.0
41	0x3f800000	1.0
42	0x00000000	0.0
43	0x3f800000	1.0
44	0x00000000	0.0
45	0x3f800000	1.0
46	0x00000000	0.0
47	0x3f800000	1.0
48	0x00000000	0.0
49	0x3f800000	1.0
50	0x00000000	0.0
51	0x3f800000	1.0
52	0x00000000	0.0
53	0x3f800000	1.0
54	0x00000000	0.0
55	0x3f800000	1.0
56	0x00000000	0.0
57	0x3f800000	1.0
58	0x00000000	0.0
59	0x3f800000	1.0
60	0x00000000	0.0
61	0x3f800000	1.0
62	0x00000000	0.0
63	0x3f800000	1.0
64	0x3f576aa4	0.84147096
65	0x3f0a5141	0.54030234
66	0x3f2e7ace	0.68156135
67	0x3f3b54b0	0.731761
68	0x3f087dba	0.53316844
69	0x3f58940d	0.8460091
70	0x3ed190f0	0.4093089
71	0x3f6992c7	0.9123959
72	0x3e9f393e	0.3109836
73	0x3f734e6b	0.9504153
74	0x3e708f25	0.23492105
75	0x3f78d5f1	0.9720145
76	0x3e35233a	0.17689219
77	0x3f7bf683	0.9842302
78	0x3e0825f3	0.13295726
79	0x3f7dba28	0.99112177
80	0x3dcc7576	0.099833414
81	0x3f7eb898	0.9950042
82	0x3d996f36	0.07491915
83	0x3f7f47d1	0.9971896
84	0x3d6636ae	0.05620449
85	0x3f7f9868	0.9984193
86	0x3d2cacfb	0.042157155
87	0x3f7fc5bd	0.999111
88	0x3d01815b	0.031617504
89	0x3f7fdf3c	0.99950004
90	0x3cc23ea5	0.023711512
91	0x3f7fed93	0.99971884
92	0x3c91ab42	0.017781857
93	0x3f7ff5a3	0.99984187
94	0x3c5a7a49	0.013334819
95	0x3f7ffa2c	0.99991107
96	0x3c23d657	0.009999833
97	0x3f7ffcb9	0.99995
98	0x3bf5b916	0.0074988706
99	0x3f7ffe28	0.99997187
100	0x3bb8445a	0.0056233825
101	0x3f7ffef7	0.9999842
102	0x3b8a2e5a	0.0042169513
103	0x3f7fff6b	0.9999911
104	0x3b4f3e1c	0.0031622713
105	0x3f7fffac	0.999995
106	0x3b1b6903	0.0023713715
107	0x3f7fffd1	0.9999972
108	0x3ae91520	0.0017782785
109	0x3f7fffe6	0.99999845
110	0x3aaec98b	0.0013335211
111	0x3f7ffff1	0.9999991
112	0x3a83126d	0.0009999998
113	0x3f7ffff8	0.9999995
114	0x3a449489	0.000749894
115	0x3f7ffffb	0.9999997
116	0x3a136a13	0.0005623411
117	0x3f7ffffd	0.9999998
118	0x39dd1721	0.00042169637
119	0x3f7fffff	0.99999994
120	0x39a5cb61	0.00031622782
121	0x3f7fffff	0.99999994
122	0x3978a80d	0.00023713727
123	0x3f800000	1.0
124	0x393a7753	0.00017782794
125	0x3f800000	1.0
126	0x390bd46d	0.00013335208
127	0x3f800000	1.0
128	0x3f68c7b7	0.9092974
129	0xbed51133	-0.41614684
130	0x3f7f5ad9	0.99748
131	0x3d914d53	0.070948265
132	0x3f66f20a	0.9021307
133	0x3edce8b2	0.43146282
134	0x3f3f3511	0.7469035
135	0x3f2a3903	0.6649324
136	0x3f17541b	0.5911271
137	0x3f4e7bec	0.8065784
138	0x3ee9d3b5	0.45669332
139	0x3f63be69	0.8896242
140	0x3eb247f6	0.34820527
141	0x3f6ffaa6	0.93741834
142	0x3e86f082	0.26355368
143	0x3f76f2f5	0.96464473
144	0x3e4b6ff8	0.19866931
145	0x3f7ae5a5	0.9800666
146	0x3e1900d3	0.1494172
147	0x3f7d204f	0.98877424
148	0x3de5d986	0.1122313
149	0x3f7e61f3	0.9936821
150	0x3dac85af	0.084239356
151	0x3f7f170e	0.99644554
152	0x3d8170c8	0.063203394
153	0x3f7f7cf9	0.9980007
154	0x3d4230aa	0.04740969
155	0x3f7fb64e	0.9988755
156	0x3d11a55c	0.03555809
157	0x3f7fd68e	0.9993676
158	0x3cda7550	0.026667267
159	0x3f7fe8b1	0.99964434
160	0x3ca3d43e	0.019998666
161	0x3f7ff2e5	0.9998
162	0x3c75b751	0.014997319
163	0x3f7ff8a1	0.9998875
164	0x3c38439b	0.011246587
165	0x3f7ffbdb	0.99993676
166	0x3c0a2e0a	0.008433828
167	0x3f7ffdab	0.9999644
168	0x3bcf3dd8	0.006324511
169	0x3f7ffeb1	0.99998003
170	0x3b9b68e7	0.00474273
171	0x3f7fff43	0.99998873
172	0x3b691508	0.0035565514
173	0x3f7fff96	0.9999937
174	0x3b2ec980	0.0026670396
175	0x3f7fffc4	0.9999964
176	0x3b031268	0.0019999985
177	0x3f7fffdf	0.99999803
178	0x3ac49485	0.0014997876
179	0x3f7fffed	0.99999887
180	0x3a936a12	0.0011246821
181	0x3f7ffff5	0.99999934
182	0x3a5d171f	0.0008433926
183	0x3f7ffffa	0.99999964
184	0x3a25cb60	0.0006324556
185	0x3f7ffffd	0.9999998
186	0x39f8a80c	0.0004742745
187	0x3f7ffffe	0.9999999
188	0x39ba7753	0.00035565588
189	0x3f7fffff	0.99999994
190	0x398bd46d	0.00026670416
191	0x3f800000	1.0
192	0x3e1081c3	0.14112
193	0xbf7d7026	-0.9899925
194	0x3f473cde	0.7782725
195	0xbf20bfce	-0.6279267
196	0x3f7e45d7	0.9932532
197	0xbded7fab	-0.11596616
198	0x3f742163	0.95363444
199	0x3e9a1863	0.3009673
200	0x3f5009c2	0.8126489
201	0x3f152f58	0.58275366
202	0x3f2724b7	0.652904
203	0x3f41e7a2	0.7574407
204	0x3f022f6c	0.5085361
205	0x3f5c6d29	0.86104065
206	0x3ec768a7	0.3894703
207	0x3f6bc937	0.92103904
208	0x3e974e6c	0.2955202
209	0x3f7490ef	0.9553365
210	0x3e646de2	0.22307542
211	0x3f798c92	0.9748012
212	0x3e2beed7	0.16790329
213	0x3f7c5d9e	0.9858035
214	0x3e01332c	0.12617177
215	0x3f7df443	0.9920084
216	0x3dc1ffc0	0.094726086
217	0x3f7ed94f	0.99550337
218	0x3d919306	0.071081206
219	0x3f7f5a3a	0.9974705
220	0x3d5a694e	0.053323083
221	0x3f7fa2c3	0.9985773
222	0x3d23d1c5	0.039994974
223	0x3f7fcb90	0.99919987
224	0x3cf5b91f	0.0299955
225	0x3f7fe283	0.99955004
226	0x3cb84747	0.022494925
227	0x3f7fef6b	0.999747
228	0x3c8a31c6	0.016869437
229	0x3f7ff6ad	0.9998577
230	0x3c4f4446	0.012650555
231	0x3f7ffac1	0.99991995
232	0x3c1b6e0d	0.009486687
233	0x3f7ffd0d	0.999955
234	0x3be91d13	0.0071140616
235	0x3f7ffe58	0.9999747
236	0x3baecfa8	0.005334813
237	0x3f7fff11	0.99998575
238	0x3b831713	0.0040005534
239	0x3f7fff7a	0.999992
240	0x3b449b92	0.0029999954
241	0x3f7fffb5	0.9999955
242	0x3b136f60	0.0022496805
243	0x3f7fffd6	0.9999975
244	0x3add1f17	0.0016870227
245	0x3f7fffe8	0.99999857
246	0x3aa5d156	0.0012650888
247	0x3f7ffff3	0.9999992
248	0x3a78b110	0.00094868336
249	0x3f7ffff9	0.9999996
250	0x3a3a7e09	0.00071141176
251	0x3f7ffffc	0.99999976
252	0x3a0bd97e	0.0005334838
253	0x3f7ffffe	0.9999999
254	0x39d1bea4	0.00040005625
255	0x3f7fffff	0.99999994

transformer.layers.0.self_attn.in_proj_weight f4 [192, 64]
0	0x3e87007b	0.26367554
1	0xbc136fd2	-0.008998828
2	0x3e418f5f	0.18902348
3	0x3e9eb30a	0.3099597
4	0x3e32b48e	0.17451689
5	0x3e6fd1e2	0.23419908
6	0x3e9d8442	0.30764967
7	0x3e254f0b	0.16143434
8	0x3d264ebb	0.040602427
9	0x3ea1762c	0.3153547
10	0xbea764d7	-0.32694122
11	0x3e66ad6d	0.22527094
12	0xbe4da445	-0.20082195
13	0x3e8dce4a	0.2769645
14	0xbe214a3e	-0.15750977
15	0x3d022487	0.031773116
16	0xbddb9b1e	-0.10722946
17	0xbd93bf0c	-0.07214174
18	0xbe7de216	-0.24793276
19	0xbe3c4df4	-0.18389112
20	0x3da82dd8	0.08211869
21	0xbe5efbe6	-0.21775779
22	0x3b879221	0.004137293
23	0xbdc04ebb	-0.09390017
24	0x3e12899b	0.14310305
25	0xbdf020d1	-0.11725009
26	0x3d5ed563	0.05440272
27	0xbd4c2988	-0.049844295
28	0x3e32e3c2	0.17469695
29	0xbe80798b	-0.2509273
30	0x3e6d4afd	0.23173137
31	0xbe2dc204	-0.16968542
32	0x3d524aef	0.051340993
33	0xbe88fae5	-0.26753917
34	0x3e8942cf	0.26808783
35	0xbe554cfe	-0.20830151
36	0x3e407d9b	0.18797915
37	0xbe8af846	-0.27142543
38	0x3dae22f9	0.08502764
39	0xbe084029	-0.13305725
40	0x3e58734c	0.21137732
41	0xbdce6159	-0.10077161
42	0x3e880045	0.26562706
43	0xbe9857df	-0.2975454
44	0x3dd19b11	0.10234655
45	0xbe81ffa6	-0.25390357
46	0x3e18eed2	0.14934853
47	0xbe905f1d	-0.28197566
48	0x3d8921f3	0.066959284
49	0xbdc6b96c	-0.09703335
50	0x3e361402	0.1778107
51	0xbdcb5364	-0.09928015
52	0x3e277f57	0.1635717
53	0xbe1c1597	-0.15242611
54	0x3e2f67fc	0.1712951
55	0xbe928e6a	-0.28624278
56	0x3da92e0d	0.082607366
57	0xbe89a243	-0.26881608
58	0x3e1eece4	0.15520054
59	0xbdecac31	-0.115562804
60	0x3e6b91fa	0.23004904
61	0xbda76326	-0.08173208
62	0x3e823c72	0.2543674
63	0xbe9df9eb	-0.30854735
64	0x3f01a0de	0.5063609
65	0x3e9f81e7	0.31153795
66	0x3f25988b	0.6468589
67	0x3edbdbd6	0.4294116
68	0x3eccc149	0.39991215
69	0x3ef3bd78	0.4760549
70	0x3f177c32	0.5917388
71	0x3ed010f8	0.40637946
72	0x3e97a2cd	0.29616395
73	0x3f040e9c	0.5158479
74	0xbe0bc7cd	-0.13650437
75	0x3f32220a	0.6958319
76	0xbeea8191	-0.45801976
77	0x3ed9cc51	0.42538694
78	0xbf023863	-0.5086729
79	0xbcfdd26d	-0.030984128
80	0x3d0052e4	0.03132905
81	0xbe741697	-0.23836742
82	0xbee8bbb3	-0.45455703
83	0xbe1834b5	-0.14863856
84	0x3e779d79	0.24181165
85	0xbed82bd3	-0.42220935
86	0x3ebda23a	0.37037832
87	0xbec98555	-0.39359537
88	0x3de8e1d6	0.113712
89	0xbeb2e811	-0.34942678
90	0x3e1d9910	0.1539042
91	0xbec81981	-0.39081958
92	0x3e89cdf9	0.26914957
93	0xbf0634de	-0.5242442
94	0x3efe057f	0.49613568
95	0xbec72c67	-0.38901064
96	0x3e86b2cc	0.26308286
97	0xbeea993e	-0.4582004
98	0x3ec0c52f	0.3765044
99	0xbebcac4c	-0.36850202
100	0x3f06628e	0.5249413
101	0xbf2f3c93	-0.68451804
102	0x3e3238c3	0.17404465
103	0xbec552ca	-0.38539726
104	0x3e5996ce	0.21248934
105	0xbefb6ded	-0.49107304
106	0x3ed0cf5e	0.4078321
107	0xbf1013e9	-0.5628038
108	0x3ee45060	0.4459257
109	0xbea7e19d	-0.32789317
110	0x3ed39d40	0.4133091
111	0xbf148736	-0.58018816
112	0x3ecbb858	0.3978908
113	0xbea5473d	-0.32280913
114	0x3f08851e	0.5332812
115	0xbf0f6027	-0.5600609
116	0x3ed03ed5	0.40672937
117	0xbf057998	-0.5213866
118	0x3f051b9f	0.5199527
119	0xbf1fa40a	-0.6235968
120	0x3f013e97	0.5048613
121	0xbf10f0f5	-0.5661767
122	0x3ef663d4	0.48123038
123	0xbed81161	-0.4220076
124	0x3ec92d47	0.39292356
125	0xbf10d724	-0.5657828
126	0x3ef5ed92	0.48032814
127	0xbf0ba4ca	-0.54548323
128	0xbedbdd65	-0.42942348
129	0xbec67f8c	-0.38769186
130	0x3d98c0bd	0.07458637
131	0xbeaea1ac	-0.3410772
132	0xbefcf29a	-0.4940384
133	0x3e80ddcd	0.2516922
134	0x3dab4d79	0.08364386
135	0xbe106084	-0.14099318
136	0x3e9addb8	0.30247283
137	0x3db80692	0.08985628
138	0xbc426fd9	-0.011867487
139	0x3e355e40	0.17711735
140	0x3ce852d7	0.028359814
141	0x3ef2cbee	0.4742121
142	0xbe007bd1	-0.12547232
143	0x3ecad2d4	0.39613974
144	0xbe89af5a	-0.26891595
145	0x3cf85950	0.030316025
146	0xbeb31fb2	-0.3498512
147	0x3e829005	0.25500503
148	0x3cab9d19	0.020948933
149	0xbe0a96d4	-0.13534099
150	0xbd88ef7f	-0.06686305
151	0x3e58d1d4	0.21173793
152	0x3e5fd3ff	0.21858214
153	0xbcea5758	-0.028606102
154	0x3e55574f	0.20834087
155	0x3dc94e98	0.09829444
156	0xbe170950	-0.14749646
157	0xbe09fda6	-0.13475665
158	0x3aea17e6	0.0017859905
159	0xbdda3eab	-0.10656484
160	0x3c735f0d	0.014854205
161	0xbd68c4cc	-0.056828305
162	0xbea74965	-0.32673183
163	0x3db6acec	0.08919701
164	0xbe08931b	-0.13337366
165	0x3b094841	0.0020947608
166	0x3d5e1dc3	0.0542276
167	0x3dfab82c	0.12242159
168	0x3d9639e1	0.07335258
169	0xbd9ea6d3	-0.07746663
170	0x3e4911b8	0.19635665
171	0xbc5d76a3	-0.013517055
172	0xbe2aba51	-0.16672637
173	0xbd960a93	-0.073262356
174	0xbe919bb6	-0.2843911
175	0xbdaf4099	-0.08557243
176	0x3d996b8f	0.07491218
177	0xbd8dc017	-0.06921404
178	0xbc3d2ec4	-0.011546794
179	0xbd74c607	-0.059759166
180	0x3df4642c	0.11933169
181	0xbd444e76	-0.04792639
182	0xbce3b56b	-0.027796468
183	0x3d796785	0.06088974
184	0x3e78c3c4	0.24293429
185	0x3d756a08	0.059915572
186	0x3d2a0855	0.041511852
187	0xbe6aaf00	-0.2291832
188	0x3e7079d4	0.23483974
189	0xbdd32cff	-0.10311317
190	0xbdce65e7	-0.1007803
191	0x3d61c0c4	0.055115476
192	0xbd2f817d	-0.0428481
193	0x3d8f53b5	0.06998388
194	0xbee08058	-0.4384792
195	0x3c496b19	0.0122936005
196	0x3e3b9326	0.18317851
197	0xbe5337bf	-0.20626734
198	0xbee032ad	-0.43788663
199	0xbe60d4d4	-0.21956187
200	0xbe251d7f	-0.16124533
201	0xbeac8e6e	-0.33702415
202	0x3ed56a3f	0.41682622
203	0xbe573542	-0.2101641
204	0x3e4ac406	0.1980134
205	0xbdf79d8c	-0.120905966
206	0x3e0491bc	0.12946218
207	0x3e9feb93	0.31234416
208	0x3dbefed7	0.093259506
209	0x3eb9670e	0.36211437
210	0x3eca50a0	0.39514637
211	0x3dd95cef	0.10613429
212	0xbe44518d	-0.19171734
213	0x3ebbd53d	0.36686125
214	0xbea55b25	-0.322961
215	0xbca1398d	-0.019680763
216	0xbd483203	-0.04887582
217	0x3e546892	0.20743015
218	0xbce01a94	-0.027356423
219	0x3e1c35f1	0.15254952
220	0x3e4fd25f	0.20295094
221	0x3e05b1a7	0.1305605
222	0xbebd0896	-0.36920613
223	0xbc9e8c51	-0.019354017
224	0xbe6d8f2f	-0.23199151
225	0x3e64b45b	0.22334425
226	0x3e868634	0.26274264
227	0x3dccc612	0.099987164
228	0xbec8f3d0	-0.39248514
229	0x3eacde68	0.33763433
230	0xbe9446de	-0.28960317
231	0x3ea3bdf4	0.3198086
232	0xbeaf2f45	-0.3421575
233	0x3e95e7cc	0.2927841
234	0xbdb3a561	-0.08771778
235	0x3edf44b4	0.43607104
236	0xbcb05592	-0.021525178
237	0x3eb32a77	0.34993336
238	0xbd836057	-0.0641486
239	0x3ec952e6	0.3932106
240	0xbf035275	-0.51297694
241	0x3df3489a	0.11879082
242	0xbe81348f	-0.25235412
243	0x3e321d35	0.17393954
244	0xbdce4097	-0.10070913
245	0x3f2434ae	0.6414288
246	0xbee24e14	-0.44200194
247	0x3ee440fb	0.44580826
248	0xbe98bbe3	-0.29830846
249	0x3e9a6c69	0.30160835
250	0xbe8fd0b7	-0.28088924
251	0x3ef03dfd	0.46922293
252	0xbe9eba3a	-0.31001455
253	0x3e4414ec	0.19148606
254	0xbdf6d22b	-0.12051805
255	0x3f045d1f	0.5170459

transformer.layers.0.self_attn.in_proj_bias f4 [192]
0	0xbe2d27ad	-0.16909666
1	0xbeba55f2	-0.36393696
2	0xbe50e4b1	-0.20399739
3	0x3ea3d8ff	0.32001492
4	0xbeb2bbd6	-0.34908932
5	0xbe188689	-0.14895071
6	0xbdb5b990	-0.08873284
7	0x3e4083d6	0.18800291
8	0xbe25ccbf	-0.16191386
9	0x3ea81335	0.32827154
10	0xbdf9871f	-0.121839754
11	0x3e0e0855	0.13870366
12	0xbd730858	-0.05933413
13	0x3dcae07c	0.09906098
14	0xbe500efd	-0.20318218
15	0x3ef27cc5	0.47360817
16	0x3e5eb6fa	0.21749488
17	0xbdb3d24f	-0.087803476
18	0xbdf21de7	-0.1182211
19	0xbd292c4e	-0.041302018
20	0xbc776a31	-0.015101002
21	0x3e1e3e0d	0.15453358
22	0xbe54bcf4	-0.20775205
23	0x3d956805	0.07295231
24	0xbd94543b	-0.07242628
25	0xbe3abd5d	-0.18236299
26	0xbdc7e2a6	-0.09760027
27	0xbd0f03a8	-0.034915596
28	0x3e81ad62	0.25327593
29	0x3e4412b1	0.19147755
30	0x3d53a58b	0.051671546
31	0xbe7f8bdd	-0.24955697
32	0x3d1769ab	0.036966007
33	0xbc08a94f	-0.008341148
34	0xbd6d37c9	-0.05791453
35	0x3ea9809b	0.3310593
36	0x3c31f416	0.010861417
37	0x3dcf3849	0.101181574
38	0x3c0425f1	0.008065687
39	0x3e9075be	0.2821483
40	0x3d70f35f	0.058825847
41	0xbe40c705	-0.1882592
42	0xbd3852bc	-0.045000777
43	0xbebabdf5	-0.3647305
44	0xbea18f93	-0.3155485
45	0x3b31bb33	0.0027119636
46	0x3e6573e0	0.22407484
47	0x3da84ecc	0.08218154
48	0xbe1603ed	-0.14649935
49	0x3d0946ac	0.033514664
50	0x3e1ebb27	0.1550108
51	0x3e3810ba	0.1797513
52	0xbe425d9c	-0.18981022
53	0xbeb06fad	-0.34460202
54	0xbe3b4e58	-0.18291605
55	0xbe6aa838	-0.22915733
56	0xbd3d8f97	-0.046279516
57	0x3db374d8	0.087625206
58	0x3e2e2f0e	0.17010137
59	0xbe2d4f96	-0.16924891
60	0x3da42ca4	0.08016327
61	0x3d3c2d69	0.045941744
62	0x3b67dcff	0.0035379527
63	0x3e2088d2	0.15677193
64	0x334dd108	4.7920395e-08
65	0x35435d25	7.2778704e-07
66	0xb4347ac8	-1.6808474e-07
67	0xb4417ad8	-1.8019216e-07
68	0xb4777c70	-2.3048938e-07
69	0x350c13f1	5.218308e-07
70	0x3551535e	7.797988e-07
71	0xb52a79bc	-6.350708e-07
72	0x35762136	9.169047e-07
73	0xb5133821	-5.4843446e-07
74	0x338ac5f8	6.462136e-08
75	0xb43bdb40	-1.7495495e-07
76	0xb43e3750	-1.7715251e-07
77	0xb4e60d4c	-4.2850513e-07
78	0xb50e8e4e	-5.31062e-07
79	0x33fc6908	1.17537695e-07
80	0x36a5d6f2	4.942406e-06
81	0xb724bf47	-9.819697e-06
82	0xb72ce3ab	-1.0305007e-05
83	0x36406aac	2.867232e-06
84	0xb5ba43b6	-1.3877786e-06
85	0xb607ea93	-2.0253108e-06
86	0xb72435b8	-9.787669e-06
87	0xb61f6abc	-2.3754974e-06
88	0x35b7a064	1.3681242e-06
89	0x3455de30	1.9918002e-07
90	0xb6024164	-1.9409572e-06
91	0xb7026c72	-7.773853e-06
92	0x3690ceac	4.315594e-06
93	0x357e75b0	9.479363e-07
94	0xb43dc140	-1.76723e-07
95	0xb78a9c57	-1.6523683e-05
96	0x362e094c	2.5933432e-06
97	0xb7221932	-9.661819e-06
98	0xb58e592a	-1.0605775e-06
99	0x362234fd	2.4170724e-06
100	0x356160c4	8.3959844e-07
101	0xb48cc674	-2.6221426e-07
102	0xb61ff20c	-2.3833736e-06
103	0x359770ec	1.1283241e-06
104	0x377a6841	1.4925435e-05
105	0xb5686798	-8.6577484e-07
106	0xb4728134	-2.258501e-07
107	0xb66a5189	-3.4916177e-06
108	0xb7097ebe	-8.195346e-06
109	0xb705e2e9	-7.980249e-06
110	0xb6ad56b0	-5.1658935e-06
111	0x376994ea	1.3922554e-05
112	0xb5008a38	-4.788485e-07
113	0xb67ee27f	-3.7980788e-06
114	0x36dbce86	6.550751e-06
115	0xb4a2f120	-3.0350293e-07
116	0x368d2206	4.2060883e-06
117	0x36c695ba	5.9182903e-06
118	0x366e70ca	3.5530416e-06
119	0xb590db96	-1.0792744e-06
120	0xb6c15b51	-5.762479e-06
121	0xb53db980	-7.0677925e-07
122	0x3619a25e	2.2893287e-06
123	0x3623343d	2.43193e-06
124	0x36be9a5a	5.68041e-06
125	0xb6c0a358	-5.7410616e-06
126	0x35acf6e4	1.2886853e-06
127	0xb62848bf	-2.5076295e-06
128	0x3e52c69c	0.20583576
129	0x3ea3de5d	0.32005587
130	0x3ecc27ad	0.3987402
131	0xba69b041	-0.00089145085
132	0x3d357966	0.044305228
133	0x3e311c80	0.17296028
134	0xbe80a77e	-0.25127786
135	0xbdb4b586	-0.08823685
136	0x3e937a36	0.28804177
137	0x3eb7a207	0.35865805
138	0x3e583fe8	0.21118128
139	0x3e94a91d	0.29035273
140	0xbe6bcffd	-0.2302856
141	0x3e14ccc7	0.14531241
142	0x3ea6f2a6	0.32607
143	0xbef238dc	-0.47309005
144	0xbd871813	-0.06596389
145	0x3e6f730a	0.23383728
146	0x3e71492d	0.2356307
147	0x3e1144bc	0.14186376
148	0xbe7029fd	-0.23453517
149	0x3e9a63b6	0.30154198
150	0x3ec52e03	0.38511667
151	0xbea87352	-0.32900482
152	0xbe1d1b46	-0.15342435
153	0x3d8bbf71	0.06823624
154	0xbec21361	-0.3790541
155	0xbe386fc0	-0.18011379
156	0x3eab4f7f	0.33459088
157	0x3e13ab25	0.14420755
158	0xbe9f265c	-0.31083953
159	0xbbab32eb	-0.0052245758
160	0x3de61127	0.1123374
161	0xbeba4625	-0.3638164
162	0xbddfb3e4	-0.10922983
163	0xbe9afc7f	-0.30270764
164	0x3e8f3d99	0.27976683
165	0x3e058284	0.13038069
166	0xbeb8e5a8	-0.36112714
167	0x3e2208f5	0.1582373
168	0x3e7a860a	0.24465194
169	0xbe03db6a	-0.12876669
170	0x3e77dbd1	0.24204947
171	0xbe46367d	-0.19356723
172	0xbcaf80cb	-0.021423718
173	0xbe902a69	-0.28157356
174	0xbe867a90	-0.26265383
175	0xbe74d716	-0.23910174
176	0x3e62b54a	0.22139469
177	0x3ed30bef	0.41220042
178	0x3eb64358	0.35598254
179	0x3e2ffcdf	0.17186306
180	0x3d91444f	0.07093107
181	0x3d126bfb	0.03574751
182	0xbeeeb060	-0.46618938
183	0x3df015bd	0.11722896
184	0x3e78b882	0.24289134
185	0x3e19d85c	0.15023941
186	0xbeabd0a7	-0.33557627
187	0x3ebacfd0	0.36486673
188	0xbed85312	-0.42250878
189	0xbe1b1d1a	-0.1514782
190	0xbeb30c67	-0.349704
191	0xbe50987b	-0.20370667

transformer.layers.0.self_attn.out_proj.weight f4 [64, 64]
0	0x3e5d0c46	0.21586713
1	0x3e2a43a8	0.16627371
2	0x3d8e9282	0.06961538
3	0xbdb97844	-0.09056142
4	0x3ee3ce2a	0.44493228
5	0xbea933c2	-0.330473
6	0xbdd24a9c	-0.10268137
7	0xbe5626c3	-0.20913224
8	0x3d64b50d	0.055836726
9	0x3e62c7e7	0.22146569
10	0x3d54d0c2	0.0519569
11	0x3e8280de	0.25488943
12	0xbd32d50b	-0.043660205
13	0xbe9d2b2e	-0.30697006
14	0x3d31c07f	0.04339647
15	0xbbbaf0a0	-0.0057049543
16	0x3de35a62	0.111012235
17	0xbe92a813	-0.28643855
18	0xbdcdc0fa	-0.10046573
19	0xbd89186e	-0.06694113
20	0x3e23f009	0.16009535
21	0xbe8241f3	-0.2544094
22	0x3e03af1e	0.1285977
23	0xbe80decc	-0.2516998
24	0x3dd0b00d	0.10189829
25	0x3d6a5586	0.057210468
26	0xbd9d30a9	-0.07675297
27	0x3de8cc46	0.11367087
28	0xbe856da4	-0.26060212
29	0xbc991de5	-0.018691013
30	0x3e08c3aa	0.1335589
31	0xbe0d2d58	-0.13786829
32	0xbac655bc	-0.0015131752
33	0x3df5fdcf	0.12011301
34	0xbe81b8d2	-0.2533632
35	0x3dfa01af	0.12207352
36	0xbea49795	-0.32146898
37	0xbe1eb2c3	-0.1549788
38	0xbc400bd2	-0.011721568
39	0x3cb3d240	0.021950841
40	0x3d4b560a	0.0496426
41	0xbcf040df	-0.029327808
42	0x3dd6ce75	0.10488597
43	0x3d8e763f	0.069561474
44	0x3e5752aa	0.21027628
45	0xbab5c9e0	-0.0013869368
46	0xbddde994	-0.10835567
47	0xbe79a75f	-0.24380253
48	0xbec897c5	-0.3917829
49	0x3d9c3aaa	0.07628377
50	0x3db406dc	0.08790371
51	0x3dbecbd6	0.09316222
52	0x3e10800e	0.14111349
53	0xbec2ee0c	-0.3807224
54	0x3d8f6d6f	0.07003295
55	0x3e27ad5a	0.16374722
56	0x3d44c60a	0.048040427
57	0xbe33b9f7	-0.17551409
58	0xbd4e01d4	-0.050294712
59	0x3dbcb8c2	0.09214927
60	0xbd59b597	-0.053151693
61	0x3e6db4e9	0.23213543
62	0xbd6f3eda	-0.05840955
63	0xbded03e0	-0.11573005
64	0xbbbce747	-0.005764875
65	0xbe84d32c	-0.2594236
66	0xbedc13a7	-0.42983744
67	0xbef2ca7b	-0.47420105
68	0x3db45ce0	0.08806777
69	0x3eddbc81	0.4330788
70	0x3e995ee6	0.29955214
71	0xbe8789cf	-0.26472327
72	0xbdcbb489	-0.09946544
73	0xbec4dd1e	-0.3844995
74	0x3d1b7fb7	0.037963595
75	0xbe91063b	-0.28325066
76	0x3efe3318	0.49648356
77	0x3d4c7db7	0.04992458
78	0xbea6378c	-0.32464254
79	0x3ec76e73	0.38951454
80	0x3da4348b	0.08017834
81	0xbdaa70dc	-0.083223075
82	0xbe996f76	-0.2996785
83	0xbd5b7603	-0.05357934
84	0x3dbb6ecb	0.091519915
85	0xbe79e303	-0.24403004
86	0xbef113b7	-0.47085354
87	0x3eb61459	0.355624
88	0x3e1fe742	0.15615562
89	0x3e599763	0.21249156
90	0x3ede21da	0.43385202
91	0xbe08dd53	-0.13365678
92	0xbe8128a5	-0.25226322
93	0xbdb09007	-0.08621221
94	0x3e547dba	0.20751086
95	0xbe118aaa	-0.14213052
96	0xbdeff5ef	-0.1171683
97	0x3ee25c6d	0.4421114
98	0xbd9305cf	-0.07178842
99	0x3e778f3f	0.24175738
100	0xbecd9444	-0.4015218
101	0xbea59e4c	-0.32347333
102	0x3ee7a460	0.45242596
103	0xbdf23b38	-0.11827701
104	0xbe2eb904	-0.17062765
105	0xbe5d14a4	-0.21589905
106	0xbe7f9bc7	-0.24961768
107	0x3e7afe8a	0.24511161
108	0x3f0905d7	0.53524536
109	0x3d83b6ad	0.06431327
110	0x3de413cd	0.11136589
111	0x3efbf878	0.49213004
112	0xbd3f0526	-0.04663577
113	0xbee92c2a	-0.45541507
114	0xbf1ade8b	-0.60495824
115	0x3d960b1d	0.073263384
116	0x3cef0d25	0.029181072
117	0x3d92cb9b	0.07167741
118	0x3f1c15e7	0.6097092
119	0xbdfb9298	-0.1228382
120	0xbe130195	-0.14356072
121	0xbdacce26	-0.08437757
122	0x3ef0e480	0.47049332
123	0xbebc3d4f	-0.36765525
124	0x3ee18934	0.4404999
125	0x3e426606	0.18984231
126	0x3f0d5c4b	0.5521895
127	0x3dced94f	0.10100042
128	0x3e89ce5a	0.26915246
129	0xbe645a16	-0.2229999
130	0xbe5970fa	-0.21234503
131	0xbe6e071b	-0.23244898
132	0xbebcd6a1	-0.368825
133	0x3e428d07	0.1899911
134	0x3e4cc127	0.19995557
135	0xbed75d05	-0.42063156
136	0x3e52f2ed	0.20600481
137	0xbe7ba6ce	-0.2457535
138	0x3eccf5c0	0.40031242
139	0xbeb024f9	-0.34403208
140	0x3e8ed51b	0.27896962
141	0x3e1eec09	0.15519728
142	0xbe86b765	-0.26311794
143	0x3ea20f98	0.31652522
144	0x3b9e786e	0.0048361337
145	0x3e0a4370	0.13502288
146	0x3cc2ef20	0.023795664
147	0x3dc66431	0.09687079
148	0xbde84c7b	-0.113427125
149	0x3e08406b	0.13305824
150	0xbe29bb4a	-0.16575351
151	0x3d36445f	0.044498798
152	0xbdb8156b	-0.0898846
153	0xbd187548	-0.037221223
154	0x3e4dbe90	0.20092225
155	0x3e93b8a1	0.28851798
156	0x3b9a18dc	0.0047026705
157	0x3e21a4be	0.157855
158	0xbe413124	-0.18866402
159	0x3dbc8723	0.09205463
160	0x3ebe823b	0.37208733
161	0x3edced5c	0.4314984
162	0xbf0a996e	-0.54140365
163	0xbe803f1a	-0.25048143
164	0x3e8c4141	0.27393535
165	0xbeda08f3	-0.42584953
166	0x3e372a37	0.17887197
167	0x3e678f14	0.22613174
168	0x3eb4b131	0.35291436
169	0xbeb2640b	-0.34841952
170	0xbeb61d4e	-0.35569233
171	0xbebc8539	-0.3682039
172	0x3e856009	0.26049832
173	0xbeefe511	-0.4685445
174	0xbecc036e	-0.39846367
175	0x3e394479	0.18092526
176	0x3cf64717	0.030063195
177	0xbe6e8fd2	-0.2329705
178	0xbe6f912a	-0.2339522
179	0xbe47213a	-0.19446269
180	0xbd2c6d08	-0.042096168
181	0xbc6cbf0a	-0.014449844
182	0x3e71240a	0.23548904
183	0xbdbb33a3	-0.09140708
184	0xbe1dc2fb	-0.1540641
185	0x3d4df6ae	0.05028408
186	0x3e5098e4	0.20370823
187	0xbd9cf91a	-0.076647
188	0x3e536055	0.20642217
189	0xbd86353b	-0.06553122
190	0x3e9b0f6f	0.30285212
191	0x3d9543b0	0.07288301
192	0xbe2c91cf	-0.16852497
193	0x3d5f4b93	0.054515433
194	0x3d867de6	0.06566982
195	0x3e35c7b5	0.17751963
196	0x3ea4e666	0.3220703
197	0xbea3c987	-0.3198969
198	0xbe02d3f1	-0.12776162
199	0x3de3323d	0.110935666
200	0xbe8b5491	-0.27212957
201	0x3dc96047	0.098328166
202	0xbde6b1c1	-0.112643726
203	0x3dd8b080	0.1058054
204	0xbe762cb9	-0.24040498
205	0xbe82667b	-0.2546881
206	0x3e6ead84	0.23308378
207	0xbe7377b4	-0.23776132
208	0x3e62d047	0.22149764
209	0xbebb6930	-0.3660369
210	0xbeb2fde0	-0.34959316
211	0xbedb61dd	-0.428481
212	0x3ec50cbe	0.38486284
213	0xbe80aaa7	-0.25130197
214	0x3e26dccc	0.16295165
215	0xbecbb5df	-0.39787194
216	0x3ec4f95e	0.38471502
217	0x3ed5fc66	0.41794127
218	0xbe47f734	-0.19527894
219	0xbe575c76	-0.21031365
220	0xbebd1baf	-0.36935183
221	0xbec4f392	-0.3846708
222	0x3eebfe96	0.4609267
223	0xbea747ca	-0.32671958
224	0xbec9bfc0	-0.39404106
225	0xbdb41d84	-0.08794692
226	0x3eca3b9c	0.39498603
227	0x3ee64034	0.44970858
228	0xbe82da43	-0.25557145
229	0x3e245fe0	0.16052198
230	0xbc554eb2	-0.013019251
231	0xbefa7094	-0.48914015
232	0xbe9881d6	-0.29786557
233	0x3ec13703	0.37737283
234	0x3e16a4ab	0.14711253
235	0x3ed8e7f6	0.42364472
236	0xbe3ed7c9	-0.18637003
237	0x3ee46a08	0.44612145
238	0x3eb92f8b	0.36169085
239	0xbd1b7b0d	-0.037959147
240	0xbf02669a	-0.5093781
241	0x3e317ca1	0.17332698
242	0x3e806fb8	0.25085235
243	0x3ea47955	0.3212382
244	0x3efc3008	0.49255395
245	0xbe884804	-0.26617444
246	0xbe262809	-0.1622621
247	0x3ed08199	0.40723875
248	0x3eadf49e	0.3397569
249	0xbf040c6c	-0.51581454
250	0xbe9fa442	-0.31180006
251	0x3ec1597e	0.3776359
252	0xbe00cec6	-0.12578878
253	0x3ec17ee9	0.37792137
254	0xbea7c2f8	-0.32765937
255	0xbead4e39	-0.33848742

transformer.layers.0.self_attn.out_proj.bias f4 [64]
0	0xbe8c4c61	-0.27402022
1	0xbda22f17	-0.07919138
2	0x3dcbdacf	0.09953844
3	0xbea43c30	-0.3207717
4	0x3e0ccbca	0.13749614
5	0xbe52a865	-0.2057205
6	0xbe1e5bb1	-0.15464665
7	0xbec572ea	-0.38564235
8	0xbebeacb5	-0.3724114
9	0x3d07bd0e	0.03313928
10	0xbe9374df	-0.28800103
11	0x3e910733	0.28325805
12	0xbd3a0e60	-0.045423865
13	0xbe027468	-0.12739718
14	0x3e895f55	0.26830545
15	0x3e966a22	0.29377848
16	0x3e5483dc	0.20753425
17	0x3d072fa5	0.03300442
18	0xbdc9a30f	-0.09845554
19	0xbf0c4f4c	-0.548085
20	0xbe77cc4b	-0.24199025
21	0x3e9d200a	0.30688506
22	0x3f1e66a1	0.6187535
23	0x3f0b8825	0.54504615
24	0xbde9ffd4	-0.114257485
25	0xbe8ce2c9	-0.27516773
26	0x3e425687	0.1897832
27	0xbe8db21b	-0.27674946
28	0xbe26b009	-0.1627809
29	0xbe920da7	-0.2852604
30	0x3ea4759a	0.32120973
31	0xbe3b0671	-0.18264176
32	0x3d0de333	0.034640502
33	0x3e8c14e8	0.273597
34	0xbd0ffa7e	-0.035150997
35	0xbd9a9c7b	-0.075493775
36	0x3e3436ed	0.17599078
37	0xbe796813	-0.24356107
38	0xbe17d1e5	-0.14826162
39	0xbe92cf95	-0.28673998
40	0x3f29568f	0.661477
41	0x3d84c213	0.06482329
42	0xbe974bd7	-0.2955005
43	0xbe694e9d	-0.22783895
44	0xbd4ccf13	-0.05000217
45	0x3c9f4f3c	0.019446962
46	0xbbefebaa	-0.0073217945
47	0x3dede964	0.11616781
48	0x3e53cf84	0.2068463
49	0x3ea69739	0.3253725
50	0x3d9223e7	0.07135754
51	0xbe634e32	-0.22197798
52	0x3e92ced8	0.28673434
53	0x3dfc75e7	0.123271756
54	0x3eda22c8	0.4260466
55	0xbe4b0a16	-0.19828066
56	0xbbb1709c	-0.0054150354
57	0x3eeb8f13	0.46007594
58	0xbd9deec3	-0.07711556
59	0x3e80e402	0.25173956
60	0xbe8570eb	-0.26062712
61	0xbedd9cef	-0.43283793
62	0x3e7bc85e	0.24588153
63	0x3d867fa1	0.06567312

transformer.layers.0.linear1.weight f4 [128, 64]
0	0xbea82ed8	-0.3284824
1	0x3dfe4886	0.124161765
2	0x3e906165	0.28199306
3	0x3cd3a870	0.025837153
4	0xbc1d7ad6	-0.009611806
5	0x3e89c7f2	0.2691036
6	0x3f121fcd	0.57079774
7	0xbe6b9c5a	-0.23008862
8	0x3d9479f7	0.072498254
9	0xbdbc95bd	-0.09208248
10	0xbe458d71	-0.19292237
11	0xbeb84ab7	-0.35994503
12	0x3d3233fc	0.043506607
13	0xbdfb2ccb	-0.12264403
14	0xbf03bce8	-0.51460123
15	0xbe990f41	-0.2989445
16	0xbde9cfe5	-0.11416606
17	0x3c5a284a	0.01331527
18	0x3eee0410	0.46487474
19	0xbd751350	-0.05983287
20	0x3e0a8d56	0.13530478
21	0xbec369b7	-0.38166592
22	0xbeef3a2b	-0.46724066
23	0xbd9b0e75	-0.07571117
24	0x3eea2247	0.45729277
25	0xbe4eec3f	-0.20207308
26	0x3e324341	0.17408468
27	0xbd922d80	-0.07137585
28	0x3e9b0ab5	0.30281606
29	0xbde7af31	-0.11312712
30	0x3e128d57	0.1431173
31	0x3d0fef12	0.035140105
32	0x3e212a00	0.15738678
33	0x3eca794b	0.39545664
34	0x3ed2ef75	0.41198316
35	0xbe4c0f5c	-0.19927734
36	0xbec83588	-0.3910334
37	0x3d5fd6a5	0.05464806
38	0x3e82a881	0.25519183
39	0xbead0978	-0.33796287
40	0xbef5fcb3	-0.48044357
41	0xbe8a8613	-0.27055416
42	0x3e14bde6	0.14525566
43	0xbdfcc558	-0.12342328
44	0x3e6cce14	0.23125488
45	0xbeec87f4	-0.46197474
46	0xbe647827	-0.2231146
47	0xbe3f7333	-0.18696289
48	0x3d24d6b6	0.040243827
49	0xbea66e20	-0.32505894
50	0x3e0dff8b	0.13867013
51	0xbe3dba26	-0.18528041
52	0x3eac17d0	0.33611917
53	0xbdf67f6b	-0.12036022
54	0x3ba1d4a8	0.0049386807
55	0x3eb0602d	0.34448376
56	0x3eb1448f	0.3462262
57	0x3d1a0950	0.037606537
58	0x3e6937ee	0.22775242
59	0xbe4ae1f9	-0.19812764
60	0x3e7dbd0e	0.2477915
61	0x3de6e296	0.112736866
62	0xbf0b7e2e	-0.5448941
63	0xbe33d330	-0.1756103
64	0xbe5b07dc	-0.21389717
65	0x3e654718	0.22390401
66	0x3cba9375	0.022775391
67	0xbe738e57	-0.23784767
68	0xbc8c114a	-0.017098088
69	0x3ed547d4	0.41656363
70	0x3ef7bf79	0.4838827
71	0xbdafb1c7	-0.0857883
72	0xbe23c00f	-0.15991233
73	0xbe823ab5	-0.25435415
74	0xbd13cbc3	-0.036082994
75	0xbf1b0ae4	-0.6056349
76	0xbd4d228c	-0.050081775
77	0xbe2b3503	-0.16719441
78	0xbf165876	-0.5872873
79	0xbf09c57b	-0.53816956
80	0xbc036368	-0.008019306
81	0xbdcaff94	-0.09912029
82	0x3f034571	0.51277834
83	0xbca29c10	-0.019849807
84	0x3ebaf9de	0.3651876
85	0xbee72e19	-0.45152357
86	0xbea9bbe7	-0.3315117
87	0xbd764268	-0.060121924
88	0x3f13c2b7	0.57718986
89	0xbe3daf33	-0.18523864
90	0x3d8ae98c	0.06782827
91	0xba2fa412	-0.00067001686
92	0x3eb1e9cc	0.34748685
93	0xbeadb456	-0.33926648
94	0x3e7967c3	0.24355988
95	0xbdd6d5a2	-0.10489966
96	0x3ecc6581	0.3992119
97	0x3efe18a2	0.49628168
98	0x3efc43a2	0.4927035
99	0xbdea4984	-0.11439803
100	0xbf065798	-0.5247741
101	0x3ea70413	0.32620296
102	0x3ea679a9	0.32514694
103	0xbe9e9344	-0.3097173
104	0xbf00dc9e	-0.50336635
105	0xbe82d42c	-0.255525
106	0x3e9feb9f	0.31234452
107	0xbd729559	-0.05922446
108	0x3e5a6f8d	0.21331616
109	0xbf075ad6	-0.5287298
110	0xbe959e90	-0.29222536
111	0x3d317fd6	0.043334804
112	0x3dda17a4	0.1064904
113	0xbe82880c	-0.2549442
114	0x3eaad2ad	0.33363858
115	0xbea4dd1f	-0.32199952
116	0x3e612058	0.21984994
117	0x3e95862d	0.2920393
118	0x3d2fbc0a	0.042903937
119	0x3efbc70d	0.491753
120	0x3e87f589	0.26554516
121	0x3d2c33f9	0.042041752
122	0x3e50cd10	0.20390725
123	0xbdc47f79	-0.09594626
124	0x3ef4e41e	0.4783029
125	0x3d75919a	0.05995331
126	0xbf2c4773	-0.6729652
127	0xbe32620a	-0.17420211
128	0x3e82aaa8	0.25520825
129	0xbd093f52	-0.033507653
130	0xbe6de93b	-0.23233502
131	0x3de83694	0.11338535
132	0xbe80a3c0	-0.2512493
133	0xbe6f9ac2	-0.23398879
134	0xbde5d7a0	-0.11222768
135	0x3eab231b	0.3342522
136	0xbe930c56	-0.2872035
137	0x3e83af6e	0.2571978
138	0x3cecfa56	0.028927963
139	0x3ee8e77c	0.4548911
140	0xbe179bde	-0.14805552
141	0x3e4396a8	0.1910044
142	0x3ea959b5	0.33076254
143	0x3e714872	0.23562792
144	0x3ab23137	0.001359499
145	0x3e72a34f	0.2369511
146	0xbec14da9	-0.37754562
147	0x3e5dc427	0.21656857
148	0xbe9860cb	-0.29761347
149	0x3e984344	0.2973882
150	0x3e9c3acd	0.3051361
151	0x3c92758d	0.017878318
152	0xbeef8a6e	-0.467853
153	0x3e8d0e4d	0.27549973
154	0xbdd42d90	-0.10360253
155	0x3e36c582	0.17848781
156	0xbed0aa02	-0.40754706
157	0x3e4f8d5e	0.20268771
158	0xbeb01f26	-0.34398764
159	0x3e315391	0.17317034
160	0xbe9ed8af	-0.3102469
161	0xbda0fe25	-0.07860974
162	0xbeaa061a	-0.3320778
163	0x3ea4e4b5	0.3220574
164	0x3ebde32e	0.37087387
165	0xbde481a4	-0.111575395
166	0xbe86a03c	-0.26294124
167	0x3eaee193	0.34156474
168	0x3d024d90	0.03181225
169	0x3ea73e4d	0.3266472
170	0xbe2dae00	-0.16960907
171	0x3e377e92	0.17919376
172	0xbecb2759	-0.39678457
173	0x3e5fa554	0.21840411
174	0x3f053e0c	0.520478
175	0x3e8a8764	0.2705642
176	0xbc895823	-0.01676566
177	0x3e7d6a67	0.2474762
178	0xbe906ac3	-0.28206453
179	0x3e644f82	0.22295955
180	0xbe5cc163	-0.21558146
181	0x3ebaa5e5	0.36454692
182	0xbe30e984	-0.17276579
183	0xbeb91028	-0.3614514
184	0xbedb1134	-0.42786562
185	0x3d0541b6	0.03253337
186	0xbe9525b8	-0.2913034
187	0x3ee58272	0.44826084
188	0xbee350ee	-0.44397682
189	0xbeefe526	-0.46854514
190	0x3e5e3dcb	0.2170326
191	0x3e926988	0.2859614
192	0x3d650aed	0.055918623
193	0xbb93d095	-0.004510949
194	0x3db05f97	0.08611982
195	0x3dc84c9a	0.097802356
196	0xbdceffbf	-0.101073734
197	0x3eb67257	0.3563411
198	0x3eb7a4ae	0.35867828
199	0xbe046350	-0.1292851
200	0x3d64ea6f	0.055887636
201	0xbe7a5883	-0.24447827
202	0x3d373197	0.044725027
203	0xbf18ed21	-0.5973683
204	0x3e5e7ad1	0.21726538
205	0xbdcaceb2	-0.09902705
206	0xbf174320	-0.590868
207	0xbeec7399	-0.46181944
208	0xbd5aa1d6	-0.053376995
209	0xbe05e3ae	-0.13075134
210	0x3f24935e	0.64287364
211	0x3dec2a37	0.11531489
212	0x3e43552f	0.19075464
213	0xbf16a454	-0.58844495
214	0xbec7908c	-0.38977468
215	0xbdd2ece9	-0.10299093
216	0x3f045308	0.51689196
217	0xbdd74657	-0.10511463
218	0xbdf89cbb	-0.12139269
219	0x3d6e2b35	0.058146674
220	0x3ef09992	0.46992165
221	0xbefe6210	-0.4968419
222	0xbc4aaacb	-0.012369822
223	0xbd249049	-0.040176664
224	0x3e61f102	0.22064593
225	0x3ee32325	0.4436275
226	0x3e8ea4e1	0.27860168
227	0x3d6b7d93	0.057492804
228	0xbf04bcf4	-0.5185082
229	0x3ccb79d1	0.02483836
230	0x3e927706	0.28606433
231	0xbe70955b	-0.23494475
232	0xbee37a8e	-0.4442944
233	0xbe8946dd	-0.26811877
234	0x3e228f46	0.15874967
235	0xbe8ee3e6	-0.27908248
236	0x3ea4986d	0.32147542
237	0xbf1a0c23	-0.6017477
238	0xbe934d7f	-0.28770062
239	0xbd6e34b1	-0.05815572
240	0xbcb11c33	-0.021619892
241	0xbeb47690	-0.35246706
242	0x3db90cf0	0.09035671
243	0xbe49862d	-0.1968009
244	0x3ddde271	0.10834206
245	0x3e39e097	0.1815208
246	0xbe02c3f1	-0.12770058
247	0x3efbdd80	0.4919243
248	0x3edb9d5a	0.42893487
249	0x3dc55130	0.09634626
250	0x3e8b14a9	0.271642
251	0xbeb4faea	-0.35347682
252	0x3eb3c182	0.35108572
253	0x3e4f78b9	0.20260896
254	0xbf197133	-0.59938353
255	0xbe8bfa69	-0.27339485

transformer.layers.0.linear1.bias f4 [128]
0	0x3cee535e	0.029092487
1	0x3e00eb1b	0.12589686
2	0x3e3bfe46	0.18358716
3	0xbd5caeed	-0.05387776
4	0xbeefbcdf	-0.46823785
5	0x3e4f924c	0.20270652
6	0x3ddb9eef	0.107236736
7	0xbeb0bffe	-0.34521478
8	0x3ecedf27	0.40404627
9	0xbd601ad5	-0.05471309
10	0x3cf5b070	0.029991359
11	0xbebeceed	-0.37267247
12	0xbec30b84	-0.38094723
13	0xbe01a62d	-0.12661047
14	0xbecaeb9f	-0.3963289
15	0x3ea33944	0.31879628
16	0x3e8a8741	0.27056316
17	0x3c8e64ba	0.017382015
18	0x3e7dbf4f	0.2478001
19	0xbedb9c4c	-0.42892683
20	0x3cd80a94	0.026372232
21	0x3ea96390	0.33083773
22	0x3f308b7a	0.68962824
23	0x3e10ddb2	0.1414707
24	0x3eba8df0	0.36436415
25	0x3e8dc460	0.27688885
26	0x3e8e645e	0.2781095
27	0xbdf321e7	-0.11871701
28	0x3ed6daef	0.41963908
29	0xbef6da4e	-0.48213428
30	0xbedbb786	-0.42913455
31	0x3e4cd995	0.20004876
32	0xbdc230d1	-0.09481967
33	0xbe5996c5	-0.2124892
34	0xbecae6b1	-0.3962913
35	0xbeba9136	-0.36438912
36	0xbe82da80	-0.25557327
37	0xbeb47731	-0.35247186
38	0xbe247ed0	-0.16064
39	0x3de86338	0.113470495
40	0x3de90766	0.11378364
41	0xbedfa82d	-0.43682995
42	0x3de9e348	0.114203036
43	0x3e6ba74f	0.23013042
44	0x3e3a9d59	0.18224086
45	0xbdb22213	-0.086979054
46	0x3e232feb	0.15936248
47	0x3e85e474	0.26150858
48	0x3b22ec9b	0.0024860266
49	0x3eb4fb8a	0.3534816
50	0xbf0f11e7	-0.5588669
51	0x3eaa1142	0.33216292
52	0x3eb6f7af	0.35735843
53	0x3e34cd45	0.17656429
54	0x3e5abc59	0.21360911
55	0x3ec77fe7	0.3896477
56	0x3d8a0d4f	0.0674082
57	0x3ec7093f	0.38874242
58	0x3d1f97ca	0.038963117
59	0xbe65284f	-0.22378658
60	0x3e99b10e	0.30017895
61	0xbd89d44b	-0.06729945
62	0x3ee4569f	0.44597337
63	0x3c1c8332	0.009552764
64	0xbedac49a	-0.4272812
65	0xbe1ac3c3	-0.1511374
66	0x3e7e8e09	0.2485887
67	0x3e9e83b8	0.30959868
68	0x3e89a80f	0.2688603
69	0x3e9a7683	0.30168542
70	0xbecbf52c	-0.3983549
71	0xbeb2d688	-0.349293
72	0x3e346d87	0.17619906
73	0xbe9daa0b	-0.30793795
74	0xbd89c2f8	-0.067266405
75	0xbcdf1759	-0.027232813
76	0xbcc1c2f8	-0.023652539
77	0x3e8e3856	0.27777356
78	0x3ea07f29	0.31347016
79	0x3eaab471	0.3334079
80	0x3e4bce28	0.19902861
81	0x3d64efcd	0.055892754
82	0xbe62e8d8	-0.22159135
83	0xbe231b7d	-0.15928455
84	0x3e47a767	0.19497453
85	0x3ef8c8d0	0.48590708
86	0xbd878c01	-0.066185005
87	0xbf10e252	-0.5659534
88	0xbe0edecd	-0.13952179
89	0xbdc0f339	-0.09421391
90	0x3e04a22b	0.12952487
91	0x3efa207a	0.48852903
92	0xbe0362e3	-0.12830691
93	0xbef5376f	-0.47893855
94	0xbd40ee49	-0.047102246
95	0xbdc40cf6	-0.095727846
96	0xbdd88183	-0.105715774
97	0xbde24399	-0.110480495
98	0x3f039c0e	0.51409996
99	0xbe9f0941	-0.31061748
100	0x3dc7d3a7	0.09757166
101	0xbed93787	-0.42425177
102	0xbef8b6dc	-0.4857701
103	0xbb303b2f	-0.0026890745
104	0x3d6655a6	0.056234024
105	0xbd2ef410	-0.042713225
106	0xbf05c6c2	-0.52256405
107	0x3e6ff279	0.2343234
108	0x3e54a1d0	0.20764852
109	0x3e8a20c5	0.26978126
110	0xbdd55af6	-0.1041774
111	0xbda84690	-0.08216584
112	0xbef5247a	-0.47879392
113	0x3db197cf	0.08671533
114	0x3d84e4df	0.06488966
115	0xbe1aa818	-0.15103185
116	0xbee3ab87	-0.44466802
117	0x3cb5ffa2	0.022216622
118	0xbee74a5c	-0.4517392
119	0x3d9f8020	0.0778811
120	0x3ebe5f97	0.37182304
121	0xbe1f2a95	-0.15543588
122	0x3bf03fcd	0.0073318244
123	0x3e39348c	0.18086451
124	0x3e877d2d	0.2646269
125	0x3ed6271b	0.4182671
126	0xbc9780e3	-0.018494075
127	0x3e8b16a5	0.27165714
