data/processed/model_20250726_203713/best_gnn.pth (torch, 912191 bytes, 220 tensors)

lin_dict.core.weight f4 [64, 3]
000000 d2 72 66 be d6 4f 7d be 87 c4 0a 3f 6a 64 8a bd
       -0.22504738 -0.24737486 0.54206127 -0.06757434
000010 0b e5 95 3e 13 64 75 be 3c 81 c7 bd 5f 11 95 3e
       0.29276308 -0.23963957 -0.097414464 0.29114816
000020 c3 9d a3 3e 03 44 db 3c 39 94 20 be a1 b9 b2 be
       0.319563 0.026765829 -0.15681542 -0.3490725
000030 90 4b e6 be 71 14 0b 3f 34 8e 12 be 94 57 4d 3e
       -0.44979525 0.54328066 -0.14312059 0.2005294
000040 24 e9 d8 3e ff e7 ef 3e 32 0f e7 bd a4 7e 37 be
       0.42365372 0.46856686 -0.11282195 -0.17919403
000050 80 82 e7 be fe 84 37 be 12 cd e8 3e 7e 8e 12 3e
       -0.4521675 -0.17921826 0.45468956 0.14312169
000060 df f1 14 bd 5f 81 cc 3e 8b e3 c2 bd f9 37 aa 3e
       -0.03636348 0.39942452 -0.095160566 0.3324583
000070 56 b6 b3 3e ed fb 06 3f cc 39 d3 3e e2 dd ef 3e
       0.3510005 0.5272816 0.41255033 0.4684897
000080 75 97 fd 3e 27 50 3e 3e 7f 2f c8 3e a2 80 3e be
       0.49529615 0.18585263 0.39098737 -0.18603757
000090 9e 67 b4 be 93 32 07 3f aa a1 f6 3e 10 7c 6c be
       -0.35235304 0.52811545 0.48170215 -0.23094201
0000a0 5c 7e c0 bd 52 73 9b 3e 78 f1 0f 3e fd dd 11 3f
       -0.09399101 0.3036142 0.14056957 0.5697935
0000b0 2c 7a d6 3e 15 c2 9d bd f7 e2 d9 bd e6 21 95 bd
       0.41890085 -0.07703034 -0.10638993 -0.07281856
0000c0 ab b8 c6 3e e6 20 d4 be 94 a5 07 3e 91 0f de be
       0.38812765 -0.4143135 0.13246757 -0.4337125
0000d0 3d 73 01 3f 1e e8 b8 3d c9 3b 29 3d bd 22 bd be
       0.50566465 0.09028648 0.04131678 -0.36940566
0000e0 07 ed f0 bc ab fa d5 be 4e c1 a3 3e 45 bf 82 3e
       -0.029409898 -0.41792807 0.31983417 0.25536552
0000f0 b2 97 76 3e 7d 2e 90 be 88 34 d7 3d 59 46 82 bd
       0.24081305 -0.28160468 0.105080664 -0.06361074
000100 70 35 dd bd 7e 44 e9 bd 86 41 09 3f 36 7f 14 3e
       -0.10801208 -0.11390017 0.53615606 0.14501652
000110 2f 5d 79 bd f6 e2 22 3e 93 27 cb be 3c be b0 3e
       -0.060879882 0.15906891 -0.3967863 0.34520137
000120 16 e2 b0 bd 20 94 b1 be ec 5c b8 3e 62 77 c9 3d
       -0.086368725 -0.34683323 0.36008394 0.098372236
000130 d8 5d e1 3e 2f 7a da be 83 54 bf 3e 1c c6 a0 bd
       0.4401691 -0.42671344 0.37369165 -0.07850286
000140 36 02 82 be 29 1d 0a bf f9 61 81 3e c8 fc ff be
       -0.25392312 -0.53950745 0.2527006 -0.49997544
000150 c6 ef 05 3f d7 ad 1b bd 89 be 0a bf 17 89 d2 3d
       0.5231899 -0.038007583 -0.54196984 0.10280054
000160 99 8f 0c 3f 8e fb 0f be 7f d5 84 bd d0 b5 00 be
       0.5490661 -0.14060804 -0.06486034 -0.12569356
000170 94 8d a7 3e 2a cc 08 3f 5d 1f 3b be f9 6c ca 3d
       0.32725203 0.5343653 -0.18273683 0.09884066
000180 8c ac 8b 3e 48 7e 37 3e 63 4a e1 be 31 2a a4 3d
       0.2728008 0.17919266 -0.44002065 0.0801586
000190 3c 6e ad bd 53 21 17 be e4 34 c9 be 65 df 44 be
       -0.08468291 -0.14758806 -0.39298165 -0.19225843
0001a0 bb 11 0f 3f 3e f3 85 be 09 5c 9b 3d 8c f9 ec bd
       0.5588643 -0.26162142 0.07585914 -0.11571035
0001b0 91 18 a8 be f4 26 cd bc d4 14 20 3d ad d0 33 3e
       -0.32831243 -0.025042988 0.039082363 0.17560072
0001c0 68 f6 4f be 7d ca 65 3e a9 72 cd be 12 98 c1 3d
       -0.2030884 0.22440524 -0.4012654 0.09452833
0001d0 cf bd dd 3e 28 ac c6 bd 96 bb 4b be 63 40 b6 3e
       0.43308875 -0.09700805 -0.19895777 0.35595998
0001e0 be a2 33 be 77 c4 db 3e 38 fe b6 3e ed b4 ed 3e
       -0.1754255 0.42923328 0.3574083 0.46427098
0001f0 b4 61 e8 3d 05 82 3e 3e 24 06 ee be f4 95 c3 be
       0.113467604 0.18604286 -0.4648906 -0.38200343
000200 c4 60 f6 3e 3d 8a 4a be 6b c5 18 bd 9d 65 7c 3e
       0.481207 -0.19779296 -0.037297647 0.24648137
000210 d1 a5 a2 be 4a 4a 56 be 6e 7e 23 3c 65 3d ec be
       -0.31767133 -0.20926777 0.009978874 -0.4614059
000220 4c 23 0c 3f 96 13 27 be 92 b9 93 be ca f1 fa 3e
       0.5474136 -0.16316065 -0.28852516 0.49012595
000230 e3 3b a1 3e 2e 4f 9b 3e 89 f7 60 be cf d3 10 be
       0.31491002 0.30333847 -0.21969427 -0.14143299
000240 b6 4e 72 3e f7 7f 10 bf fc 85 83 be dd b3 32 3d
       0.23662838 -0.5644526 -0.2568816 0.043628562
000250 13 d2 d7 be 29 3f ce be 18 05 06 be c1 2c fc 3e
       -0.4215246 -0.40282562 -0.1308788 0.49252895
000260 60 09 c3 3e ac 30 c3 be f5 ec 71 be 7c 91 8b 3e
       0.3809309 -0.3812307 -0.23625548 0.27259433
000270 21 ff 92 3e c8 fc 0c be 1c 7e 81 3e 67 16 27 be
       0.28710273 -0.13768303 0.25291526 -0.1631714
000280 7d 88 c8 3e e7 13 d7 3e 1e a7 00 3f d7 a4 e0 3e
       0.39166632 0.42007372 0.50255 0.43875763
000290 76 25 c3 be b3 cf 9f 3e ae cc 8c 3e 2e 26 01 3f
       -0.38114518 0.3121315 0.27499908 0.5044888
0002a0 ef 58 83 be d1 da fe 3d 51 10 07 bf 27 62 85 bd
       -0.25653788 0.1244408 -0.5275927 -0.06512862
0002b0 7a 4e f3 3e 84 60 09 3e be 8c 08 bf a0 94 8c 3e
       0.4752081 0.13415724 -0.53339756 0.27457142
0002c0 bd 22 ba bd fc e2 2a be d1 27 12 3f 11 45 4a 3e
       -0.09088657 -0.1668815 0.57092005 0.19752909
0002d0 d2 14 63 3d 9c 6d 38 3e 07 83 1c 3e 1a 35 03 be
       0.055439778 0.18010563 0.15284358 -0.12813225
0002e0 b0 8c c4 3e 3f 5e 01 bf ff f3 dd 3e 6f 25 2a be
       0.38388586 -0.50534433 0.43350217 -0.16615842
0002f0 ee 26 08 bf f0 34 4e 3d 34 a3 06 bf dd f7 7d be
       -0.531844 0.050343454 -0.5259278 -0.24801584

lin_dict.core.bias f4 [64]
000000 55 8c 32 3e 33 13 12 bf 0c 37 cd 3e 3d 3d 36 be
       0.17436345 -0.57060546 0.4008106 -0.17796798
000010 bb 24 c5 3e c9 65 72 3e f7 c9 81 bd a9 e1 6b be
       0.38504586 0.2367164 -0.0633735 -0.23035301
000020 03 6b d0 3e e6 d5 a3 3e a0 c5 b0 3e ad 87 e0 be
       0.40706643 0.3199913 0.34525776 -0.43853512
000030 a3 8c ad be 00 52 a2 3e 44 74 f1 3e a3 39 5a bd
       -0.3389636 0.31703186 0.47159016 -0.053277623
000040 a2 e4 da 3e d7 bc 80 3e 01 0b d6 be 9f 3c f0 be
       0.42752558 0.25144073 -0.4180527 -0.4692125
000050 73 d5 a5 be d8 f2 df be dc c1 78 be af 69 f0 bd
       -0.3238941 -0.43739963 -0.24292701 -0.117389075
000060 84 64 f4 be b5 e7 24 3d 11 2a be be e2 fa e1 be
       -0.47732937 0.040260036 -0.3714147 -0.4413672
000070 df 33 1a be b0 39 fa be 91 d7 ca bd b8 56 96 3e
       -0.1505885 -0.48872137 -0.09904397 0.29363036
000080 f9 63 8b 3e 59 5b cc 3e 1d 53 cd 3e 01 0d 11 3d
       0.2722471 0.39913443 0.40102473 0.035412792
000090 7b 83 96 be 1b d1 61 be 8c 42 df 3e dd 6b 1f be
       -0.29397187 -0.22052424 0.4360546 -0.1556849
0000a0 76 fe 5b be 1a ca f3 be 4d 63 e9 be be 23 b3 be
       -0.21483788 -0.4761513 -0.45583573 -0.34988207
0000b0 ce 83 13 3f f1 b4 e9 3e a0 da d7 bd ad ab 51 bc
       0.57622993 0.4564586 -0.10539746 -0.012797278
0000c0 a5 31 bf be 51 67 6e 3e f6 2e eb be 01 04 e1 3d
       -0.37342563 0.232816 -0.45934266 0.10987092
0000d0 37 d3 a9 3e 5d 18 01 3f a3 da 8b 3e 69 6f e2 bd
       0.33168957 0.504278 0.27315244 -0.11056406
0000e0 20 fc 08 3f de 78 02 3d 01 fb ef 3e 5a f3 df 3e
       0.5350971 0.03185355 0.46871188 0.4374035
0000f0 50 c8 d6 bd 31 44 8a bd e8 43 12 3f 5f 62 b9 3e
       -0.10487425 -0.06751288 0.57134867 0.36207864

lin_dict.agg.weight f4 [64, 3]
000000 9b 28 25 3e 5c b8 85 3d 70 b0 00 bf 33 9a 24 be
       0.16128771 0.065293044 -0.5026922 -0.16074447
000010 bb 54 ce bd 3a 14 c1 be 70 ec 06 bf 5b 25 8a 3e
       -0.10074755 -0.37710744 -0.52704525 0.26981625
000020 ed f2 55 3e 67 98 98 3e a3 93 e2 bc f7 ac c0 be
       0.2089345 0.29803774 -0.02765829 -0.37631962
000030 59 b2 f1 3e c2 3e 6c be a2 5f 13 bf 70 66 10 bd
       0.4720638 -0.23070815 -0.575678 -0.035253942
000040 d2 85 be 3e 49 4e 0c bf 4c ea b0 3e b8 93 57 3e
       0.37211472 -0.54806954 0.34553754 0.21052444
000050 43 8a 90 3e 3f 0e 75 3e 3b 3f b5 3e fd da e3 3e
       0.28230485 0.23931216 0.35399804 0.44503012
000060 4f 29 71 be e3 dc 0d bf af 4c 84 be 69 ed bf 3d
       -0.23550914 -0.5541517 -0.25839755 0.09371454
000070 3b 5a cd be 6f 52 bc be 50 3b 94 be a5 45 9a be
       -0.40107903 -0.36781642 -0.28951502 -0.3013126
000080 f1 d6 0c 3f c2 51 56 be 9f e8 dc be 8b b8 10 3f
       0.55015475 -0.20929626 -0.43146226 0.5653159
000090 03 cd 93 bd 3f 27 d2 be 20 eb bf be f8 9d 23 3d
       -0.07216837 -0.41045567 -0.37484074 0.039945573
0000a0 3b bf 06 3f 37 a2 ec be 57 49 08 3f 07 0c f3 bc
       0.52635545 -0.4621751 0.5323691 -0.029668821
0000b0 0a ed cd be 43 d2 07 3f bc 4d e2 3e 1d df 4e 3d
       -0.4021991 0.5305521 0.44199932 0.050505746
0000c0 b3 a6 a3 3d 36 f3 b2 3e 4b 10 17 bd 9b 9e 87 be
       0.0799078 0.3495118 -0.036880773 -0.26488194
0000d0 d0 27 f5 3e 59 d4 8a bd 7a ac 0d 3e 7d b1 11 3f
       0.47881937 -0.06778783 0.13835326 0.5691145
0000e0 b9 e5 e2 be d6 77 49 be 3e be 6c be b8 f6 5a be
       -0.4431589 -0.1967462 -0.23119447 -0.21383178
0000f0 38 1a 69 3e da 9b d9 3e 3f ec a9 3e 85 ab 8e be
       0.22763908 0.42501718 0.33188054 -0.27865234
000100 ae f0 dd 3d 52 94 11 bf 1a 34 ad 3e c5 14 66 3d
       0.10836922 -0.56866944 0.33828813 0.05617215
000110 5b 2b e5 3e ca 2f d1 3e d0 10 77 be ba b1 57 be
       0.4475964 0.40856773 -0.24127507 -0.21063891
000120 b5 f6 ba 3e 09 ad a8 3c 9f d8 a0 be cd c2 f0 3e
       0.36516348 0.020590322 -0.3141527 0.4702362
000130 e5 9c af 3e f8 b4 54 be fa ee 23 be de bc 1a 3d
       0.3429939 -0.20772159 -0.16009131 0.037777774
000140 bf 61 28 3e ff ea b8 be af 5b a9 3e 64 dc a0 be
       0.16443537 -0.36116788 0.33077762 -0.31418145
000150 41 39 53 be ca 1b 04 3f 05 03 00 bf c0 39 d0 be
       -0.2062731 0.516049 -0.5000461 -0.4066906
000160 fc 19 e9 3e d2 fa c7 3e 95 a4 7c 3d 26 2b e4 3e
       0.45527637 0.39058548 0.061680395 0.4456417
000170 5a 61 5d bd 2c bd b1 3e 10 3b b5 3e 9f 4e 25 3c
       -0.05404792 0.3471464 0.35396624 0.0100895455
000180 51 00 e2 be 7b b6 03 bf 74 36 1a be 20 36 e3 bd
       -0.44140866 -0.5145032 -0.15059835 -0.11094308
000190 0e 9b f1 be e9 e5 97 3e 6b 05 b7 3c 2a aa e2 be
       -0.4718861 0.29667595 0.02234145 -0.4427045
0001a0 b7 d0 05 be e7 59 7b bd 93 9d 29 be 39 72 fb bd
       -0.130679 -0.061365034 -0.16564016 -0.122776456
0001b0 8f 25 a9 3d 7b 30 17 bd 1c 61 0f 3f 81 e8 aa 3d
       0.08259117 -0.03691147 0.5600755 0.08345128
0001c0 b9 2f 7e be ea 8f c9 3e d3 b6 6a 3e 2c 1e 1e be
       -0.24822892 0.3936761 0.22921304 -0.15441197
0001d0 85 ea ed 3d 5f 2d 05 3f 20 03 68 be 8c 04 a3 3e
       0.11616997 0.52022356 -0.22657442 0.31839406
0001e0 95 13 07 3e 33 88 16 be 44 ce 24 3e bc 3c 1c be
       0.13191064 -0.14700393 0.16094309 -0.15257543
0001f0 7c 56 cb 3e fb a6 96 be 44 90 11 bf 48 48 67 3d
       0.3971442 -0.2942427 -0.56860757 0.056465417
000200 79 4e d7 bd e5 02 c8 3e 03 69 d4 be ff 69 87 be
       -0.10513014 0.39064708 -0.41486368 -0.26448056
000210 d1 ad 11 3f 08 66 d9 3e 66 6a 6b 3e b8 0b bc bd
       0.5690585 0.42460656 0.22989807 -0.09181923
000220 b2 2d da 3e 97 f4 81 3e 50 a6 15 be 96 29 c6 3e
       0.42612988 0.2538192 -0.14614224 0.38703603
000230 5c b5 bf be 57 a4 9c 3e 0f 36 e9 bd cc 7e ba be
       -0.37443054 0.3059413 -0.11387264 -0.36424863
000240 8a e4 ec 3e e8 2e 85 be 1b 7b 1f bd ca d9 02 3f
       0.4626811 -0.2601235 -0.038935762 0.5111357
000250 fc ef cf 3d d5 5c b8 bd 4f 19 05 bf 4d 3f 03 3f
       0.10153195 -0.09002081 -0.5199174 0.51268464
000260 48 01 fb 3e c5 24 cc bd 2c a1 0a 3f c9 be d3 3e
       0.49024415 -0.09967951 0.5415218 0.41356495
000270 b7 ea b5 3e 68 30 7d be 21 13 09 bf 32 ae e2 bd
       0.35530636 -0.24725497 -0.53544813 -0.11068381
000280 82 e1 97 bc 1d ee f2 bd 01 dc 92 bd 56 cd e0 be
       -0.018540148 -0.11861823 -0.07170869 -0.4390666
000290 3e 9b 0b 3f 7b aa 95 be d5 51 f1 be 9b 65 da 3e
       0.54533756 -0.2923163 -0.47132745 0.42655644
0002a0 86 58 3d 3e 9b 2f 5b be 56 57 26 3c 99 ad c6 3e
       0.184908 -0.21404879 0.010152658 0.3880432
0002b0 a2 6f b8 bd af 92 32 3e d2 ec b1 3d ad e3 9a be
       -0.09005667 0.17438768 0.08687748 -0.30251828
0002c0 d3 02 a8 3e f9 86 bd 3e c4 72 89 be 80 42 46 3e
       0.32814655 0.37017038 -0.26845372 0.19361305
0002d0 76 a2 98 be 04 5d 3f be 93 22 a1 be f5 1f 03 bf
       -0.29811448 -0.18687826 -0.3147169 -0.5122064
0002e0 2f 02 62 be 7a 2c aa 3e a9 a1 ff 3e f6 22 86 3e
       -0.22071145 0.33237058 0.49928024 0.26198548
0002f0 ba ee 0c 3f d4 49 02 3f c4 3d 52 be 63 e5 46 3d
       0.5505177 0.508939 -0.20531374 0.048558604

lin_dict.agg.bias f4 [64]
000000 db 79 ee be f0 60 c8 3e c1 0a 66 3e 11 4f 1f be
       -0.46577343 0.39136457 0.2246504 -0.15557505
000010 a6 e2 a9 be ca b0 3f 3e b5 fe 07 3e 9c 09 d9 3e
       -0.33180732 0.18719783 0.13280757 0.42390144
000020 1e 26 cd be b3 4a 93 be aa d4 e5 3e d6 22 c8 3e
       -0.40068144 -0.28767928 0.44888812 0.39089078
000030 95 d7 5c be 94 fe db 3e df 6d 9a be 08 b4 51 3e
       -0.21566613 0.42967665 -0.3016195 0.20478833
000040 7a 81 d4 be b5 89 ca be 05 65 da 3e 06 3f be be
       -0.41505033 -0.39558187 0.42655197 -0.37157458
000050 0d 89 1c be 2f aa 8c be ed 76 0b bf c1 74 f3 be
       -0.15286656 -0.2747359 -0.5447834 -0.47550014
000060 1c c8 38 be 0a 82 98 3e b0 51 40 be e2 4d aa 3e
       -0.18045086 0.29786712 -0.18781161 0.33262545
000070 42 43 00 3f 59 0f 0d be c9 8a 38 be 1b 3f 76 be
       0.5010263 -0.13775386 -0.18021692 -0.2404751
000080 76 92 5e 3e a2 07 0d 3f 68 ee aa 3e 2b 04 30 3c
       0.21735558 0.5508977 0.33385015 0.010743181
000090 be f5 e3 3e 2b 80 a0 3e a8 d9 0f bf 0c 55 5e be
       0.44523424 0.31347784 -0.5619149 -0.2171213
0000a0 b2 6a 90 bd 45 ff 71 bd 0e d5 9f be 4b a8 a9 3e
       -0.070516005 -0.059081335 -0.31217235 0.3313621
0000b0 0b 8b 80 be ec 37 57 3e 4d ad a0 3e 5c fb b8 be
       -0.2510608 0.21017426 0.31382218 -0.36129272
0000c0 2a 23 b2 be ae 28 08 bf 59 04 fc be 10 dc ce be
       -0.34792453 -0.5318707 -0.49222067 -0.4040227
0000d0 91 70 cd bb 5b fc 60 be cc 08 80 3e 4c 2a 96 3e
       -0.0062695225 -0.21971266 0.2500671 0.29329145
0000e0 d9 86 bf be df 6a e1 be 93 b3 f2 be b4 29 bb 3e
       -0.37407568 -0.4402685 -0.4740263 0.36555254
0000f0 92 a0 9d be c1 3e f4 3e af 49 97 3e 07 35 7d 3e
       -0.30786568 0.47704127 0.29548404 0.2472726

lin_dict.access.weight f4 [64, 3]
000000 6c 65 de 3e 17 54 a8 bd 1c 9b 07 3f b3 d9 f1 3e
       0.43436754 -0.08219164 0.52971053 0.47236404
000010 ce e9 45 3e 66 c5 bd 3e c8 d2 c5 bd d9 8a 84 3e
       0.1932747 0.37064666 -0.09659344 0.25887182
000020 99 46 60 3e 42 d3 35 be d7 d1 3d 3c a2 ae 0c bf
       0.21901931 -0.1775637 0.011585674 -0.5495397
000030 36 cd fa bd 5c 96 90 3e a4 f4 86 bb b2 6a 29 bd
       -0.12246172 0.28239715 -0.004118519 -0.04136152
000040 ca 77 ec bd 41 4c a4 be 1a 00 8e 3e e1 65 f5 3d
       -0.115462855 -0.32089427 0.27734452 0.119823225
000050 4a 10 02 3f d2 2c b7 3c 5f b9 22 3e c6 ac 1b be
       0.50806105 0.02236024 0.15891026 -0.15202627
000060 24 05 79 bd dc 5d b9 3e 10 0d 9a 3c 27 2d 0d bf
       -0.060795918 0.36204422 0.018805057 -0.5514702
000070 29 5b 43 3d ed 7b 8e be 0b d5 d9 3e 03 7e 85 3e
       0.04769436 -0.27828923 0.4254535 0.26072702
000080 11 54 57 3e ff 65 a7 3e e8 40 f1 3e 6f 8e b2 be
       0.21028163 0.32695004 0.47119832 -0.34874293
000090 f0 68 39 3e 79 4b c1 3e 68 b9 9e bd 30 29 2e be
       0.18106437 0.37752894 -0.07750207 -0.170079
0000a0 12 e8 da bd de 47 f9 3e e9 85 4e be 4a 6b 12 3f
       -0.10688795 0.48687643 -0.2016827 0.5719496
0000b0 9f af 0d 3f 6f 8e f2 be c3 ce 0e bf 4c 2e c1 3e
       0.553461 -0.47374293 -0.55784243 0.37730634
0000c0 a2 b9 ae 3e 56 5c 46 3d 7a 59 20 be 99 cb 55 be
       0.34126002 0.048427902 -0.15659133 -0.20878448
0000d0 6a f8 10 bf 9a 75 aa 3e 34 c6 26 3e fa a0 ab be
       -0.5662905 0.33292848 0.16286546 -0.33521253
0000e0 e2 9f a7 bd 1d 82 e8 3e 38 a5 f8 be f4 11 05 bf
       -0.08184792 0.4541177 -0.48563552 -0.5198052
0000f0 cc 50 a0 bc 1f df a5 be 2c 89 e2 3d e7 ce 11 3e
       -0.019569777 -0.3239679 0.1106132 0.14239083
000100 c1 27 0a be 75 a6 b3 bd 02 f6 67 3e 98 e8 26 3e
       -0.13491727 -0.087719835 0.22652438 0.16299665
000110 9b 9d 70 3e a9 65 f1 3d 8c db b0 3e 3e 85 4b be
       0.23497622 0.11786968 0.345425 -0.19875047
000120 6b 73 19 3e de f9 8d 3e 73 26 c0 be 63 76 cf be
       0.14985435 0.27729696 -0.37529334 -0.4052001
000130 de 3f bb be d0 52 46 be c6 ff ed 3c 00 e9 01 3f
       -0.36572164 -0.19367528 0.029052626 0.50746155
000140 fd 33 40 be 7d 47 eb bb 5a 5f ee be e4 ef 0b 3f
       -0.18769832 -0.007180153 -0.46557122 0.5466292
000150 26 26 b9 39 65 de 08 3f ef 29 35 3e a4 bf e1 be
       0.00035314373 0.5346435 0.17691778 -0.44091523
000160 83 2b a8 3e 27 ed 50 bc b6 0c a4 3d c1 0f 9d bd
       0.32845697 -0.012751854 0.08010237 -0.076690204
000170 c1 7f 0b bf e3 47 bd 3e 1c 9b cb 3d ef 9c 1d be
       -0.5449181 0.36968908 0.09941694 -0.15391897
000180 7b ba c6 be 7e b2 c9 be 35 3c c8 3e 0e 5d 25 bc
       -0.38814148 -0.3939399 0.39108434 -0.010092987
000190 d6 a8 49 3e 53 3c af be 52 13 13 bc 0d 53 9c be
       0.19693312 -0.3422571 -0.008976774 -0.30532113
0001a0 f5 d3 88 3e 29 13 4a bc 39 21 ca be 00 eb a4 be
       0.2672421 -0.01233367 -0.39478472 -0.3221054
0001b0 0a d3 fe be a0 67 71 be 47 ca 38 3d e1 14 36 3e
       -0.49770385 -0.23574686 0.04511478 0.17781402
0001c0 c3 a9 19 3e bb 17 e0 3e ba 8b c9 3e c4 a9 a2 be
       0.15006165 0.43768105 0.39364415 -0.31770146
0001d0 df 9a 79 be 93 68 fe 3d 25 fc 68 3e 83 0c 08 3f
       -0.24375485 0.1242229 0.22752436 0.5314409
0001e0 47 a6 49 be b1 65 d4 be 7a 1d ab 3e 98 15 fb 3e
       -0.19692336 -0.41483834 0.33420926 0.49039912
0001f0 9b 1c 3e 3e 55 ee ea be 92 32 95 be c8 dc fb 3d
       0.185656 -0.45884958 -0.29140145 0.1229797
000200 01 13 d1 3d d2 6d 5e be 67 7f 53 3e 67 e4 0b 3f
       0.10208703 -0.2172158 0.20654069 0.5464539
000210 32 42 15 3b 0f 86 aa 3e 06 25 9a bd 64 95 4b be
       0.0022775051 0.33305404 -0.07526593 -0.19881207
000220 69 f0 ba be 92 64 9c 3e 0a 63 3a 3d b2 b8 09 bf
       -0.36511543 0.3054548 0.045504607 -0.5379745
000230 75 02 a9 3e 44 66 cc 3d e8 06 11 be 33 32 ac be
       0.33009687 0.09980443 -0.14162791 -0.3363205
000240 af ef 26 3e ac 6c d1 bd 11 ec 09 bf d3 0e f3 3e
       0.1630237 -0.10225806 -0.53875834 0.47472247
000250 d4 c5 de bd 52 db 95 3e 11 4f 05 be 4d c6 e0 be
       -0.108775765 0.2926889 -0.13018443 -0.4390129
000260 e0 85 ce be ef 9a 3a 3e 80 cc bf be 4e a9 b9 be
       -0.40336514 0.18223165 -0.3746071 -0.36261982
000270 60 61 f0 be a0 a4 23 3e c6 13 00 bf d7 9f 82 bd
       -0.4694929 0.15980768 -0.5003017 -0.06378143
000280 43 bf 2c 3e 03 2a 00 bf b9 24 ee bd e7 6f a0 bd
       0.16869836 -0.50064105 -0.11628098 -0.07833844
000290 0d fa 85 3e 56 a4 a3 be 4d a1 a9 3e 8d bc 70 be
       0.26167336 -0.31961316 0.33130875 -0.23509426
0002a0 d9 b2 ad be eb ed 87 be 57 6e 0e bd 1b c6 f5 3e
       -0.33925512 -0.26548705 -0.034773197 0.48002705
0002b0 10 02 c8 be 0c 53 f9 3d 13 15 80 be 34 da 9b 3e
       -0.39064074 0.12174043 -0.25016078 0.30439913
0002c0 ed 19 0a 3f 39 e3 4b be 06 c0 a7 3e de 1c 17 be
       0.5394581 -0.19910897 0.3276369 -0.14757106
0002d0 50 28 6f 3d 41 37 bd 3e ca 17 24 be 9b 10 94 3e
       0.058388054 0.36956218 -0.160247 0.2891892
0002e0 4a d7 fd 3e 97 e2 4a be d8 8a 73 3e 74 40 54 bd
       0.49578315 -0.19813 0.23783433 -0.05181928
0002f0 c5 69 ef bb 0d 95 84 be fb c5 91 3e 9e 36 1f bb
       -0.00730631 -0.25894967 0.2847136 -0.002429403

lin_dict.access.bias f4 [64]
000000 2b dd b9 3d 65 8b 80 be 17 96 ee 3e f7 27 06 3f
       0.090753876 -0.2510635 0.46598884 0.5240473
000010 6d 03 7c bb 2b 7e e3 3e 29 27 cc 3e ee 65 8b 3e
       -0.003845419 0.44432196 0.39873627 0.27226204
000020 77 f8 ea 3e 24 cf 86 3e 3f 83 87 bc ff ff 43 3d
       0.4589269 0.2632991 -0.016542075 0.04785156
000030 61 94 7f be e6 b6 6c be bd db b2 be 2e 78 b2 be
       -0.24958946 -0.23116645 -0.34933272 -0.34857315
000040 a9 31 22 3e a1 94 d4 3e 81 93 40 bd 4c 46 38 be
       0.15839256 0.41519645 -0.04701567 -0.17995566
000050 8f 97 85 be 9d 24 ec 3c 7f 71 b1 3e e4 5a 77 be
       -0.26092193 0.028826052 0.34656903 -0.24155766
000060 2d 00 74 be f9 51 94 be 09 2f a2 be 17 3c b4 3e
       -0.23828192 -0.2896879 -0.3167651 0.35202095
000070 97 08 83 3d 88 e3 b4 3e eb 00 fc 3e f7 6e 52 3d
       0.06398123 0.35329843 0.4921945 0.051375356
000080 00 88 e0 3e 3d 90 6e be b4 61 86 be cc 30 0a bf
       0.4385376 -0.2329721 -0.26246417 -0.5398071
000090 b4 20 dc 3e 9e ae 9e bd fa c2 10 3e 0e d3 f8 3e
       0.429937 -0.07748149 0.14136878 0.48598522
0000a0 5b c1 92 3e 53 39 68 3d ac 0f 10 bf 4d 2e 05 be
       0.28663144 0.056695294 -0.56273913 -0.13005944
0000b0 63 fd 8d be da 28 a0 be a8 17 b3 be 30 57 e0 be
       -0.2773238 -0.31281167 -0.34978986 -0.4381652
0000c0 e7 17 c6 be db f4 ac 3e 9b d3 c8 3e bf fc 74 3e
       -0.3869011 0.3378056 0.39223942 0.2392454
0000d0 dc a3 0a bf fb 61 74 be 6a b9 9c 3e 64 18 9f be
       -0.5415628 -0.23865502 0.3061021 -0.31073296
0000e0 c1 48 d6 3d 95 16 02 3f 28 0d 82 3d 44 b0 f2 be
       0.104630955 0.5081571 0.063501656 -0.47400105
0000f0 45 92 1c be 86 9b e1 bc a6 ce f2 bd a4 1c 55 3e
       -0.15290172 -0.02753998 -0.11855821 0.20811707

attention.in_proj_weight f4 [192, 64]
000000 18 67 06 3e 87 a3 09 bc 94 e9 09 be be 43 c0 3c
       0.13125265 -0.008400804 -0.13468009 0.023469802
000010 60 4e 10 be b2 f7 95 3d 33 0a 90 bc b3 1c 88 3d
       -0.14092398 0.07322635 -0.017582988 0.06646099
000020 4b 0c d6 bd cc e5 cf 3d 5b b3 a6 3c 4e 18 df 38
       -0.104515634 0.10151252 0.020349195 0.00010637996
000030 c0 ea 14 bd d0 44 0f be 85 d9 7d 3d 98 8f cd 3d
       -0.036356688 -0.13991094 0.06197502 0.10037154
000040 ae 78 b7 3d ed 00 6f bd b7 80 83 3c dd 25 fc bd
       0.08958565 -0.058350492 0.016052587 -0.12311909
000050 f2 59 16 be 72 1b 96 bb 50 f9 94 bd 24 24 c2 bd
       -0.14682749 -0.0045809085 -0.07274115 -0.094795495
000060 15 02 1f bc 84 40 69 3c b9 1c ee 3d ed 29 88 bd
       -0.009705086 0.014236573 0.11626572 -0.06648622
000070 97 f3 91 3d 4c c6 12 3e a8 1d e2 3d cd b7 82 bd
       0.07126539 0.14333457 0.11040813 -0.063827135
000080 9d 7b 90 3d 57 ef a3 3c e3 7c ac bd bb 95 09 be
       0.07054827 0.020011587 -0.08422258 -0.13436024
000090 28 20 3d 3d 71 c5 24 3b 26 ec ca 3d 5f ea b5 3d
       0.046173245 0.0025142098 0.09908323 0.08882593
0000a0 76 ec 91 3d 64 7f 27 3d 0d 97 88 3d b4 16 22 3d
       0.071251795 0.040892974 0.06669436 0.039572433
0000b0 fb 60 a1 3d ac 2d 80 bd 3b 8d 00 3e 86 9b 10 3e
       0.07879826 -0.06258711 0.12553875 0.14121827
0000c0 44 ac 09 be f2 7f 72 bc 8c bf bd 3d 0f 24 35 3d
       -0.1344462 -0.014801012 0.0926505 0.04422384
0000d0 1d 05 b5 bd 64 dc d0 bd 7b be ce bd 77 2f 6b bd
       -0.08838866 -0.10198286 -0.10094925 -0.057418313
0000e0 1b c0 75 3d 62 8d 31 bd f2 86 b4 bc 26 38 80 bd
       0.05999766 -0.043347724 -0.022037003 -0.062607095
0000f0 7b 68 30 3c 9f c0 32 bd 90 b2 10 bc aa a8 04 bd
       0.010767098 -0.04364073 -0.008831635 -0.032387413
000100 a6 9a 4c bd 5d 76 f8 3b 2f f3 e4 3d 88 38 b1 3d
       -0.04995217 0.0075824694 0.11179196 0.086533606
000110 1d 59 b6 bc 11 35 44 bd fc 8c 1e bd 6b d1 05 3d
       -0.02225929 -0.04790217 -0.038708672 0.03267042
000120 75 5f ce bd 5b 92 53 3c 55 dd 23 3d ab a1 83 bc
       -0.10076801 0.012913312 0.040006 -0.0160683
000130 48 37 10 3e 54 75 aa bd 90 30 b2 bd ab 35 92 bd
       0.14083588 -0.0832316 -0.08700669 -0.071391426
000140 fc 3c 36 3b e0 bd f6 bc f1 0a fe bd 1f da df bc
       0.0027807346 -0.030119836 -0.12404431 -0.027325688
000150 f7 db 2c 3d 40 70 88 bd fe 26 0e 3e 5b d7 c5 3d
       0.042201962 -0.06662035 0.13882062 0.096602164
000160 eb d1 d8 3d 8f 74 c0 3d bd 3f fb 3d 7a 4f 5d 3d
       0.10586914 0.09397232 0.122680165 0.054030873
000170 86 54 ef bd 9a 2a e3 bc 34 12 33 bc e6 a4 10 be
       -0.116860434 -0.027730275 -0.010929633 -0.14125404
000180 3b f6 2b 39 5c a8 ff 3d ac f2 27 bd 90 77 19 3e
       0.00016399559 0.12483284 -0.041002914 0.14987016
000190 69 60 2d 3d d0 3b c7 3d 5e f1 ff 3c ed 77 d3 bd
       0.042328272 0.09728205 0.031243023 -0.103256084
0001a0 ff fc 0f bc 98 bd 0f be f1 5a 65 bd a5 f2 95 3c
       -0.008788346 -0.14037168 -0.05599493 0.018304178
0001b0 a7 e4 58 bc 18 e5 56 bb 69 25 0c bd d0 7b 29 3a
       -0.013238109 -0.003279036 -0.034215365 0.0006465288
0001c0 3b eb 0b be 60 e4 a6 bd e5 e7 8d bd ad b3 c3 3d
       -0.13663952 -0.08149028 -0.06928996 0.09555755
0001d0 d5 f7 09 be 03 fd 54 3d 84 cc f8 bc a5 72 3e bc
       -0.13473447 0.051999103 -0.030370958 -0.011624013
0001e0 d3 21 f2 3d eb 85 f2 bd 09 eb 14 bd 71 5a e3 3d
       0.11822858 -0.11841949 -0.03635696 0.11101235
0001f0 97 bf b0 bb 53 48 52 3d 21 00 b7 bd a8 eb d2 3d
       -0.005393933 0.051338505 -0.089355715 0.10298854
000200 fd 19 10 3e f4 c9 9c 3a e1 14 c8 3d 4c 05 88 3d
       0.14072414 0.0011962042 0.09769607 0.06641635
000210 6d 67 c9 bd 54 47 6b 3d 35 96 86 bd 6a ce 22 3d
       -0.0983418 0.05744107 -0.065716185 0.039747633
000220 d7 4f c8 bd 59 37 fd 3d 7c c4 06 3e 2d cc ba bd
       -0.09780853 0.12364072 0.1316089 -0.09120975
000230 ba 42 88 bc 84 1c b4 bd ea 31 22 bd f9 e2 e4 3c
       -0.01663338 -0.087945014 -0.039598383 0.02794026
000240 29 0d 99 bd a6 2a e1 3d d9 c3 b1 3d 48 5b f2 bd
       -0.07473213 0.10994463 0.08679933 -0.11833817
000250 af f1 a4 bb b4 94 1a 3e 14 aa 9a 3d bc c3 83 bc
       -0.0050336937 0.15095788 0.07551971 -0.016084544
000260 9c 54 bb bc d4 df a1 3d 10 32 e2 bd 37 7b fb bc
       -0.022867493 0.0790402 -0.11044705 -0.030698402
000270 88 14 04 3e 39 da 3b bc 1b 62 b3 bd 3d f7 96 3d
       0.12898457 -0.011465603 -0.087589465 0.07371376
000280 11 31 f4 3d 59 fa c7 3d e5 01 2f bd 55 65 e8 bd
       0.11923421 0.09764547 -0.042726416 -0.113474526
000290 28 cf 4c bd 32 78 12 3e 7b 6d dd bd 3c 9e 7b 3c
       -0.050002247 0.14303663 -0.10811897 0.01535755
0002a0 bd c8 a1 3b 18 a1 2d 3d 5d 16 32 3d 04 ba c2 bd
       0.00493726 0.04238996 0.04347836 -0.09508136
0002b0 38 c9 d1 bb 09 1c 72 3d f7 32 18 bd ce 4e 0a be
       -0.006402161 0.059108768 -0.03715798 -0.13506624
0002c0 50 eb c3 bd eb ce 02 3d 37 b3 c8 bd 98 48 11 bd
       -0.09566367 0.031935614 -0.097998075 -0.03546962
0002d0 ca 75 b0 3d 6e d2 37 3d 48 a8 81 bd 2c 14 7a 3d
       0.086162165 0.044878416 -0.06330925 0.061054394
0002e0 7c b3 81 bd d8 50 de 3d 3d 93 42 3d 8a 6a 87 bd
       -0.06333062 0.108552635 0.0475037 -0.066121176
0002f0 7b 3d e4 3d d4 65 e5 3c b7 30 9a bd 36 eb 81 bd
       0.11144539 0.028002657 -0.07528823 -0.06343691
000300 2d 52 02 3e 88 a1 5d 3c 39 bb ef bd 89 45 82 3c
       0.1272666 0.013527282 -0.11705632 0.015902298
000310 15 6b 32 bd a5 37 8a 3d 67 0d f0 3d fd 84 c3 bd
       -0.043559153 0.067488946 0.11721306 -0.0954685
000320 c0 71 c8 bd ce d1 15 bb 96 04 10 be 13 e8 69 bc
       -0.09787321 -0.002286065 -0.1406425 -0.014276522
000330 9a 80 03 bd 31 30 d0 3d da 1e 84 bd 9a 9e b8 3d
       -0.032105066 0.10165442 -0.06451197 0.09014626
000340 87 c1 0b be fe 13 d2 bd 4a 1d 60 bd ff 6d 8b 3d
       -0.13648044 -0.102577195 -0.054715432 0.068080895
000350 7c 66 c0 3d f5 e3 97 bd c6 04 75 bc f9 df 55 bd
       0.09394547 -0.07416526 -0.014954751 -0.05221555
000360 6c 71 25 3d e3 e9 db bd 8d 0c d3 bb 85 b2 86 3d
       0.04039137 -0.1073797 -0.006440705 0.06577019
000370 c5 19 af bd 5c 43 aa bd 69 95 47 3d 3d 37 17 3d
       -0.08549837 -0.08313629 0.048726473 0.036917914
000380 b4 41 b9 bd c7 2e 6b 3c 39 74 18 be fc 11 a5 3c
       -0.09045735 0.014354414 -0.14888085 0.020150177
000390 bf 84 cd 3d 06 7b 04 be b3 39 33 3c 6b cd 3b bd
       0.10035085 -0.12937555 0.01093905 -0.0458502
0003a0 5c 52 02 3b 55 5e bf 3d b5 ec 8d bc f0 0e df 3d
       0.0019885516 0.09344164 -0.017324785 0.10891521
0003b0 1e 09 0d be f2 02 8c bd 63 c4 b8 3d 20 58 fa bd
       -0.13773009 -0.06836499 0.09021833 -0.1222384
0003c0 93 fd 00 bd 5d 7b 8b bd 1e 54 82 3c 66 0d f6 3b
       -0.031491827 -0.06810639 0.01590925 0.0075089214
0003d0 7a c7 9f 3d fe 4c 52 bd 4e d2 82 bc f5 12 0f 3e
       0.07801719 -0.051342957 -0.015969422 0.13972075
0003e0 cb df ef bb 14 89 2f bd 89 8b ae 3d 16 bc f3 bc
       -0.0073203794 -0.042855337 0.08522708 -0.029752772
0003f0 9b e7 1b bc 68 73 84 3c e1 2a 79 bd a5 d9 a0 3c
       -0.009515668 0.016168311 -0.060831908 0.019635031

attention.in_proj_bias f4 [192]
000000 00 00 00 00 00 00 00 00 00 00 00 00 00 00 00 00
       0.0 0.0 0.0 0.0
000010 00 00 00 00 00 00 00 00 00 00 00 00 00 00 00 00
       0.0 0.0 0.0 0.0
000020 00 00 00 00 00 00 00 00 00 00 00 00 00 00 00 00
       0.0 0.0 0.0 0.0
000030 00 00 00 00 00 00 00 00 00 00 00 00 00 00 00 00
       0.0 0.0 0.0 0.0
000040 00 00 00 00 00 00 00 00 00 00 00 00 00 00 00 00
       0.0 0.0 0.0 0.0
000050 00 00 00 00 00 00 00 00 00 00 00 00 00 00 00 00
       0.0 0.0 0.0 0.0
000060 00 00 00 00 00 00 00 00 00 00 00 00 00 00 00 00
       0.0 0.0 0.0 0.0
000070 00 00 00 00 00 00 00 00 00 00 00 00 00 00 00 00
       0.0 0.0 0.0 0.0
000080 00 00 00 00 00 00 00 00 00 00 00 00 00 00 00 00
       0.0 0.0 0.0 0.0
000090 00 00 00 00 00 00 00 00 00 00 00 00 00 00 00 00
       0.0 0.0 0.0 0.0
0000a0 00 00 00 00 00 00 00 00 00 00 00 00 00 00 00 00
       0.0 0.0 0.0 0.0
0000b0 00 00 00 00 00 00 00 00 00 00 00 00 00 00 00 00
       0.0 0.0 0.0 0.0
0000c0 00 00 00 00 00 00 00 00 00 00 00 00 00 00 00 00
       0.0 0.0 0.0 0.0
0000d0 00 00 00 00 00 00 00 00 00 00 00 00 00 00 00 00
       0.0 0.0 0.0 0.0
0000e0 00 00 00 00 00 00 00 00 00 00 00 00 00 00 00 00
       0.0 0.0 0.0 0.0
0000f0 00 00 00 00 00 00 00 00 00 00 00 00 00 00 00 00
       0.0 0.0 0.0 0.0
000100 00 00 00 00 00 00 00 00 00 00 00 00 00 00 00 00
       0.0 0.0 0.0 0.0
000110 00 00 00 00 00 00 00 00 00 00 00 00 00 00 00 00
       0.0 0.0 0.0 0.0
000120 00 00 00 00 00 00 00 00 00 00 00 00 00 00 00 00
       0.0 0.0 0.0 0.0
000130 00 00 00 00 00 00 00 00 00 00 00 00 00 00 00 00
       0.0 0.0 0.0 0.0
000140 00 00 00 00 00 00 00 00 00 00 00 00 00 00 00 00
       0.0 0.0 0.0 0.0
000150 00 00 00 00 00 00 00 00 00 00 00 00 00 00 00 00
       0.0 0.0 0.0 0.0
000160 00 00 00 00 00 00 00 00 00 00 00 00 00 00 00 00
       0.0 0.0 0.0 0.0
000170 00 00 00 00 00 00 00 00 00 00 00 00 00 00 00 00
       0.0 0.0 0.0 0.0
000180 00 00 00 00 00 00 00 00 00 00 00 00 00 00 00 00
       0.0 0.0 0.0 0.0
000190 00 00 00 00 00 00 00 00 00 00 00 00 00 00 00 00
       0.0 0.0 0.0 0.0
0001a0 00 00 00 00 00 00 00 00 00 00 00 00 00 00 00 00
       0.0 0.0 0.0 0.0
0001b0 00 00 00 00 00 00 00 00 00 00 00 00 00 00 00 00
       0.0 0.0 0.0 0.0
0001c0 00 00 00 00 00 00 00 00 00 00 00 00 00 00 00 00
       0.0 0.0 0.0 0.0
0001d0 00 00 00 00 00 00 00 00 00 00 00 00 00 00 00 00
       0.0 0.0 0.0 0.0
0001e0 00 00 00 00 00 00 00 00 00 00 00 00 00 00 00 00
       0.0 0.0 0.0 0.0
0001f0 00 00 00 00 00 00 00 00 00 00 00 00 00 00 00 00
       0.0 0.0 0.0 0.0
000200 00 00 00 00 00 00 00 00 00 00 00 00 00 00 00 00
       0.0 0.0 0.0 0.0
000210 00 00 00 00 00 00 00 00 00 00 00 00 00 00 00 00
       0.0 0.0 0.0 0.0
000220 00 00 00 00 00 00 00 00 00 00 00 00 00 00 00 00
       0.0 0.0 0.0 0.0
000230 00 00 00 00 00 00 00 00 00 00 00 00 00 00 00 00
       0.0 0.0 0.0 0.0
000240 00 00 00 00 00 00 00 00 00 00 00 00 00 00 00 00
       0.0 0.0 0.0 0.0
000250 00 00 00 00 00 00 00 00 00 00 00 00 00 00 00 00
       0.0 0.0 0.0 0.0
000260 00 00 00 00 00 00 00 00 00 00 00 00 00 00 00 00
       0.0 0.0 0.0 0.0
000270 00 00 00 00 00 00 00 00 00 00 00 00 00 00 00 00
       0.0 0.0 0.0 0.0
000280 00 00 00 00 00 00 00 00 00 00 00 00 00 00 00 00
       0.0 0.0 0.0 0.0
000290 00 00 00 00 00 00 00 00 00 00 00 00 00 00 00 00
       0.0 0.0 0.0 0.0
0002a0 00 00 00 00 00 00 00 00 00 00 00 00 00 00 00 00
       0.0 0.0 0.0 0.0
0002b0 00 00 00 00 00 00 00 00 00 00 00 00 00 00 00 00
       0.0 0.0 0.0 0.0
0002c0 00 00 00 00 00 00 00 00 00 00 00 00 00 00 00 00
       0.0 0.0 0.0 0.0
0002d0 00 00 00 00 00 00 00 00 00 00 00 00 00 00 00 00
       0.0 0.0 0.0 0.0
0002e0 00 00 00 00 00 00 00 00 00 00 00 00 00 00 00 00
       0.0 0.0 0.0 0.0
0002f0 00 00 00 00 00 00 00 00 00 00 00 00 00 00 00 00
       0.0 0.0 0.0 0.0

attention.out_proj.weight f4 [64, 64]
000000 20 24 a4 3d 82 9a 94 3d fc 5e e3 bd 1c f8 f9 bd
       0.08014703 0.072560325 -0.11102101 -0.12205526
000010 e4 d3 89 bd d8 af 76 bd e4 ba b6 bd b8 b7 71 3d
       -0.06729868 -0.06022629 -0.08922365 0.0590131
000020 08 f3 95 3d 42 ae 90 3d 88 c3 45 3d 5e 0b b9 bd
       0.07321745 0.07064487 0.048282176 -0.09035371
000030 88 58 b0 3c ac 70 18 3d 60 9a fb 3d 10 8d 96 bc
       0.02152659 0.037216827 0.12285304 -0.01837781
000040 00 7e 5e ba fa 7e a2 3d f8 7f cd bc 0c d9 fc bd
       -0.00084874034 0.07934375 -0.025085434 -0.12346086
000050 20 3f 0e bd ac a4 ad bd 7c 54 46 bd 78 c0 e3 3d
       -0.03472817 -0.08478674 -0.048420414 0.11120695
000060 c8 b6 90 3c 0a 15 8c 3d 4c f2 b8 3d f4 09 9f bd
       0.017665282 0.068399504 0.090305895 -0.0776557
000070 a8 af 46 bd 5e 8a d6 bd 96 9a b7 bd 38 6b 8f bd
       -0.048507363 -0.1047561 -0.08965032 -0.07002872
000080 be 3a a5 3d 14 ce 07 3d 00 95 91 bb 38 13 0f bd
       0.08067845 0.033155516 -0.004442811 -0.034930438
000090 be 10 ec bd ac 43 47 bd 40 5e d3 bb 1a 8a be 3d
       -0.11526631 -0.04864852 -0.0064504445 0.093036845
0000a0 c0 dc df bd 2c 0f a1 bd b0 6f db bc ec 13 b2 bd
       -0.109307766 -0.07864222 -0.026786655 -0.08695206
0000b0 72 17 91 bd f0 f3 bb bd 74 3b 17 3d e2 a6 e6 3d
       -0.0708455 -0.09177387 0.036921933 0.11262299
0000c0 c8 67 f7 3c c0 ae 96 3b 80 15 2e bc 58 5a fc bc
       0.030200854 0.0045984685 -0.010625243 -0.030804798
0000d0 b0 d7 55 bc 04 0e 39 bd d6 a0 ac 3d 76 5b 89 3d
       -0.013051912 -0.045179382 0.084291145 0.06706898
0000e0 44 fc 10 3d 0e 0c d7 bd e0 0d 8c 3c 60 a6 68 3c
       0.03539683 -0.10500346 0.01709646 0.014199823
0000f0 c4 ed 1e 3d 68 90 a9 3d 6c b6 e1 bd fc b9 9d 3d
       0.03880097 0.082794964 -0.11021122 0.07701489
000100 40 7b de 3d c8 8d e1 3c d4 13 2c 3d e0 74 67 3d
       0.10863352 0.027533427 0.042011097 0.056507945
000110 d0 37 fa 3d b0 a0 8e 3c a4 43 a8 3d 6c d4 23 3d
       0.12217677 0.017410606 0.082160264 0.039997503
000120 ee d2 a1 3d 48 24 26 3d b0 55 08 bc 4a 27 8a 3d
       0.0790156 0.040561944 -0.008321211 0.06745775
000130 56 71 da 3d 70 21 28 bd 1c ed 5a bd c6 5f 87 bd
       0.10666148 -0.041047513 -0.05344878 -0.06610064
000140 80 f4 77 3d 3c 8e b7 3d 70 17 6b 3c 50 1e 42 bd
       0.060535908 0.08962676 0.01434885 -0.04739219
000150 60 3b 00 bd 74 9c cb bd e0 20 fc 3d 48 8c b1 bd
       -0.031306624 -0.099419504 0.12310958 -0.08669335
000160 fc 38 31 bd 68 d3 cc 3d ae 6b bd bd 34 b8 05 3d
       -0.043267235 0.1000126 -0.09249054 0.032646373
000170 a0 d7 2d bd 90 0a 4a 3d 6c 26 c3 3d 7a 87 fb bd
       -0.042441964 0.04932648 0.09528813 -0.122816995
000180 78 0b 15 3d b8 b7 10 3d 50 a9 c3 3c 58 74 1f bd
       0.03638789 0.035331458 0.023884445 -0.038929313
000190 20 6d f0 3d 64 3e e0 3d 7a a5 85 3d ae e7 99 bd
       0.11739564 0.109494 0.06525703 -0.075148925
0001a0 0e 7c f4 bd 34 28 a1 3d 0a fa f5 bd e4 e9 50 3d
       -0.11937724 0.07868996 -0.12010582 0.051004305
0001b0 6e 83 8c 3d 74 5f d4 bd a0 fa c7 bc a4 0e 19 3d
       0.06861006 -0.10369769 -0.0244115 0.037367478
0001c0 f6 d1 92 3d 88 27 cc 3d 42 76 b4 3d 00 60 7e bb
       0.07168953 0.099684775 0.088116184 -0.0038814545
0001d0 b8 d3 89 3d 1e 51 89 bd 56 79 dd bd 86 19 c1 3d
       0.06729835 -0.06704925 -0.108141586 0.09428696
0001e0 40 47 f4 3d 26 1c fd 3d 7e 2c a1 bd a6 e6 99 bd
       0.11927652 0.123588845 -0.07869814 -0.07514696
0001f0 e0 a1 ed 3b a0 e1 3a 3d 2a 6a a2 bd ba 31 ee bd
       0.007251963 0.04562533 -0.079304054 -0.11630578
000200 76 7c 93 3d e8 87 bf 3d 90 ec 83 bd 1c 70 be 3d
       0.072014734 0.09352094 -0.06441605 0.09298727
000210 08 02 fe bc 00 89 40 bd 00 00 03 ba 58 d4 c2 3c
       -0.031006828 -0.047005653 -0.00049972534 0.023782894
000220 72 c8 de 3d 9e d1 b5 bd 6c 7f bd bd d0 48 97 bd
       0.10878076 -0.08877872 -0.092528194 -0.07386935
000230 5c 1f 65 3d 04 fe c8 bd 7e ed ef bd c0 7e 8f 3d
       0.05593811 -0.09814075 -0.1171522 0.070065975
000240 e0 81 e0 3d 38 c1 8f bd 8a 71 89 bd 8c e5 98 bd
       0.10962272 -0.070192754 -0.06711109 -0.074656576
000250 a2 12 c3 bd 70 ed 0a 3d 7e 99 84 3d 50 61 3a 3d
       -0.09525038 0.033917844 0.06474589 0.04550296
000260 3c ff 7a 3d 90 0e 0d bd 9c 56 d2 3d 3a d2 81 bd
       0.061278567 -0.034437716 0.10270426 -0.06338926
000270 68 71 fa bc 30 54 7a 3c 40 3f c7 bd 6c 3e ae bd
       -0.030571654 0.015278861 -0.09728861 -0.08508
000280 60 a2 d2 3b 68 ac a1 bd 60 b5 35 3d 2e 95 88 bd
       0.006428048 -0.07894212 0.044362426 -0.06669079
000290 9c cc 78 bd cc ab 2b 3d d8 87 3e 3d 00 1f 6e 3d
       -0.060742006 0.041911885 0.04651627 0.058135033
0002a0 aa b3 cb 3d 2c c4 6b 3d dc 5e 3e 3d 80 25 d4 3a
       0.099463776 0.05756013 0.046477184 0.0016185492
0002b0 2c c6 63 3d c4 d4 73 bd 80 95 61 bb 02 0d a1 bd
       0.055608913 -0.05952908 -0.0034421384 -0.07863809
0002c0 e0 8b f3 bb 00 d2 34 3c 2a cd ae bd 60 8e 84 3b
       -0.007432446 0.011036396 -0.08535226 0.0040452927
0002d0 5c d2 b0 bd d6 b7 a5 3d 38 a6 92 3c c8 48 f7 3c
       -0.08633873 0.080917045 0.017901525 0.030186072
0002e0 d0 e5 73 3d ea 61 c5 bd 62 76 a2 bd ba 5d bd 3d
       0.05954534 -0.09637816 -0.07932736 0.092463925
0002f0 20 8f da 3d e0 24 a1 3b 90 47 95 3d 64 b8 e7 bd
       0.1067183 0.004917726 0.0728904 -0.113144666
000300 86 0d d2 bd a0 aa 66 bd c4 0e 8f bd e0 a9 c8 bb
       -0.10256486 -0.056315064 -0.06985238 -0.0061237663
000310 58 1a 82 bd 00 34 d3 3b 20 b3 1c bc 58 29 0a 3d
       -0.06352681 0.006445408 -0.009564191 0.033730835
000320 12 d5 85 3d 18 9f 56 3d 48 51 81 3c 4e 49 fb 3d
       0.065347806 0.052397817 0.015785828 0.12269841
000330 6c f1 06 bd 10 17 c9 bc e0 34 4a 3c 26 5b e5 3d
       -0.03294508 -0.02454713 0.012341708 0.11199026
000340 c0 a8 16 bb 50 b5 bf bd f8 21 cd 3c b2 48 84 bd
       -0.0022988766 -0.093607545 0.025040612 -0.06459178
000350 46 81 e4 bd 74 26 fd 3d f0 40 a7 bd 70 22 54 3d
       -0.111574695 0.1236085 -0.08166683 0.051790655
000360 b0 4c 6f bd 52 3a e3 bd 04 3b 04 3d 96 a6 9e 3d
       -0.058422744 -0.11095108 0.032282844 0.077466175
000370 d0 f5 22 3d 3e aa 98 3d da 0e d1 3d 98 a4 97 bc
       0.039785206 0.07454346 0.10207911 -0.018511102
000380 3c a7 a1 3d 00 5d 89 ba 30 77 b3 bc c0 f7 3e 3c
       0.078932256 -0.0010479987 -0.021907419 0.011655748
000390 4c a3 b5 3d a4 21 83 3d 4c f7 cb 3d 74 cd ca 3d
       0.08869037 0.06402901 0.099592775 0.09902468
0003a0 a0 52 2a bd 08 32 28 3d 9c 5f bd 3d bc 9d 2f bd
       -0.041582704 0.04106334 0.09246752 -0.042875037
0003b0 48 05 c3 3d c4 f2 af 3d 44 8b 61 bd c0 89 18 bc
       0.09522492 0.08591226 -0.055064455 -0.009310186
0003c0 00 48 56 b9 7a d4 f3 3d 40 0b 2b 3d e8 3a b0 bc
       -0.00020435452 0.11905761 0.041758776 -0.021512464
0003d0 3e 5c fb bd 80 14 c5 bc 30 c2 18 bd e8 b9 2c bd
       -0.12273453 -0.024057627 -0.037294567 -0.04216948
0003e0 38 18 af 3c 5c 05 be 3d 00 5e 67 ba 14 b0 46 bd
       0.021373853 0.09278366 -0.0008825958 -0.048507765
0003f0 4a 70 96 bd e8 54 43 bd 72 17 b0 bd a0 7b e0 bb
       -0.07345636 -0.047688395 -0.08598222 -0.0068506747

attention.out_proj.bias f4 [64]
000000 00 00 00 00 00 00 00 00 00 00 00 00 00 00 00 00
       0.0 0.0 0.0 0.0
000010 00 00 00 00 00 00 00 00 00 00 00 00 00 00 00 00
       0.0 0.0 0.0 0.0
000020 00 00 00 00 00 00 00 00 00 00 00 00 00 00 00 00
       0.0 0.0 0.0 0.0
000030 00 00 00 00 00 00 00 00 00 00 00 00 00 00 00 00
       0.0 0.0 0.0 0.0
000040 00 00 00 00 00 00 00 00 00 00 00 00 00 00 00 00
       0.0 0.0 0.0 0.0
000050 00 00 00 00 00 00 00 00 00 00 00 00 00 00 00 00
       0.0 0.0 0.0 0.0
000060 00 00 00 00 00 00 00 00 00 00 00 00 00 00 00 00
       0.0 0.0 0.0 0.0
000070 00 00 00 00 00 00 00 00 00 00 00 00 00 00 00 00
       0.0 0.0 0.0 0.0
000080 00 00 00 00 00 00 00 00 00 00 00 00 00 00 00 00
       0.0 0.0 0.0 0.0
000090 00 00 00 00 00 00 00 00 00 00 00 00 00 00 00 00
       0.0 0.0 0.0 0.0
0000a0 00 00 00 00 00 00 00 00 00 00 00 00 00 00 00 00
       0.0 0.0 0.0 0.0
0000b0 00 00 00 00 00 00 00 00 00 00 00 00 00 00 00 00
       0.0 0.0 0.0 0.0
0000c0 00 00 00 00 00 00 00 00 00 00 00 00 00 00 00 00
       0.0 0.0 0.0 0.0
0000d0 00 00 00 00 00 00 00 00 00 00 00 00 00 00 00 00
       0.0 0.0 0.0 0.0
0000e0 00 00 00 00 00 00 00 00 00 00 00 00 00 00 00 00
       0.0 0.0 0.0 0.0
0000f0 00 00 00 00 00 00 00 00 00 00 00 00 00 00 00 00
       0.0 0.0 0.0 0.0

convs.0.convs.<core___to___core>.nn.lins.0.weight f4 [64, 64]
000000 6a a5 ff bd 0a 03 a9 bd 50 e5 49 bc b2 b6 82 3d
       -0.12482722 -0.08252533 -0.012322739 0.063825026
000010 cc 06 96 3d 7c d9 89 bd 30 cb 9e 3c ba d5 d1 3d
       0.07325515 -0.06730935 0.019383997 0.10245843
000020 06 38 f4 bd ca 3e b8 3d f8 25 ab 3c 68 e7 87 3d
       -0.11924748 0.08996351 0.020892128 0.06635934
000030 90 f2 73 bc d8 72 8a bd 34 a5 97 bd 1a 44 ee bd
       -0.014889374 -0.06760186 -0.07404557 -0.11634083
000040 b6 02 f6 bd ec 35 ee 3d c0 ce 6b bd 80 16 af 3a
       -0.12012236 0.116313785 -0.05757022 0.0013358146
000050 d0 5c 76 bc 5c 7f e8 bd 50 89 05 3d 0a c7 ee 3d
       -0.015036777 -0.11352417 0.032601655 0.116590574
000060 2a c4 88 bd 84 f1 2a 3d 18 e0 8e 3c c8 61 77 3d
       -0.0667804 0.041734233 0.01744084 0.060395986
000070 70 eb a9 bd 0c aa 50 bd 8a 35 9d 3d 0e 84 ec 3d
       -0.08296859 -0.05094342 0.076762274 0.11548625
000080 04 40 86 3d 20 69 58 bc e8 e0 02 3d 60 f6 67 3c
       0.06555179 -0.0132086575 0.03195277 0.0141578615
000090 74 81 ba 3d 40 e8 2a 3d d0 ff 94 bc 72 f6 e9 bd
       0.091067225 0.041725397 -0.018188387 -0.11423959
0000a0 28 0b 1c bd 88 c8 b3 bd 52 40 f0 bd f4 d6 b0 3d
       -0.038096577 -0.08778483 -0.11731018 0.08634749
0000b0 c4 dc 0f 3d 40 a5 ed 3b ac ab a5 3d 70 13 bd 3d
       0.035122648 0.0072523654 0.080893844 0.09232223
0000c0 84 55 67 3d 78 ac df bd c0 47 8a bd cc 55 8c bd
       0.05647804 -0.10921568 -0.067519665 -0.06852302
0000d0 5c 82 5c bd ce 3b 97 bd 94 88 23 bd 90 53 c9 3d
       -0.053835258 -0.07384454 -0.039925173 0.098303914
0000e0 20 bb aa bc 6a 00 ac 3d ac 92 98 3d 08 a4 3a bd
       -0.020841181 0.083985165 0.074498504 -0.04556659
0000f0 40 64 7d 3c 9c e6 f5 3d 9c c7 8d bd 60 c5 b5 bc
       0.015465796 0.12006876 -0.06922838 -0.022188842
000100 14 9e 60 3d 1c 6d 56 bd 40 3b c7 3c 08 dd 18 3d
       0.054838255 -0.05235015 0.024320245 0.037320167
000110 ac 67 d9 3d 54 16 9a bd f0 46 84 bd e6 f3 cb 3d
       0.10615477 -0.0752379 -0.06458843 0.09958629
000120 18 0d bd 3c 10 75 0e bc 5e cd e7 bd d6 4d d7 bd
       0.023077533 -0.008694902 -0.113184676 -0.10512893
000130 ba 95 f8 bd 5e 44 99 bd 10 92 e3 bd f0 0f 25 3c
       -0.12137933 -0.07483743 -0.111118436 0.010074601
000140 60 e4 be 3b f0 c5 71 3c 6c d0 90 3d 50 40 92 3d
       0.0058255643 0.014756665 0.07071003 0.07141173
000150 10 a7 b8 3c 30 27 b3 bd 18 d0 4a 3d 54 32 ea bd
       0.0225406 -0.08747709 0.04951486 -0.114353806
000160 e0 81 7c 3d 2a 8c a4 bd 20 aa 64 bc 10 fa bd 3c
       0.061647296 -0.08034547 -0.013956577 0.023190528
000170 b2 b5 a5 3d 7e 9d 99 bd 20 4a 5d 3d da 65 9c 3d
       0.08091296 -0.075007424 0.05402577 0.07636614
000180 4c a0 33 bd 3a 8f 9f 3d f8 5e 98 3d 2e 3e ff 3d
       -0.043854043 0.0779099 0.07439989 0.12463032
000190 34 2f 7f 3d 88 81 98 3d 10 e0 71 bc 80 c2 ac bd
       0.062300876 0.07446581 -0.014762893 -0.084355354
0001a0 b0 19 c2 bc b0 fd fc 3d 60 aa 59 3c 60 00 4f bd
       -0.02369389 0.123530746 0.0132852495 -0.050537467
0001b0 e0 c4 dd bb 2a 19 c6 bd 10 a8 6b bd c0 b3 7d 3c
       -0.006767854 -0.096727684 -0.057533324 0.01548475
0001c0 f8 0b c2 3c 80 8d 98 ba 00 0b cf bb 58 29 fb 3c
       0.023687348 -0.001163885 -0.00631845 0.030659363
0001d0 50 dd 4a bc 70 d8 46 3c ba 8c d1 bd f0 33 a6 bd
       -0.012381867 0.012136564 -0.102319196 -0.08115375
0001e0 90 b2 2c bd 20 ee 88 3b 00 0e c4 b9 80 f0 96 3a
       -0.042162478 0.0041787773 -0.00037394464 0.0011515766
0001f0 98 4f fb bc d6 53 8d bd f0 db 14 bd 30 0c a3 bc
       -0.030677602 -0.06900756 -0.03634256 -0.019903272
000200 2c 13 2c bd 94 65 12 3d e0 71 6e bc 60 f0 9f 3b
       -0.04201047 0.035741404 -0.014553517 0.00488095
000210 f0 09 26 bd 20 28 90 bd cc d7 6a bd 78 d9 4a bd
       -0.04053682 -0.07038903 -0.057334706 -0.0495238
000220 78 c9 92 bd c8 68 4d bd 40 23 e9 bb c0 48 36 bc
       -0.07167333 -0.050148755 -0.007114798 -0.011125743
000230 c8 11 9e bc c4 1b 6d 3d 60 a1 3e bc c0 66 76 3b
       -0.019295588 0.057887807 -0.0116351545 0.0037597865
000240 f8 44 c1 3c b6 5f ef bd f0 85 c6 bd 30 cb 00 3d
       0.023592457 -0.11688177 -0.09693515 0.031443775
000250 b0 5b c1 bd 04 ec 15 bd d0 99 a6 3d e8 fd fd 3d
       -0.09441316 -0.036602035 0.08134806 0.124019444
000260 e8 5a d4 bd 60 a2 84 3c 4c 5b f9 bd 68 d4 79 bd
       -0.103689015 0.016190708 -0.121756166 -0.060993582
000270 00 ac 86 39 50 16 c0 3d 8e 1f c2 3d e2 3d af bd
       0.00025686622 0.09379256 0.09478675 -0.08556725
000280 f8 30 d6 3c b6 f8 d8 3d de 57 f2 bd a8 1b 41 bd
       0.026146397 0.10594313 -0.118331656 -0.047145516
000290 e0 67 a0 3c 90 12 67 3c 40 a5 16 bc 7c bf 70 bd
       0.019580781 0.014103547 -0.009194672 -0.058776364
0002a0 ac 7b cd 3d c0 7c 04 bc 7a 8f bd bd 16 a8 b1 bd
       0.10033354 -0.008086383 -0.092558816 -0.08674638
0002b0 ac 3a dc 3d 14 10 7b bd e4 91 2b 3d 80 da 63 bc
       0.10753378 -0.06129463 0.04188718 -0.013907075
0002c0 1c 0b 2e bd 48 83 5c 3d c0 ad f0 bd 18 e0 83 3d
       -0.042491063 0.053836137 -0.1175189 0.06439227
0002d0 00 b6 19 3b 10 1c e0 3d 6e 89 b8 3d 00 16 ed ba
       0.0023454428 0.109428525 0.09010588 -0.0018088222
0002e0 80 2e c4 bb fc 9b 90 bd 0c 6f dd 3d 42 0d c0 3d
       -0.0059869885 -0.07061002 0.10812196 0.09377529
0002f0 94 20 54 bd aa ea db 3d 20 c0 9c bb 1e cb f7 3d
       -0.05178888 0.10738118 -0.0047836453 0.120992884
000300 c2 6c cb 3d 94 5b 2b bd 98 de 73 bd 2c e2 4b bd
       0.09932853 -0.041835383 -0.059538454 -0.04977624
000310 f0 19 37 bd 78 d9 1a 3d d8 f8 82 3d b6 9c 9e 3d
       -0.04470247 0.03780505 0.063951194 0.07744734
000320 20 2f 54 bd 48 20 34 bd b8 81 35 3d 82 84 b7 bd
       -0.051802754 -0.0439761 0.044313163 -0.08960821
000330 34 08 ff bd f0 b4 e9 bd a4 7d 3e 3d 10 e1 98 bd
       -0.124527365 -0.11411464 0.04650654 -0.07464802
000340 0a 15 d1 3d d0 31 b1 bc be 00 b8 3d 3c 06 dd bd
       0.10209091 -0.021630198 0.089845166 -0.10792205
000350 7e 17 aa bd 44 d9 15 bd 90 34 9a bc d0 8d a7 bc
       -0.08305262 -0.036584154 -0.018823892 -0.020453364
000360 64 a5 e5 bd 64 d7 d6 bd c0 ad 80 3d 4c 6b 9f 3d
       -0.112131864 -0.10490301 0.0628314 0.07784137
000370 44 0e 11 3d 28 1c cd 3d 58 ea ca 3d 38 b4 ad bd
       0.035413995 0.10015136 0.09907979 -0.084816396
000380 34 39 3b bd 04 1f d3 3d b0 85 1b bd 68 dc 1d bd
       -0.04570885 0.1030865 -0.03796929 -0.038540274
000390 7c a1 0a 3d a8 76 e5 3c b0 b6 4e 3c a0 f4 aa bd
       0.03384541 0.028010681 0.012616798 -0.0834744
0003a0 f8 fc 84 bc b2 f0 8c bd b8 c9 9a bd 80 62 8c 3d
       -0.016233906 -0.068818465 -0.07558006 0.06854725
0003b0 3c 83 58 bd c0 5d c8 3d 40 a2 83 bb 14 02 0f 3d
       -0.05285953 0.097835064 -0.0040171444 0.03491409
0003c0 0c f2 d1 3d 8e 42 d5 3d 32 e6 ae 3d ba a5 e7 3d
       0.10251245 0.10413085 0.0854 0.11310907
0003d0 54 37 e4 3d a0 71 ae 3d a0 9d d9 bd 88 c2 f1 3c
       0.111433655 0.08517766 -0.10625768 0.029511705
0003e0 b0 21 b2 3d 60 97 a6 3d c0 a5 e6 bd 8c d3 3d bd
       0.08697832 0.08134341 -0.11262083 -0.046344325
0003f0 d8 be cd 3c 98 5a f3 3d 9a 57 c8 bd e6 b4 b1 bd
       0.025115415 0.11882514 -0.09782334 -0.08677082

convs.0.convs.<core___to___core>.nn.lins.0.bias f4 [64]
000000 90 16 fd 3c dc 28 11 3d 04 d4 80 bd e0 d5 94 3b
       0.030894548 0.035439357 -0.06290439 0.0045420974
000010 cc 89 b7 bd a0 93 3f bd 00 f8 54 bb 5e dc 9d bd
       -0.089618295 -0.046771646 -0.0032496452 -0.07708047
000020 d0 9d a8 bd 60 6c f9 3c 58 0e ee 3d 34 cd ab bd
       -0.08233225 0.030447185 0.116238296 -0.08388749
000030 f0 09 33 bc 4c 1e de 3d 60 33 4e bd 24 6a 9f bd
       -0.010927662 0.108456224 -0.050341964 -0.077839166
000040 8c 82 88 3d 00 67 04 3c 1c a0 9e 3d d0 4f 1f bd
       0.06665525 0.008081198 0.07745382 -0.038894475
000050 f0 e7 2c 3d b0 6c cd 3d a8 d1 27 bd 58 61 c3 3c
       0.04221338 0.10030496 -0.04097143 0.023850128
000060 18 55 84 bd 78 eb 15 bd 3e 48 99 bd 90 88 8e bc
       -0.06461543 -0.036601514 -0.07484482 -0.017399102
000070 f4 c4 f3 3d 74 ca d7 3d 30 3d ea bc 48 cd d7 bd
       0.119028 0.10536662 -0.02859363 -0.10537201
000080 82 7e f6 bd 40 59 8c bd 5a fb 96 3d 18 6d c9 3c
       -0.12035848 -0.068529606 0.0737216 0.024588153
000090 72 2c e5 3d 8e 66 c7 bd a4 1a 86 bd 04 21 fe 3d
       0.11190118 -0.09736358 -0.0654805 0.12408641
0000a0 fa cd 89 3d a2 86 ac 3d b4 73 22 3d b8 c9 2b bd
       0.0672874 0.08424117 0.039661124 -0.04194042
0000b0 94 33 d8 bd 90 e9 fe bd c4 e7 3b bd c0 d7 70 bc
       -0.10556713 -0.12446892 -0.045875326 -0.014699876
0000c0 16 49 b1 3d 52 b9 a0 3d 28 db fc 3d 78 73 03 3d
       0.08656518 0.07847847 0.12346488 0.03209254
0000d0 d8 3d 16 bd 00 df 60 bb 54 6b 04 bd 5a 41 90 3d
       -0.036680073 -0.0034312606 -0.03232892 0.07043715
0000e0 f8 46 2c bd 04 04 6c bd 74 9a 65 bd 10 d8 83 bd
       -0.04205987 -0.057621017 -0.0560555 -0.06437695
0000f0 d2 40 c9 3d 92 74 94 bd 70 f2 a7 3c 40 2e 20 bb
       0.098268166 -0.072487965 0.020501345 -0.002444163
