data/processed/model/at_20250723_183545.pth (torch, 497229 bytes, 29 tensors)

input_proj.weight f4 [64, 834]
000000 82 73 89 3c d5 3e 17 3c 71 36 e0 bc 5b 32 86 bc
       0.016778711 0.009231289 -0.02736971 -0.016381433
000010 2d 55 cc 3c b1 d4 5d bb b9 31 fd 3c 8b 1d 9e 3b
       0.024942959 -0.0033848698 0.030907499 0.004825299
000020 56 97 b7 3b 22 b0 94 bc 24 8f 4a bc e4 79 dc 3c
       0.0056027574 -0.018150393 -0.012363229 0.02691359
000030 74 c9 88 bb 51 9f 34 bc ac 65 fe bc d2 c4 a2 bc
       -0.0041744057 -0.011024312 -0.03105434 -0.019869242
000040 45 40 c9 3b 47 9a 0e 3d 83 c0 89 bc 3f 4f d7 3c
       0.0061416947 0.0348151 -0.01681543 0.026282905
000050 a0 b2 86 3c 01 53 07 bd 9a 8a 4e bc f0 5f ab 3c
       0.016442597 -0.033038143 -0.012606287 0.02091977
000060 1f 7e 29 3c 87 6b 84 3c 57 f2 df bb 2a 71 a3 bb
       0.010345011 0.016164554 -0.006834309 -0.0049878554
000070 de b9 09 bd 0d c0 1f 3d 14 a4 10 bb 9e e2 2f bc
       -0.033624522 0.039001513 -0.0022070454 -0.010735182
000080 b2 5f 20 3d 4f a1 d8 bc b9 e2 a3 bc e8 09 5e bb
       0.039153762 -0.026444105 -0.02000557 -0.0033880416
000090 ce c8 1a bb 58 7c 3a bc f4 2c 3e bb 34 e0 25 3d
       -0.0023618224 -0.011382185 -0.0029018493 0.04049702
0000a0 15 e3 6f bc 17 99 5c 3c 0a 26 c9 bc 5c 00 22 bc
       -0.014641543 0.013464234 -0.024554271 -0.009887781
0000b0 b9 41 5f bc 0e 53 1c 3d e3 33 e8 3b c6 00 18 bd
       -0.013626509 0.038165145 0.0070862635 -0.037110113
0000c0 f4 c4 02 3c ab d6 f6 3b 2c 8c d9 3c 64 9a e5 3a
       0.007981528 0.0075329146 0.026556097 0.0017517325
0000d0 75 4d c2 3c 74 40 cb bc e0 72 20 3c e3 ec d1 bc
       0.023718575 -0.024811007 0.009793013 -0.025625652
0000e0 5e 9c 45 3c 58 6c dd bc b3 c5 10 3d 2e 8e f5 bc
       0.012061207 -0.027029201 0.03534479 -0.029975023
0000f0 e7 99 f9 bc 6a 2a 04 3d c0 aa 51 3c 87 9d 89 3c
       -0.030468894 0.03226701 0.012797058 0.016798748
000100 9e 1b 1a bd 55 d3 f3 bb 92 e8 79 3c a2 dc e0 bb
       -0.037623994 -0.007440964 0.015253203 -0.006862239
000110 8b 3f f5 3c 9b 28 82 3c 05 9e 62 bb e4 ff df bc
       0.029937526 0.015888503 -0.003457905 -0.027343698
000120 10 d4 c3 3c 8f e6 92 bc b8 cc d8 bc 00 a0 fb 3c
       0.02390483 -0.017932205 -0.026464805 0.030715942
000130 90 a6 a8 3c 3e 35 ce 3b 57 87 81 ba 20 31 32 3b
       0.020587236 0.006292968 -0.0009882253 0.0027189925
000140 99 c9 d6 3c 84 f5 58 3b 77 ae 9a bb b1 e6 ab 3b
       0.026219176 0.0033105323 -0.004720505 0.0052460064
000150 83 98 27 bd 26 06 20 39 f7 ff be bc 50 90 b5 ba
       -0.04091693 0.0001526108 -0.023315413 -0.0013852213
000160 dd a5 8a 3b a2 cb d4 3c 1e 72 1a 3a 23 a5 1c 3d
       0.004231198 0.025976006 0.00058916386 0.038243424
000170 7a 85 01 bd 05 49 28 3a 0c 94 03 3d ff 4a 01 3d
       -0.031621434 0.0006419572 0.03212361 0.031565662
000180 3b e0 f4 3c 88 dd 1f 3b 1b 33 7c 3c ac 12 e8 bc
       0.029892078 0.0024393518 0.015393044 -0.028329216
000190 70 24 54 3c 7e 91 87 3c 94 94 f4 3c 36 5d 6d bc
       0.0129481405 0.016548868 0.029856004 -0.014487555
0001a0 01 fa 01 3c 1c fb 39 3c 6e d8 93 bc d5 83 7a 3a
       0.007933141 0.011351373 -0.018047538 0.00095563877
0001b0 33 2f 75 bc 6c cc 9d ba c9 5b 40 3c 0d 54 29 3c
       -0.014964866 -0.0012039072 0.011740633 0.010334981
0001c0 aa 25 02 3d 27 a3 b8 bb 6c 17 00 3d 28 07 f8 3c
       0.0317742 -0.0056346836 0.031272337 0.03027685
0001d0 ba 09 5b 3b a2 f2 b3 3c 17 f6 18 bc ce f0 ab 3b
       0.0033422546 0.021966282 -0.009336016 0.005247212
0001e0 12 32 9f 3a 82 4d 91 3c e8 f1 4a bc b2 7c 07 3d
       0.001214566 0.017737154 -0.0123867765 0.033077903
0001f0 4d 71 6c 3c 10 b0 12 3d 2b 2a b6 3c 12 a3 97 3a
       0.01443131 0.035812438 0.022236904 0.0011568984
000200 b6 2f b5 3c 40 79 39 bc fa b4 19 bb 9d 61 af bc
       0.022117477 -0.011320412 -0.0023453818 -0.02140885
000210 10 de 86 3c 7d c7 0e bc 43 b5 2b bc 5f 39 4c 3b
       0.01646331 -0.008714554 -0.010480228 0.0031162126
000220 71 b3 da 3c f5 c8 c2 3c 65 34 e3 3b 58 4d ab bb
       0.026696892 0.023777464 0.006933736 -0.005227726
000230 f7 52 e6 3c a4 09 02 3d cb f4 9c bc 27 f0 a7 bc
       0.028115733 0.031747475 -0.019159695 -0.020500256
000240 5c bc b5 3b 3e e6 f5 3c d4 99 36 3a ce bd da bc
       0.005546136 0.030017015 0.0006965671 -0.026701834
000250 b4 b0 9b 3c 2e fb e9 bb 11 d1 51 3c 0d 06 38 3c
       0.019005157 -0.0071405387 0.012806193 0.011231911
000260 59 d2 61 3c 7c a7 b2 ba 7c 75 ad bc c8 c7 e8 3c
       0.013783061 -0.0013630236 -0.021174185 0.028415576
000270 40 9d c1 3c cf 86 07 ba bf 50 6f 3c af 27 22 bd
       0.023634553 -0.00051699294 0.014606654 -0.039588626
000280 1e 69 0a 3d 20 4a 25 bd e6 35 ca bc 7c 90 4e 3c
       0.033791654 -0.040353894 -0.024683904 0.01260769
000290 c8 e3 33 3b bc 26 47 3c ef 9a f2 ba e5 ed fd bb
       0.0027449 0.012155231 -0.0018509309 -0.0077493065
0002a0 8e ea 89 bc 8f e6 69 3c 81 54 8d 3c b0 5b b0 3c
       -0.016835477 0.014276161 0.017252209 0.021528095
0002b0 66 22 4c bc 79 14 5b 3b bd 0a cd bb 7b bb cd 3c
       -0.012459373 0.003342895 -0.0062573836 0.025113812
0002c0 b1 bc a2 bc 6d ec 97 bc 12 9b dd bb ad 09 10 3b
       -0.019865366 -0.018545354 -0.0067628706 0.0021978423
0002d0 84 2b a6 3c 4c fb bd bb 6c a2 84 bb c9 0e c5 ba
       0.020284422 -0.005797779 -0.0040476825 -0.0015034314
0002e0 f8 c9 a4 ba 8f 76 4f 3c 07 a9 d6 bb 58 6c ab bc
       -0.0012572398 0.012662544 -0.0065509113 -0.020925686
0002f0 82 27 a3 bb 30 c5 f6 b8 5e fc 18 3c 01 89 84 bc
       -0.004979075 -0.00011766923 0.009337513 -0.01617861
000300 d6 b8 96 bb 53 5c 79 bc a7 9b a9 bc 23 31 d0 bc
       -0.004599671 -0.015219766 -0.020704104 -0.025414055
000310 dc 55 f6 3c 16 07 f7 3c eb 1b 21 3c 51 9a 75 bb
       0.030070238 0.030154746 0.009833316 -0.0037476013
000320 7d 6d 75 bc 7c 27 c3 3c 14 7e 90 bb bb 4d da 3c
       -0.014979717 0.023822539 -0.004409561 0.026648393
000330 9c b4 84 3c f7 14 9d 3c 02 af 97 bb 77 9c cc bc
       0.016199403 0.019175036 -0.004629017 -0.024976952
000340 57 c6 18 bb b3 1e d2 3c 39 e3 31 bc 5d b9 82 bc
       -0.002331158 0.025649404 -0.010857397 -0.015957529
000350 91 7a ec bc 63 d8 b5 3c 56 2c db 3b 2a 00 c9 bc
       -0.028867038 0.022197908 0.006688635 -0.024536211
000360 86 63 86 3c 52 24 1e bc bb 1c 08 3d 07 f2 85 bb
       0.016404878 -0.009652214 0.033230525 -0.00408769
000370 d5 4e 34 bc 2d 84 7d 3c 4e 49 c2 bb c3 48 7d bc
       -0.011005123 0.015473408 -0.0059291488 -0.015459242
000380 b3 69 12 bd 94 e4 a7 bc 0d 49 07 3d ea 24 23 bc
       -0.035745334 -0.020494737 0.03302865 -0.0099575315
000390 c9 9d ad bc b3 96 44 3b 53 ac a5 3c 1b 8b 00 bd
       -0.021193402 0.002999705 0.020223772 -0.03138266
0003a0 4f 80 0f 3c a6 ea 60 3c 74 3e 8e ba 52 47 bd bb
       0.0087586185 0.01372782 -0.0010852353 -0.0057763243
0003b0 86 ec fd 3c 51 10 89 bc af 61 87 3c 00 31 4b 36
       0.030996572 -0.016731413 0.016526071 3.027788e-06
0003c0 d0 22 f9 bc 45 7b a3 bc a9 94 c6 3c a2 71 34 3b
       -0.030412108 -0.01995624 0.024240809 0.002753355
0003d0 a2 05 16 bd 03 c1 3a 3c 0c be 22 3d d4 db d9 bc
       -0.036626466 0.011398557 0.039732024 -0.02659408
0003e0 5c 54 d5 bc a0 3a 8b 3a 33 f1 28 3d 8a b4 01 3d
       -0.026041202 0.001062233 0.04124565 0.031666316
0003f0 33 09 90 bc 76 9a 25 bd b5 e6 f2 3c 2b 05 3a bb
       -0.017582512 -0.04043051 0.029651025 -0.0028384428

input_proj.bias f4 [64]
000000 36 86 aa 3c 5d ad b8 3c 50 69 bf 3c 69 27 85 bc
       0.02081595 0.022543604 0.023365647 -0.016254144
000010 ff 8b be 3b 07 fb 2e 3c 6e 9e 18 3d c6 4c 88 3c
       0.0058150287 0.010679967 0.037260465 0.01663817
000020 a3 a5 9d 3c ae 58 fd bc 08 6c d2 3c 56 ac 71 3c
       0.01924402 -0.030926075 0.025686279 0.014750561
000030 27 14 ce bc 54 45 41 3c 86 1c 12 3b ee ce ef bc
       -0.025156094 0.011796314 0.0022294833 -0.029273476
000040 c2 a8 d1 bb 49 20 dd bb 4c 59 6b 3b f1 77 05 3d
       -0.0063982913 -0.0067482335 0.003591138 0.03258509
000050 81 2b df 3c e4 89 ab 3c 33 89 53 3a de 9d da 3b
       0.027242424 0.020939775 0.00080694555 0.0066716513
000060 de 13 a9 bb cb af 63 3a 26 e2 df 3b 10 62 21 3d
       -0.005159839 0.0008685558 0.006832379 0.03940016
000070 f2 ea 46 bc a2 5d 0e bd 6d 15 34 bc 91 f9 9a 3c
       -0.012140976 -0.034757264 -0.010991436 0.01891783
000080 cc 5f 80 bc 24 a6 21 3c 0b c1 22 3c 0c 72 5e 3b
       -0.01567068 0.009866271 0.00993372 0.003394249
000090 d7 68 69 3c 72 0a 19 bd de a0 ac 3c da 59 dc bb
       0.014246187 -0.037363477 0.021072801 -0.0067245783
0000a0 5b a1 19 bc a5 d2 ec 3c 3f c6 49 bc 02 5f b6 3c
       -0.009376849 0.028909037 -0.012315332 0.0222621
0000b0 16 3d fd 3b 96 43 32 3c c2 a3 9c 3c f6 f8 f5 3c
       0.0077282293 0.010880372 0.019121055 0.03002594
0000c0 96 20 df 3c 66 31 ef 3c 78 67 02 ba b6 d7 29 ba
       0.027237218 0.02919836 -0.00049745245 -0.0006478982
0000d0 e6 15 a8 bc 06 c7 a7 3a d4 07 15 bd 4c 7d e2 3c
       -0.020518254 0.0012800402 -0.03638442 0.027647637
0000e0 f5 38 95 bc f0 4d db 3c 7f f6 34 bc 09 00 c7 bc
       -0.018215636 0.026770562 -0.011045097 -0.024292009
0000f0 13 02 84 3c 63 23 bf 3b 57 1b 28 3b cc f6 fe 3b
       0.01611427 0.005833076 0.0025651061 0.0077808853

pos_enc.pe f4 [1, 16, 64]
000000 00 00 00 00 00 00 80 3f 00 00 00 00 00 00 80 3f
       0.0 1.0 0.0 1.0
000010 00 00 00 00 00 00 80 3f 00 00 00 00 00 00 80 3f
       0.0 1.0 0.0 1.0
000020 00 00 00 00 00 00 80 3f 00 00 00 00 00 00 80 3f
       0.0 1.0 0.0 1.0
000030 00 00 00 00 00 00 80 3f 00 00 00 00 00 00 80 3f
       0.0 1.0 0.0 1.0
000040 00 00 00 00 00 00 80 3f 00 00 00 00 00 00 80 3f
       0.0 1.0 0.0 1.0
000050 00 00 00 00 00 00 80 3f 00 00 00 00 00 00 80 3f
       0.0 1.0 0.0 1.0
000060 00 00 00 00 00 00 80 3f 00 00 00 00 00 00 80 3f
       0.0 1.0 0.0 1.0
000070 00 00 00 00 00 00 80 3f 00 00 00 00 00 00 80 3f
       0.0 1.0 0.0 1.0
000080 00 00 00 00 00 00 80 3f 00 00 00 00 00 00 80 3f
       0.0 1.0 0.0 1.0
000090 00 00 00 00 00 00 80 3f 00 00 00 00 00 00 80 3f
       0.0 1.0 0.0 1.0
0000a0 00 00 00 00 00 00 80 3f 00 00 00 00 00 00 80 3f
       0.0 1.0 0.0 1.0
0000b0 00 00 00 00 00 00 80 3f 00 00 00 00 00 00 80 3f
       0.0 1.0 0.0 1.0
0000c0 00 00 00 00 00 00 80 3f 00 00 00 00 00 00 80 3f
       0.0 1.0 0.0 1.0
0000d0 00 00 00 00 00 00 80 3f 00 00 00 00 00 00 80 3f
       0.0 1.0 0.0 1.0
0000e0 00 00 00 00 00 00 80 3f 00 00 00 00 00 00 80 3f
       0.0 1.0 0.0 1.0
0000f0 00 00 00 00 00 00 80 3f 00 00 00 00 00 00 80 3f
       0.0 1.0 0.0 1.0
000100 a4 6a 57 3f 41 51 0a 3f ce 7a 2e 3f b0 54 3b 3f
       0.84147096 0.54030234 0.68156135 0.731761
000110 ba 7d 08 3f 0d 94 58 3f f1 90 d1 3e c6 92 69 3f
       0.53316844 0.8460091 0.40930894 0.91239583
000120 3e 39 9f 3e 6b 4e 73 3f 25 8f 70 3e f1 d5 78 3f
       0.3109836 0.9504153 0.23492105 0.9720145
000130 3a 23 35 3e 83 f6 7b 3f f3 25 08 3e 28 ba 7d 3f
       0.17689219 0.9842302 0.13295726 0.99112177
000140 76 75 cc 3d 98 b8 7e 3f 36 6f 99 3d d1 47 7f 3f
       0.099833414 0.9950042 0.07491915 0.9971896
000150 ae 36 66 3d 68 98 7f 3f fa ac 2c 3d bd c5 7f 3f
       0.05620449 0.9984193 0.04215715 0.999111
000160 5b 81 01 3d 3c df 7f 3f a5 3e c2 3c 93 ed 7f 3f
       0.031617504 0.99950004 0.023711512 0.99971884
000170 42 ab 91 3c a3 f5 7f 3f 49 7a 5a 3c 2c fa 7f 3f
       0.017781857 0.99984187 0.013334819 0.99991107
000180 57 d6 23 3c b9 fc 7f 3f 16 b9 f5 3b 28 fe 7f 3f
       0.009999833 0.99995 0.0074988706 0.99997187
000190 5a 44 b8 3b f7 fe 7f 3f 5a 2e 8a 3b 6b ff 7f 3f
       0.0056233825 0.9999842 0.0042169513 0.9999911
0001a0 1c 3e 4f 3b ac ff 7f 3f 03 69 1b 3b d1 ff 7f 3f
       0.0031622713 0.999995 0.0023713715 0.9999972
0001b0 20 15 e9 3a e6 ff 7f 3f 8b c9 ae 3a f1 ff 7f 3f
       0.0017782785 0.99999845 0.0013335211 0.9999991
0001c0 6d 12 83 3a f8 ff 7f 3f 89 94 44 3a fb ff 7f 3f
       0.0009999998 0.9999995 0.000749894 0.9999997
0001d0 13 6a 13 3a fd ff 7f 3f 21 17 dd 39 ff ff 7f 3f
       0.0005623411 0.9999998 0.00042169637 0.99999994
0001e0 61 cb a5 39 ff ff 7f 3f 0d a8 78 39 00 00 80 3f
       0.00031622782 0.99999994 0.00023713727 1.0
0001f0 53 77 3a 39 00 00 80 3f 6d d4 0b 39 00 00 80 3f
       0.00017782794 1.0 0.00013335208 1.0
000200 b7 c7 68 3f 33 11 d5 be d9 5a 7f 3f 53 4d 91 3d
       0.9092974 -0.41614684 0.99748 0.070948265
000210 0a f2 66 3f b2 e8 dc 3e 12 35 3f 3f 02 39 2a 3f
       0.9021307 0.43146282 0.74690354 0.66493237
000220 1b 54 17 3f ec 7b 4e 3f b5 d3 e9 3e 69 be 63 3f
       0.5911271 0.8065784 0.45669332 0.8896242
000230 f6 47 b2 3e a6 fa 6f 3f 82 f0 86 3e f5 f2 76 3f
       0.34820527 0.93741834 0.26355368 0.96464473
000240 f8 6f 4b 3e a5 e5 7a 3f d3 00 19 3e 4f 20 7d 3f
       0.19866931 0.9800666 0.1494172 0.98877424
000250 86 d9 e5 3d f3 61 7e 3f ae 85 ac 3d 0e 17 7f 3f
       0.1122313 0.9936821 0.08423935 0.99644554
000260 c8 70 81 3d f9 7c 7f 3f aa 30 42 3d 4e b6 7f 3f
       0.063203394 0.9980007 0.04740969 0.9988755
000270 5c a5 11 3d 8e d6 7f 3f 50 75 da 3c b1 e8 7f 3f
       0.03555809 0.9993676 0.026667267 0.99964434
000280 3e d4 a3 3c e5 f2 7f 3f 51 b7 75 3c a1 f8 7f 3f
       0.019998666 0.9998 0.014997319 0.9998875
000290 9b 43 38 3c db fb 7f 3f 0a 2e 0a 3c ab fd 7f 3f
       0.011246587 0.99993676 0.008433828 0.9999644
0002a0 d8 3d cf 3b b1 fe 7f 3f e7 68 9b 3b 43 ff 7f 3f
       0.006324511 0.99998003 0.00474273 0.99998873
0002b0 08 15 69 3b 96 ff 7f 3f 80 c9 2e 3b c4 ff 7f 3f
       0.0035565514 0.9999937 0.0026670396 0.9999964
0002c0 68 12 03 3b df ff 7f 3f 85 94 c4 3a ed ff 7f 3f
       0.0019999985 0.99999803 0.0014997876 0.99999887
0002d0 12 6a 93 3a f5 ff 7f 3f 1f 17 5d 3a fa ff 7f 3f
       0.0011246821 0.99999934 0.0008433926 0.99999964
0002e0 60 cb 25 3a fd ff 7f 3f 0c a8 f8 39 fe ff 7f 3f
       0.0006324556 0.9999998 0.0004742745 0.9999999
0002f0 53 77 ba 39 ff ff 7f 3f 6d d4 8b 39 00 00 80 3f
       0.00035565588 0.99999994 0.00026670416 1.0
000300 c3 81 10 3e 26 70 7d bf de 3c 47 3f ce bf 20 bf
       0.14112 -0.9899925 0.7782725 -0.6279267
000310 d7 45 7e 3f ab 7f ed bd 63 21 74 3f 63 18 9a 3e
       0.9932532 -0.11596616 0.95363444 0.3009673
000320 c2 09 50 3f 58 2f 15 3f b7 24 27 3f a2 e7 41 3f
       0.8126489 0.58275366 0.652904 0.7574407
000330 6c 2f 02 3f 29 6d 5c 3f a7 68 c7 3e 37 c9 6b 3f
       0.5085361 0.86104065 0.3894703 0.92103904
000340 6c 4e 97 3e ef 90 74 3f e2 6d 64 3e 92 8c 79 3f
       0.2955202 0.9553365 0.22307542 0.9748012
000350 d7 ee 2b 3e 9e 5d 7c 3f 2c 33 01 3e 43 f4 7d 3f
       0.16790329 0.9858035 0.12617177 0.9920084
000360 c0 ff c1 3d 4f d9 7e 3f 06 93 91 3d 3a 5a 7f 3f
       0.094726086 0.99550337 0.071081206 0.9974705
000370 4e 69 5a 3d c3 a2 7f 3f c5 d1 23 3d 90 cb 7f 3f
       0.053323083 0.9985773 0.039994974 0.99919987
000380 1f b9 f5 3c 83 e2 7f 3f 47 47 b8 3c 6b ef 7f 3f
       0.0299955 0.99955004 0.022494925 0.999747
000390 c6 31 8a 3c ad f6 7f 3f 46 44 4f 3c c1 fa 7f 3f
       0.016869437 0.9998577 0.012650555 0.99991995
0003a0 0d 6e 1b 3c 0d fd 7f 3f 13 1d e9 3b 58 fe 7f 3f
       0.009486687 0.999955 0.0071140616 0.9999747
0003b0 a8 cf ae 3b 11 ff 7f 3f 13 17 83 3b 7a ff 7f 3f
       0.005334813 0.99998575 0.0040005534 0.999992
0003c0 92 9b 44 3b b5 ff 7f 3f 60 6f 13 3b d6 ff 7f 3f
       0.0029999954 0.9999955 0.0022496805 0.9999975
0003d0 17 1f dd 3a e8 ff 7f 3f 56 d1 a5 3a f3 ff 7f 3f
       0.0016870227 0.99999857 0.0012650888 0.9999992
0003e0 10 b1 78 3a f9 ff 7f 3f 09 7e 3a 3a fc ff 7f 3f
       0.00094868336 0.9999996 0.00071141176 0.99999976
0003f0 7e d9 0b 3a fe ff 7f 3f a4 be d1 39 ff ff 7f 3f
       0.0005334838 0.9999999 0.00040005625 0.99999994

transformer.layers.0.self_attn.in_proj_weight f4 [192, 64]
000000 8b c4 8c 3d bc 0b 8f bd ab 2d 0e be 4c eb c8 bd
       0.06873425 -0.0698466 -0.13884608 -0.09810504
000010 75 11 cf 3d 34 17 0e be a2 4b ba 3d 16 5d 0e bc
       0.101107515 -0.13876039 0.09096457 -0.008689186
000020 2e 75 e9 3d 0c 15 90 bd f8 00 eb 3d 20 8c 14 be
       0.113993034 -0.070352644 0.11474794 -0.14506578
000030 3c ff 07 be e8 54 f4 bd 7f 8f e4 3d 7c 42 8c bd
       -0.13280958 -0.11930257 0.11160182 -0.068486184
000040 35 d1 dc 3d 52 b3 c2 bd 18 da 30 bd 24 ec cf bc
       0.107820906 -0.09506859 -0.04317674 -0.025381155
000050 2d 6b b5 bd 53 ab df bd 5e 70 ab 3d 55 90 4d 3d
       -0.08858333 -0.109213494 0.08371042 0.050186474
000060 a6 e3 61 3d d2 e1 1d 3e f5 84 e2 3d 7c 91 d2 3d
       0.055148743 0.15418175 0.11060516 0.10281655
000070 f6 5e 01 bd c0 50 a6 bd c7 a3 8c bd 62 9d 2e bc
       -0.031584702 -0.081208706 -0.068671755 -0.01065764
000080 67 16 8d 3c 7a 55 9f 3d 00 bc 2a 3c 47 76 d6 bd
       0.017222596 0.07779975 0.010420799 -0.10471778
000090 f6 60 a1 bc 32 ea 44 bd f3 c8 bf 3d 9f ee 01 be
       -0.019699555 -0.04807491 0.093645 -0.12688683
0000a0 f9 df 14 3e 85 27 3d 3d d9 ca 89 3d aa 55 09 3c
       0.14538564 0.046180267 0.06728143 0.00838224
0000b0 cc c6 18 3d 0d b3 14 3e fa 7b cb bd cf 41 f7 bd
       0.037298962 0.14521427 -0.09935756 -0.12073099
0000c0 41 d0 a5 3c 8f 92 4f bd 66 a5 8f bd 5e 4c 64 3b
       0.020240905 -0.05067688 -0.07013969 0.0034835557
0000d0 7e cf 64 bd 95 8b 75 3d d9 e1 18 bc ea 8c 81 3d
       -0.055861942 0.05994757 -0.00933119 0.06325705
0000e0 c2 6f 9f 3c 77 5d 14 3e 65 72 02 bd ef 5e b5 3d
       0.01946247 0.14488779 -0.031847376 0.08855998
0000f0 cf 2e dd 3d f0 f4 e7 bc 8a 05 fb 3d 52 60 a9 bd
       0.10799944 -0.028315037 0.12256916 -0.08270325
000100 39 21 18 be 4e 2c 06 be d6 05 e7 bd 2a f6 f4 3d
       -0.14856423 -0.13102838 -0.1128041 0.119610146
000110 46 a7 cf 3d 05 bd 08 3e ed d0 12 be b0 c6 0f 3e
       0.10139327 0.13353355 -0.14337511 0.14040637
000120 ef 36 80 3c 4e 8d 9e bd 61 66 1d be 35 41 eb 3d
       0.015651194 -0.077417955 -0.15371086 0.11487047
000130 8c 5f 00 3e 0a 34 37 bc c3 15 d6 bd ea 33 1a bd
       0.12536448 -0.011181841 -0.104533695 -0.037647165
000140 cf e4 9d bc 50 6c 7e bb 1a 1e e6 3d d3 8d 03 be
       -0.019274144 -0.0038821883 0.1123621 -0.1284707
000150 4b e6 87 3d ac 08 b6 bb 06 5d e4 3a 6f 24 79 bd
       0.06635722 -0.005555233 0.0017422743 -0.06082576
000160 fa 3b 19 be 6a 80 a0 bc db 3b 24 bc 7b fc f7 3d
       -0.14964285 -0.019592483 -0.010024036 0.12108704
000170 4d f7 1a 3d b5 1f 18 ba 44 5d e3 3d 87 97 0c be
       0.0378335 -0.00058030646 0.111017734 -0.13729678
000180 a2 60 a8 bc 55 26 87 bc 85 69 cb 3c 72 15 af 3d
       -0.02055389 -0.01649777 0.02483059 0.08549012
000190 f3 e5 bc 3d f2 e7 04 3e 52 c1 fd 3d 86 18 82 3d
       0.09223547 0.12979105 0.123903885 0.06352334
0001a0 d7 5d 5b bd e3 c3 05 be bb c3 b0 3d 21 66 32 3d
       -0.05355629 -0.13063006 0.086310826 0.04355443
0001b0 34 5a 17 be e4 30 7f 3d 08 2f c8 bd 57 c0 ba bd
       -0.14780504 0.062302485 -0.097745955 -0.09118717
0001c0 8a 37 f5 3d 35 50 61 3d 73 1d c3 3a a4 e4 14 be
       0.11973484 0.055008132 0.0014886096 -0.14540344
0001d0 34 6e 13 be b9 8d be 3d c3 cf 48 3d d1 eb 14 3e
       -0.14397508 0.09304375 0.049026262 0.14543082
0001e0 74 d8 f2 bd 77 a6 68 bd 47 fc 06 3e d8 c4 6b bd
       -0.118576914 -0.05679938 0.13182174 -0.05756077
0001f0 d5 4f 9c bc 0b 6b 67 3c 5f 2b ba 3b 54 b8 19 bd
       -0.019081036 0.014124642 0.00568144 -0.037529305
000200 5e 46 a4 bc f3 fa de bc f6 73 66 bc 88 72 56 3c
       -0.020053085 -0.027219271 -0.014065733 0.01308883
000210 4b 2c bb bd 50 96 e4 bd cf ea fe bd b9 47 01 bd
       -0.091393076 -0.11161482 -0.1244713 -0.03156254
000220 44 b3 b8 3d d4 42 52 3d d0 26 44 3d 5c 57 b7 bb
       0.09018567 0.051333264 0.047888577 -0.005595131
000230 e3 5e 14 3d ce e6 01 3d 9a 63 e7 bd d8 7c cd 3d
       0.036223304 0.031714253 -0.11298294 0.10033578
000240 29 fb 23 bd 01 5b 32 3d 46 40 f0 3d b8 8f 11 be
       -0.040034447 0.04354382 0.11731009 -0.1421498
000250 06 d0 06 3e f2 c8 e3 bd 03 4e c3 3d 9e 64 f3 3d
       0.13165292 -0.11122312 0.09536364 0.118844256
000260 61 73 11 be 75 61 17 bd 50 f2 8a bd 51 54 21 3d
       -0.1420417 -0.036958177 -0.06784499 0.03938705
000270 7c 26 bc bd cc 39 a5 bd 5c 88 fd bd 5c 64 d4 bd
       -0.09187028 -0.080676645 -0.12379524 -0.103707045
000280 65 eb ac bd ef 7a d8 bc ef 70 14 be 62 25 16 3e
       -0.084433354 -0.026425807 -0.14496206 0.14662698
000290 ed a0 00 bd ad 3c 11 3e 12 86 c5 bd 14 e2 8e 3b
       -0.03140347 0.14183302 -0.096447125 0.0043604467
0002a0 1f b7 87 3d 46 11 96 3c 15 99 11 3e 4a 50 ae bd
       0.066267245 0.018318783 0.14218552 -0.08511408
0002b0 76 26 86 3d 4c 1d 73 bc a2 b0 e5 3d 91 5c 46 3d
       0.065503046 -0.014838528 0.11215331 0.048428122
0002c0 a9 4f a9 3d ca 61 c4 3d 81 ed a9 bc 59 a1 82 3d
       0.08267147 0.09588964 -0.020743134 0.06378431
0002d0 df 0c 80 3c de bc 95 bd f7 a2 0a 3d 91 12 a0 bc
       0.015631137 -0.07311414 0.03384682 -0.019540103
0002e0 4a 7f f8 bd 86 0d 05 3d 62 6f 13 3e 53 9c b3 bd
       -0.121336535 0.0324836 0.14397958 -0.08770051
0002f0 29 c1 13 3e 75 c6 55 bc 0e b5 15 be c8 43 0b 3d
       0.14429154 -0.013047804 -0.14619848 0.034000188
000300 d8 7d 0c 3e 55 79 fc bd 02 91 05 3e be e2 ce 3d
       0.1371988 -0.1232783 0.13043597 0.101018414
000310 08 82 36 3c 33 79 78 bc fc fc 48 3d 84 23 03 3e
       0.0111394 -0.015165615 0.04906939 0.12806517
000320 43 0e de 3d 07 e7 1e be 83 04 e8 3d 8b 50 c7 bd
       0.10842564 -0.15517817 0.113289855 -0.09732159
000330 a2 29 35 bd 19 47 b4 bd 38 9c 02 be fa 8d 78 bd
       -0.044229157 -0.08802623 -0.12754905 -0.060682274
000340 a8 65 01 3e e4 26 d3 3d 7a be 65 bd c7 63 df bd
       0.12636435 0.10310152 -0.056089856 -0.10907703
000350 2f 9a 11 be b5 66 0e bd fb 2c 89 bd e4 2b 16 bd
       -0.14218973 -0.034765918 -0.066980325 -0.03666295
000360 2e 88 f3 3d d4 39 d6 bb 30 ef 9a 3d 2b 31 1f bd
       0.118912086 -0.0065376554 0.07565153 -0.03886525
000370 28 f3 e7 bd 2a c0 66 3c b2 a0 5a bd 14 09 dd bd
       -0.11325675 0.014083901 -0.053375907 -0.10792747
000380 9b ed 2d 3d 06 a0 86 bb 49 d0 b4 3d 7f 5a 3f 3d
       0.042462926 -0.0041084317 0.0882879 0.046717163
000390 de 15 87 bd b5 7e 5a bd d6 7a 58 3b 9e e4 a2 3d
       -0.06595968 -0.053343493 0.00330322 0.079537615
0003a0 77 ce dc 3c 74 1e 91 bd d5 e8 95 ba 35 74 ed bd
       0.026953919 -0.070858866 -0.0011437187 -0.1159443
0003b0 c6 70 14 3d de d8 94 bd db 18 c2 bd 95 41 ce bd
       0.03624036 -0.07267927 -0.09477397 -0.100711025
0003c0 37 ff 18 3e 97 13 8d 3d d6 50 3e bd db 87 58 bd
       0.14941107 0.06888502 -0.04646381 -0.052863937
0003d0 50 50 c1 bd d8 9b f0 3d ed 73 12 bd 19 b1 e3 3d
       -0.094391465 0.11748475 -0.035755087 0.11117763
0003e0 16 bd 1b 3d 4f 4a 25 3d 32 05 dc 3d 05 f5 a6 bd
       0.038022123 0.04035407 0.107431784 -0.081522025
0003f0 fc ff 0b 3d 5a 5a b4 bd 80 72 8d 3d e3 a9 2c 3d
       0.034179673 -0.08806296 0.06906605 0.042154204

transformer.layers.0.self_attn.in_proj_bias f4 [192]
000000 06 c6 d3 3b 1f 1c 83 bb 51 83 bd ba 4c ac 72 3a
       0.006462815 -0.004001155 -0.0014458691 0.00092572416
000010 be eb 0b 3a 08 fa b4 3a a6 9e 9d 39 c7 84 80 bb
       0.00053375575 0.0013807425 0.00030063576 -0.0039220783
000020 6b 13 50 3b 30 55 99 3b c9 b7 7b 3b ef b0 2c 3b
       0.0031749855 0.0046793446 0.0038409105 0.0026350578
000030 92 56 21 3b 15 c3 93 ba 7e 5f 3d bb 34 ea 3b 3b
       0.002461825 -0.0011273349 -0.002889603 0.0028673531
000040 f3 36 f9 bb 30 9e db 38 de 8b fa bb 31 fd a4 39
       -0.0076054274 0.000104721985 -0.007646068 0.0003146916
000050 60 f3 f5 bb ae 5e 08 bc 9c a2 73 bb 9a db e2 bb
       -0.007505819 -0.008323355 -0.003717578 -0.006923151
000060 56 db 3c ba d4 df 1f 3b 02 c3 fe 3b 77 ca 05 bc
       -0.00072043145 0.0024394887 0.0077747116 -0.008165947
000070 f6 c9 df 3b 9c 4f f0 3b d3 5f ad b9 7b 47 38 bb
       0.0068294955 0.007333709 -0.00033068526 -0.0028118778
000080 5c fd a7 ba 63 d4 cf 3a b4 60 dc 3b d4 28 a2 3b
       -0.0012816596 0.0015856143 0.006725395 0.0049487147
000090 c4 ba 95 3b 5c e7 1a 3c 07 61 5f ba 09 50 90 3b
       0.0045693833 0.009454574 -0.0008521233 0.004404072
0000a0 f8 34 f4 3b 61 5a 81 3a 31 46 1d bc 18 16 0a b9
       0.0074526034 0.0009868854 -0.0095992545 -0.00013168936
0000b0 80 8d 96 3b 6f 2e d6 bb 5c df 10 3c 84 89 2b ba
       0.004594505 -0.006536297 0.0088423155 -0.0006543624
0000c0 ba 1e 10 3c 5e 69 ff 3b d0 a4 15 3c 94 d0 46 bb
       0.008796388 0.007794543 0.009133533 -0.0030336725
0000d0 f9 17 93 bb ac e0 15 bc c6 e3 c6 3b 5f 52 8b 3b
       -0.0044889417 -0.009147804 0.006069633 0.0042517628
0000e0 c7 c9 1c bc 4e 9d 7b bb b2 0f bd bb d8 20 ec 3b
       -0.009569592 -0.0038393321 -0.0057696933 0.0072060637
0000f0 6b 59 1d bb 67 9a 82 3b 33 4e fa 3b be 8f 3d bb
       -0.0024009596 0.0039856913 0.0076387166 -0.0028924788
000100 e4 43 c2 35 78 6b 74 b5 38 c5 51 36 2e 69 0b b7
       1.4473885e-06 -9.105347e-07 3.1258223e-06 -8.309535e-06
000110 7c bd ea b5 73 97 25 36 b5 6c 9d b6 b5 3a d9 36
       -1.7489506e-06 2.467507e-06 -4.69162e-06 6.4739384e-06
000120 28 5a a9 b5 0a 96 3c 35 66 67 38 b5 9a 5e 19 b6
       -1.261772e-06 7.0253793e-07 -6.8695806e-07 -2.2853842e-06
000130 40 36 e5 35 b2 61 0b b6 d6 93 af 35 e5 4b af b7
       1.7077618e-06 -2.076948e-06 1.3081542e-06 -2.0896967e-05
000140 5b 85 aa b5 fb 71 80 35 2d 09 e0 b7 dd 2c 39 36
       -1.2704799e-06 9.569916e-07 -2.6707154e-05 2.7593262e-06
000150 52 ce 25 b6 0d 8a ba b6 a5 7b b2 35 98 b2 24 37
       -2.470701e-06 -5.559303e-06 1.3298019e-06 9.816744e-06
000160 21 c9 80 b6 f4 38 1e 36 a4 f0 9b 37 6f bf 0f 37
       -3.8381118e-06 2.3576986e-06 1.8589497e-05 8.568036e-06
000170 0c 3e ad b6 66 f4 03 36 7e 82 77 b6 b6 bd 90 35
       -5.163025e-06 1.966278e-06 -3.6881825e-06 1.0784049e-06
000180 f7 dc 22 b7 45 7d f2 36 94 b2 b7 36 f0 7a f2 35
       -9.7074e-06 7.2267453e-06 5.474614e-06 1.8066185e-06
000190 20 55 af b5 80 72 2a b4 56 af 42 b7 bf ea 12 37
       -1.3063291e-06 -1.5874139e-07 -1.1604125e-05 8.756934e-06
0001a0 be 31 fd 36 1e 5e 8e b6 0e 13 3e 37 c0 85 ac b5
       7.5457783e-06 -4.2428865e-06 1.1329319e-05 -1.2853925e-06
0001b0 a0 7a 4e 37 60 00 e2 34 32 7d 33 b8 f8 4d 60 36
       1.2307108e-05 4.2096053e-07 -4.2793523e-05 3.3423985e-06
0001c0 c6 1e ce b5 f0 af 27 b5 67 4d fb 37 83 e1 58 36
       -1.5357152e-06 -6.246837e-07 2.9957575e-05 3.2317773e-06
0001d0 31 db 02 36 5d e7 c0 b5 78 94 ea b6 a5 1b dd 35
       1.9499096e-06 -1.437245e-06 -6.9910275e-06 1.6473829e-06
0001e0 4a 02 43 b5 6e f8 a8 b6 01 3f e6 35 94 c5 27 b6
       -7.264649e-07 -5.035711e-06 1.7154672e-06 -2.4999945e-06
0001f0 26 b4 03 37 34 d2 0b b6 84 5e 0b b6 52 e2 6a 36
       7.8501525e-06 -2.0834968e-06 -2.076763e-06 3.5000453e-06
000200 f7 2c 54 3b e4 fe b1 3b 5d 16 83 3b 59 63 66 3b
       0.0032375434 0.0054319967 0.0040004686 0.003515443
000210 af d2 05 3c eb 8f cf 3b b7 f7 2d ba 20 66 a3 bb
       0.008167907 0.006334295 -0.00066363387 -0.0049865395
000220 f0 f9 d4 bb 15 6e aa 3b 61 01 cc bb 44 67 a4 bb
       -0.0064995214 0.005201111 -0.0062257503 -0.005017193
000230 b3 ce 57 bb d6 71 04 3a 94 18 58 b9 3a 1b 1a 3a
       -0.0032929599 0.0005052363 -0.00020608521 0.0005878691
000240 dc e8 94 bb ef 6b b3 ba 63 a9 63 3b 4f ba af bb
       -0.0045443606 -0.0013688783 0.0034738414 -0.005362786
000250 a9 42 a7 bb a5 7f 46 3b 93 fd bc 3b a4 21 b5 ba
       -0.005104382 0.0030288484 0.005767533 -0.001381923
000260 ca 40 24 3a 60 9c 2f b9 9b 46 31 bb 2f 97 9e 3b
       0.0006265758 -0.00016747555 -0.002705014 0.0048398
000270 69 79 33 3b 39 29 ce bb 12 2e bb 39 7d bc 93 3a
       0.0027385599 -0.006291535 0.00035701744 0.0011271384
000280 e6 ac d0 3b 09 70 df 3b 95 f9 60 3b b5 a0 e9 bb
       0.0063682673 0.0068187756 0.003432845 -0.0071297535
000290 79 b9 b5 3b ce a9 8f 3b fd 6b 15 3b 5d fc 8a 3a
       0.0055457917 0.004384256 0.0022799962 0.0010603775
0002a0 57 0d c1 bb f7 20 d1 3a 09 42 b0 bb 1d 0a 34 bb
       -0.005891483 0.0015955259 -0.0053789658 -0.0027471848
0002b0 d1 03 c1 bb 91 6a ea 3b 92 1a ce bb b5 75 e9 3b
       -0.0058903475 0.007153817 -0.0062897885 0.0071246275
0002c0 5c ab 92 3b ae 16 db 3b 14 cb 0b 3b eb 2b e1 3b
       0.004475994 0.0066860532 0.002133076 0.0068716905
0002d0 9e 38 43 39 86 c3 f3 bb 7e d3 ba bb 39 63 cc 3b
       0.0001861774 -0.0074390797 -0.0057014814 0.006237414
0002e0 3a ac cb 3b 8f ec 51 ba be 3d ce 3b 83 2a b6 3a
       0.0062155994 -0.0008007967 0.0062939813 0.0013898168
0002f0 af 80 bf bb 42 1f 04 bc 4d 86 d1 bb cc d4 c8 bb
       -0.0058441977 -0.008064093 -0.0063941837 -0.006128883

transformer.layers.0.self_attn.out_proj.weight f4 [64, 64]
000000 99 50 8a bc 00 36 f2 3d 7b 52 f9 3d 62 aa f9 3d
       -0.016884135 0.11826706 0.12173935 0.12190701
000010 af 1f 38 bd c5 be 4d bd 1c c9 a2 3c 28 64 64 bd
       -0.04495209 -0.05023076 0.019871287 -0.05575958
000020 92 70 65 3d 85 20 0c bd ee 90 d6 bd eb e4 4d 3d
       0.05601556 -0.0342107 -0.10476862 0.05026714
000030 bb bf 75 bd ef b4 94 bd 79 dd 71 bd e1 1c ab 3d
       -0.0599973 -0.07261073 -0.059049103 0.083551176
000040 64 ac 2c bd 13 91 01 bd b4 7a e4 bd 65 c0 af 3d
       -0.042156592 -0.031632494 -0.11156216 0.08581618
000050 33 83 e5 bd bc ca 48 bc 4f ce 71 3d b0 07 a0 bd
       -0.11206665 -0.012255367 0.05903464 -0.07813966
000060 58 d4 4c 3d da 14 d0 3d 3f 75 7a 3d 75 85 4a bd
       0.050007194 0.10160227 0.06114697 -0.04944368
000070 a7 ca de bd 30 58 e4 bd b0 95 82 bd 30 82 e6 3d
       -0.108784966 -0.11149633 -0.06376207 0.112553
000080 50 2e a2 3c d4 6d ed bd 1f ff 8e 3d b4 b8 f4 bd
       0.019797474 -0.11593214 0.06982254 -0.11949292
000090 38 86 31 bc 56 c4 38 bd d1 14 9a 3d fc 09 b0 bb
       -0.010835223 -0.045109116 0.07523502 -0.005372284
0000a0 62 5a 56 bd 6c 95 af bb 00 28 87 bd d9 db b4 bd
       -0.05233229 -0.0053583886 -0.06599426 -0.08830995
0000b0 87 a6 ba bd 28 36 9e bc 92 33 d7 bd 9f 19 dc bd
       -0.09113794 -0.019312933 -0.10507883 -0.10747074
0000c0 67 87 10 3d 40 47 66 3d c6 40 03 3d ed 86 d3 3d
       0.03528538 0.056220293 0.032044195 0.103284694
0000d0 5e 67 03 3c 2a f0 0d 3d 3b b5 c7 3d 4e 43 08 bd
       0.00802025 0.034652866 0.09751364 -0.03326731
0000e0 20 5f f0 3d 70 21 85 bc 70 c9 10 bd 79 4e 98 bd
       0.11736894 -0.016251296 -0.035348356 -0.074368425
0000f0 13 71 11 bd c5 07 d9 3d 5b e7 5e 3d bc 25 59 bc
       -0.035508227 0.10597185 0.054419857 -0.0132536255
000100 24 83 85 3c be c2 bd 3c b1 c3 e6 bd 6a 81 56 bd
       0.016297884 0.02316415 -0.11267794 -0.052369513
000110 f3 90 54 bd bb 97 cc 3b 69 1b f4 bd 7f ad d1 3d
       -0.051896047 0.0062436736 -0.119192906 0.1023817
000120 ca 37 b0 bd 36 d5 ae bd fb 8e d8 bb 80 a2 e5 bd
       -0.08604391 -0.085367605 -0.0066088415 -0.11212635
000130 eb fd 4b bd 87 82 09 3d 6e 15 86 3c 2f 83 d3 bd
       -0.049802702 0.033571746 0.01636764 -0.10327756
000140 b5 4d cd bc bd e9 8c 3d 80 16 9c 3c 09 4b bf 3d
       -0.025061468 0.068805195 0.019053698 0.09340484
000150 79 55 45 3d de a4 93 bc a2 69 ae 3d aa 9a 52 3d
       0.048177216 -0.01802295 0.085162416 0.05141703
000160 8a 0f e0 bd 75 c0 a3 3d b0 b2 94 3d f5 58 89 bd
       -0.10940464 0.07995693 0.072606444 -0.0670642
000170 03 6d e6 3d b2 a5 01 bd d8 9a 36 3d b4 92 9a 3d
       0.11251261 -0.03165216 0.044581264 0.07547513
000180 96 fd df bd 34 cf f9 bc 7d 46 08 3b fb 07 8e 3d
       -0.109370396 -0.03049431 0.0020793967 0.06935116
000190 b9 d6 36 3c a2 cf ae bd bb 10 ab 3d 65 99 c5 bd
       0.011159592 -0.085356966 0.083528005 -0.09648398
0001a0 87 9b 49 bc 58 18 c8 3d aa 98 8b bd 6b dc 6a bd
       -0.012305147 0.09770268 -0.06816228 -0.057339113
0001b0 a0 7e be 3c ad b5 23 3d 8f 99 1e 3d a0 0c b2 bd
       0.023253739 0.03996818 0.038720664 -0.08693814
0001c0 35 c9 bc bc 80 12 74 3d 87 69 18 3c 26 66 8f 3d
       -0.023045162 0.059587955 0.009302503 0.07001905
0001d0 91 b0 4e 3c 21 c1 e2 b9 ac aa f4 bd 9f d7 b5 bb
       0.012615339 -0.0004324997 -0.119466156 -0.0055493857
0001e0 58 6a af bc e6 6a 0c bc ca ad b1 3d d3 92 a0 bb
       -0.021413013 -0.008570408 0.08675726 -0.0049003153
0001f0 15 5d c8 3d 5a 36 a5 bd 83 b9 7f 3d 3f 86 cc 3d
       0.09783379 -0.08067007 0.062432777 0.09986543
000200 75 ad 89 3b 20 4d 9b bb b5 1d e9 3b 68 91 a4 bc
       0.004201586 -0.0047394186 0.007114137 -0.020088866
000210 3d 23 6e bd b5 e7 ec bd d0 e7 99 3d 67 2d 88 3b
       -0.058139075 -0.11567632 0.07514918 0.004155803
000220 4f e6 bb bd d8 ff f5 bb 22 d6 fb 3c 64 7c 7c bd
       -0.09174787 -0.0075073056 0.030741755 -0.061642066
000230 76 1b bb bb 2d 72 f3 3d 3a 48 cb bd ee c3 15 3d
       -0.0057100607 0.11887012 -0.099258855 0.036563806
000240 c1 ac a9 bd e9 cd ac bd ee 67 3e 3d 20 58 74 bd
       -0.08284903 -0.08437712 0.046485834 -0.059654355
000250 a3 49 61 3d 1e e1 68 bd 07 11 8a 3d ec 03 83 bb
       0.055001866 -0.056855313 0.06741529 -0.0039982703
000260 6d 88 b2 bd 35 01 11 bd ae 5d 7a 3c fc ad 80 bc
       -0.087174274 -0.03540154 0.015281124 -0.015707962
000270 19 94 dc 3c 9e 01 cb 3d a1 c6 da 3d ed 42 82 3d
       0.026926087 0.09912418 0.10682417 0.06360421
000280 dc 3b 19 bb 36 d8 46 3c 9e a5 7d 3d 71 f4 e7 3d
       -0.0023381626 0.01213651 0.061925523 0.113259204
000290 7d e9 06 3d 29 58 6e bd e6 71 e5 bd e6 77 88 bd
       0.032937516 -0.058189545 -0.11203365 -0.06663494
0002a0 80 83 71 3d d2 4c 02 3e f2 0c f4 3d 7f 26 b3 bd
       0.0589633 0.12724617 0.119165316 -0.08747577
0002b0 39 59 d3 bd 10 23 01 bd c7 66 a3 bd 91 df fa 3d
       -0.10319752 -0.03152758 -0.079785876 0.12249673
0002c0 e6 40 c8 bd 8a 87 02 be 1b 1a a1 bd 4f 10 b7 bd
       -0.097780034 -0.12747017 -0.07866307 -0.089386575
0002d0 14 c0 7a bd fa 2b ba bd f2 aa 01 3a ee a8 e8 bd
       -0.061218336 -0.09090419 0.00049464323 -0.11360346
0002e0 cf b3 34 3d 8b 1a d5 3d 80 8f c8 3b 23 2a f8 3d
       0.04411679 0.10405453 0.006120622 0.12117412
0002f0 fc 93 19 3b 74 34 28 3d 7a 66 f7 bd e3 88 a7 3c
       0.0023434153 0.04106565 -0.12080093 0.020451015
000300 0e f8 82 bd 59 de bd 3d 61 20 09 bd cc 7b f6 bd
       -0.06394969 0.09270925 -0.033478145 -0.12035331
000310 d7 54 21 3c e1 87 88 bd d8 d3 a3 bd 02 6e 86 bd
       0.009846888 -0.06666542 -0.0799939 -0.06563951
000320 f1 b5 09 3a 5c 6b f6 3b 38 fe ce bd f0 37 b0 3d
       0.00052532466 0.0075201225 -0.10107082 0.08604419
000330 6d 54 21 bd bb 78 6e bd 5e b7 ee bd a3 c3 6c 3b
       -0.039387155 -0.058220606 -0.11656068 0.003612735
000340 af a2 ab bd ef bd 78 bc 04 41 af bd 86 87 e1 bc
       -0.08380639 -0.015182002 -0.085573226 -0.027530443
000350 74 5a 54 3d 9e ee 42 3d c3 28 f3 3c d9 0d ed 3c
       0.051844075 0.047590844 0.029682523 0.028937267
000360 cf ce aa 3d e6 bb 9e 3d a0 f3 95 bd 6e 3b 88 3d
       0.08340227 0.077506825 -0.073218584 0.0665196
000370 95 bf 75 bd 42 6f e6 3d 87 26 17 bd 7f a4 ab bd
       -0.05999716 0.112516895 -0.036901977 -0.083809845
000380 3e c9 95 3d 8e 0f 4d 3d e9 70 3c 3d 4e 04 ce bd
       0.073137745 0.050063662 0.046006117 -0.10059415
000390 5e c9 12 bd 89 e3 7a bc b1 8c c0 3d ce 7c d5 bd
       -0.03583657 -0.015313038 0.09401835 -0.10424195
0003a0 fb c8 e6 bd 94 df ba 3c d7 3a 07 3d 2a 88 45 3d
       -0.11268803 0.022811688 0.0330151 0.04822556
0003b0 69 18 fa 3c 11 c7 55 3d 7c 60 eb bd 15 69 c6 bd
       0.030529218 0.052191798 -0.11493012 -0.096880116
0003c0 fa ba dd bc 62 99 dd bb 38 8e 20 3d 86 fe f0 3b
       -0.027066696 -0.0067626694 0.03919813 0.0073545603
0003d0 44 e0 d3 bc 92 35 89 bd e5 95 fd 3b b2 a4 ca bd
       -0.025863774 -0.06699671 0.007738816 -0.098946944
0003e0 52 b9 ed bc 4b 64 6e 3b 31 1f 2d bd 30 e4 f5 3b
       -0.029019032 0.0036375697 -0.042266075 0.0075040087
0003f0 31 06 bd 3d 51 b2 8e 3d f8 f7 bb bd 13 c6 ae 3d
       0.092296965 0.06967605 -0.09178156 0.085338734

transformer.layers.0.self_attn.out_proj.bias f4 [64]
000000 b8 af 7c ba ca 29 95 3b 06 7c 52 3b d0 00 9a 3b
       -0.0009639221 0.004552101 0.003211738 0.004699804
000010 e7 34 4c 3b c4 42 d3 3a 9a 9e 22 3b 76 ce af 3b
       0.0031159462 0.001611792 0.0024813772 0.0053651882
000020 dc 3d b2 39 d5 0f 68 3b cb 7e 03 3b 56 1f 87 3b
       0.00033996894 0.0035409827 0.0020064588 0.0041236086
000030 7a f3 e2 3b 7e 11 c8 bb 40 fa f1 bb f6 ba 04 3b
       0.0069259973 -0.006105601 -0.0073845685 0.002025304
000040 36 8e ee bb 1d b0 30 3b 21 07 a5 3b 04 03 fa 3b
       -0.0072801365 0.002696044 0.00503625 0.007629754
000050 52 36 a0 39 5d 06 91 3b 5d b9 c3 bb 39 33 c2 bb
       0.0003055805 0.0044258074 -0.0059730248 -0.0059265164
000060 90 2f ac bb da b6 d2 bb 7f 68 75 3b d7 24 c7 3b
       -0.0052546933 -0.006430489 0.0037446318 0.0060773897
000070 76 9d d0 ba 82 a7 fa 3b 0d 6e 89 bb a6 a5 e5 3a
       -0.0015916068 0.007649363 -0.0041940273 0.001752068
000080 aa 1c a4 ba 88 94 dd 3b d1 0c 19 bb ed d6 9c bb
       -0.001252075 0.006762091 -0.0023353586 -0.0047863633
000090 92 6a c4 bb ba cf 8e bb 62 cf 57 39 d9 f0 df 3a
       -0.0059941495 -0.004358259 0.00020581254 0.0017085328
0000a0 2a 40 38 bb 30 8a dd bb ac 6b bc bb 51 02 ce bb
       -0.0028114417 -0.006760858 -0.00575014 -0.006286897
0000b0 10 34 bb 3b 54 9d 7d 3b 5b 43 d0 ba e0 e4 76 bb
       0.0057129934 0.0038698511 -0.0015889214 -0.0037673041
0000c0 15 69 98 3a f5 4b 32 3b 7b 45 9d 3b d2 ea 61 3a
       0.0011627997 0.0027205918 0.0047995425 0.000861806
0000d0 42 3d b0 ba 00 bb b9 bb 80 60 9c b8 26 19 cc 3b
       -0.0013445991 -0.005668044 -7.456634e-05 0.006228584
0000e0 e2 2f ce bb 7a 30 2b ba f7 a7 d6 3b 72 a9 1a bb
       -0.006292329 -0.0006530356 0.0065507847 -0.0023599532
0000f0 5d af a4 3b e1 ee aa 3b 8e e5 6b bb 7d f8 eb bb
       0.0050257877 0.005216465 -0.003599498 -0.007201253

transformer.layers.0.linear1.weight f4 [128, 64]
000000 01 fd 14 3d 92 cc 73 bd 36 eb 3b bc 03 58 c9 bd
       0.036374096 -0.059521265 -0.011469653 -0.0983124
000010 c6 45 c5 3b 92 48 9a bd 80 9a 5c bd 82 96 9c 3d
       0.0060202805 -0.07533373 -0.05385828 0.076458946
000020 3a 5f 0f 3d 84 65 ba 3d 15 37 00 bd 3c db 99 bd
       0.035002925 0.09101394 -0.03130253 -0.07512519
000030 09 75 cf 3d 25 29 bf bd df db 5d 3d 0b 57 bd 3d
       0.101297446 -0.093340196 0.054164764 0.09245118
000040 d8 90 ae bd d7 32 27 3d fa 7b 83 3d 5f f3 83 3c
       -0.085237205 0.04081997 0.06420131 0.01610726
000050 f5 fd c2 3d d0 55 dd bd 53 3d ea 3d 11 b9 79 bd
       0.09521095 -0.10807383 0.11437478 -0.06096751
000060 c8 ba b3 bc 87 45 bf 3d 41 de 50 bd da ef 94 bd
       -0.02193965 0.09339433 -0.050993208 -0.072723106
000070 0a d6 c8 3d 14 47 02 bc d5 1d 23 3d 19 ed b1 bb
       0.0980645 -0.007951517 0.039823372 -0.0054298756
000080 ff e4 a4 3c 54 c0 9f 3a 63 7e ea 3d 5c 0c 9b bd
       0.020128725 0.0012188056 0.114498876 -0.07570717
000090 f0 e0 a3 bc 33 5f fb bc 71 c4 d0 bc 3f ee 84 bd
       -0.02000472 -0.030685043 -0.025484296 -0.06490754
0000a0 ce 78 13 3c ab 67 da 3d 9e 12 d4 3b 2f 1c 73 bd
       0.00900097 0.10664304 0.006471946 -0.05935305
0000b0 1c 34 f6 bd ca 19 af bd af 1c 2c 3d a1 8a f5 bc
       -0.12021658 -0.08549841 0.042019542 -0.02997333
0000c0 ec b9 e0 3d 14 8f 58 bd 7f 70 e0 bc 95 b7 4e 3d
       0.10972962 -0.052870825 -0.027397392 0.050468046
0000d0 21 57 a8 bd cf dc 45 bd 5a 2d 66 bd c1 66 dd bd
       -0.082197435 -0.048306283 -0.056195594 -0.108106144
0000e0 14 47 8f 3d 53 b1 98 3a 97 ae 3f bd af 8d 9f 3d
       0.06995979 0.0011649526 -0.04679736 0.07790696
0000f0 bb cc ab 3d 43 db ec bd 7f ec f4 3d cc 86 b5 3b
       0.083886586 -0.11565258 0.119591706 0.0055397507
000100 f0 5f c5 3d 00 8d a5 bd d6 a8 4e bd a7 30 1a bd
       0.09637439 -0.08083534 -0.050453983 -0.037644055
000110 ba a0 91 bd 13 bc f4 bd 3a a1 da bd df 4d da 3c
       -0.07110734 -0.11949935 -0.10675283 0.02664846
000120 a5 5d 8a 3d fe 85 0b bd 8b 15 d4 3c 30 09 0c 3d
       0.067561425 -0.03406333 0.025889179 0.03418845
000130 17 8d a1 bd 0b b1 4f bd 28 a2 c0 3c 5f 9c 44 bd
       -0.07888239 -0.05070595 0.023514822 -0.04800069
000140 86 2c 40 3b 17 3d 0c 3d ef 7b 20 bd a6 ad ac bd
       0.0029323413 0.034237947 -0.039180692 -0.08431558
000150 8c 33 9b 3d 50 5f eb bd 46 75 10 3c 85 db 67 3d
       0.07578191 -0.11492789 0.008817023 0.056605835
000160 d9 c2 af 3d b4 e6 07 3c 48 b7 93 bb 73 b6 a3 bd
       0.08582086 0.00829475 -0.004507933 -0.07993784
000170 b3 d2 89 3d 58 31 6a 3d 9f 11 d3 bd 2c 66 23 bd
       0.06729641 0.057175964 -0.10306095 -0.03989236
000180 06 f5 61 3d 59 93 a3 bd 40 8b 4e bd dc c8 8e bc
       0.055165313 -0.07987089 -0.050425768 -0.017429762
000190 25 2b c3 3d 53 0f c3 3d 71 2f a4 3d 50 55 ea 3c
       0.095297135 0.09524407 0.08016861 0.028605133
0001a0 23 7b 2a 3d ea 65 97 3c 36 d3 a0 3d b5 b6 c2 bd
       0.04162134 0.018481214 0.07852785 -0.09507505
0001b0 95 ff dd 3d 16 02 99 bd f8 39 8f bd 75 de d9 bb
       0.10839764 -0.07471101 -0.069934785 -0.0066488334
0001c0 88 ca 7d 3d 01 d4 95 3d d5 52 e1 3d b6 78 94 3d
       0.061960727 0.07315827 0.11002127 0.07249586
0001d0 94 68 16 3d a7 f7 e4 3d 1e 18 e5 bc 96 a8 58 3d
       0.036720827 0.111800484 -0.027965602 0.05289515
0001e0 39 00 b2 3d 9b 37 ea 3d d5 87 b2 3d 5c fd a4 3d
       0.08691449 0.11436387 0.08717314 0.08056137
0001f0 d6 4a 5b bd 81 04 34 3d b9 65 3a 3d eb 9b 7c 3d
       -0.053538166 0.043949608 0.045507167 0.061672132
000200 7d bd d7 3d 6e 9c ff bd b1 47 83 3d 56 38 78 bc
       0.10534189 -0.124810085 0.064101584 -0.01515015
000210 91 f4 e8 bc 71 6e 1a 3d 81 8e eb 3d 31 cc 4b bd
       -0.02843693 0.03770298 0.1150179 -0.04975528
000220 4a 71 2d bd 29 00 d9 bd b1 62 07 bc 16 8e 38 3d
       -0.04234437 -0.10595734 -0.008263276 0.04505738
000230 31 34 11 bd e3 cc 74 bd 9c 62 ae bd 95 85 f1 bd
       -0.035450164 -0.059765708 -0.08514902 -0.11793057
000240 d6 c0 93 3d a5 5c f1 bd a6 49 dc bd 88 66 6b 3d
       0.07214515 -0.11785249 -0.10756235 0.05747083
000250 45 e4 f5 bd 89 a8 37 bd 48 e3 76 bd d6 24 88 bd
       -0.120064296 -0.044838462 -0.060275346 -0.06647651
000260 d6 94 85 3d f7 25 0b 3d 9a f0 cc bd 7b 79 b2 3d
       0.06522529 0.033971753 -0.100068286 0.08714577
000270 5e d5 65 bd b7 3b dd bc 82 d7 16 bd 72 71 61 bd
       -0.056111686 -0.027006013 -0.036826618 -0.05503983
000280 75 56 3f bd 08 58 c5 bd 15 ff e6 bd b5 6f 1d bd
       -0.04671331 -0.09635931 -0.11279122 -0.03843661
000290 c9 64 3b bd a9 d4 ba 3d 4b 03 0a 3d 0e 21 7e bd
       -0.045750413 0.09122593 0.033694547 -0.062043242
0002a0 8f ce c6 bd b9 33 7d 3c e2 36 39 3b 59 1d 3e bd
       -0.09707367 0.015454226 0.0028261472 -0.046414707
0002b0 77 5a fc 3b 07 40 23 bd 7c 79 96 bd aa 7e 07 bb
       0.007701214 -0.039855983 -0.0734739 -0.0020674863
0002c0 3f a8 ba 3d 1e ec 03 3d 8f 4f fd bd b9 e3 a0 bc
       0.09114122 0.0322076 -0.1236869 -0.019639837
0002d0 21 2f 02 3d 80 3f 5d 3d 54 ae 74 bd 7f 61 fb bd
       0.031783227 0.054015636 -0.059736565 -0.12274455
0002e0 23 72 e7 3d a3 b4 80 bd 0d 18 b1 bc 83 d2 8a 3b
       0.11301067 -0.06284454 -0.021617914 0.0042365207
0002f0 59 e7 bc bd e7 74 b7 3d d2 ed 52 bd 0b c0 4c bd
       -0.092238136 0.08957844 -0.051496334 -0.049987834
000300 e9 b3 bc 3c 7d cb b0 bd 55 ac b6 3d 38 cb f3 3d
       0.023035007 -0.08632562 0.089195885 0.11903995
000310 64 79 10 3d 8b 6f da bd d0 3f 10 bc d7 62 f4 bd
       0.035272017 -0.106658064 -0.008804277 -0.11932915
000320 70 dd e4 bc 87 d5 3f bc 37 fc a3 bb 46 c0 a3 bc
       -0.02793762 -0.011708624 -0.0050044316 -0.019989144
000330 86 fb fc b9 9b 7f 85 bd 4e 80 10 bd fb a4 fd 3d
       -0.00048252585 -0.065184794 -0.03527861 0.12384983
000340 68 ca de 3c d6 6f df 3d b4 45 f1 3c b8 e2 ad bd
       0.027196124 0.10910003 0.029452182 -0.08490509
000350 37 d1 e8 bd d0 b9 88 38 4a 22 b4 bd 76 87 90 3d
       -0.113680296 6.5195956e-05 -0.087956026 0.07057087
000360 85 19 d8 bd 1d ad 4a 3d e4 08 4a 3d ba a5 c5 bc
       -0.105517425 0.0494815 0.049324885 -0.024126876
000370 b3 52 47 3d 93 6b 0e 3d 14 bf 99 bd 56 e2 ea bd
       0.048662852 0.03477056 -0.075071484 -0.114689514
000380 0d 42 f7 bc 8a 10 77 bd 7e e6 09 bd db 42 91 3c
       -0.030182863 -0.060318507 -0.03366708 0.017732074
000390 db d9 47 bd d6 e9 1b bd d0 26 3f bd d9 75 d0 bd
       -0.048791748 -0.0380648 -0.046667874 -0.10178728
0003a0 9d 52 ce 3d 77 c1 72 bd d1 e7 cd 3d 6a c3 75 bd
       0.10074351 -0.059266534 0.10053981 -0.060000814
0003b0 b8 e7 44 3d 24 b0 a8 bd fb 45 20 3c 24 4b 0f 3d
       0.048072547 -0.08236721 0.00978231 0.03498377
0003c0 2b ff 3f 3d 57 1d da 3d 2c 42 33 bd 2c 86 af bd
       0.046874207 0.106501274 -0.04376428 -0.08570513
0003d0 e4 78 1c bd 05 aa e4 3d 3f 33 ef 3d 85 69 b3 bd
       -0.038201228 0.11165241 0.11679696 -0.08760361
0003e0 ba 45 dd bd b1 c2 ba 3c a9 12 71 bd 9b af 7d bd
       -0.10804315 0.022797914 -0.058855686 -0.06193505
0003f0 28 97 90 bd 55 05 ca bd 93 c1 b2 3d 84 4d ec bd
       -0.07060081 -0.09864298 0.087283276 -0.115382224

transformer.layers.0.linear1.bias f4 [128]
000000 97 8b a0 3c dc c2 02 3e bb 0e 92 3d 2d a2 02 bd
       0.019597812 0.12769645 0.07131716 -0.031892944
000010 87 e1 b5 bd a6 66 a7 3b f0 e2 23 3d 4b fa 1a 3d
       -0.088809066 0.005108672 0.040011346 0.037836354
000020 cf 82 cd 3d b7 8f a3 3d 55 c0 d5 3c 23 f4 a7 bd
       0.100347154 0.07986396 0.026092688 -0.08200862
000030 03 1e ab bd c5 b4 e9 bd 84 9e 7d 3d bd f1 ba bd
       -0.08355334 -0.11411432 0.06191875 -0.09128139
000040 92 50 84 bd 52 53 cd 3b ef 3d 4d 3d b4 3c d6 3d
       -0.0646068 0.006266036 0.050107893 0.10460797
000050 d7 86 83 bd 02 58 85 bd 22 71 06 bd 03 25 ee 3d
       -0.06422203 -0.06510927 -0.032822736 0.11628153
000060 4e b4 37 bd 01 bb 01 3d d5 bb c1 bd 0e 01 f3 3d
       -0.044849686 0.03167248 -0.09459654 0.118654355
000070 d1 7e bc bd 8b 13 90 bd 44 cc b7 3c 5f c6 49 bd
       -0.09203876 -0.070349775 0.022436269 -0.049261447
000080 3e 45 5b bd ff 63 ac 3d cf cc ef 3d 74 69 bd bc
       -0.05353283 0.0841751 0.11708986 -0.023121573
000090 bc 51 ac bd 38 6e b7 3d 45 3e c8 bd 16 31 9c bd
       -0.08414027 0.089565694 -0.09777502 -0.0762655
0000a0 9a a1 f1 3d f3 76 c9 bd 7a 46 e3 bd cb ae 97 bc
       0.11798401 -0.09837141 -0.11097427 -0.018515965
0000b0 96 63 b9 3c a8 85 fc bc 3b 09 70 3c 3d 0b d7 3d
       0.022630494 -0.030825451 0.014650638 0.105001904
0000c0 d6 8b ab bd 2c 56 ea bd 25 52 81 3d 24 cb 06 be
       -0.08376281 -0.11442217 0.06314496 -0.1316343
0000d0 d4 4b f4 3d 8c 6e 48 bd 82 70 c3 3d 07 a3 9b 3d
       0.119285256 -0.04893355 0.095429435 0.075994544
0000e0 1e 74 5f 3c be 45 4b 3d 2e bf e4 bd 1d 15 d9 bc
       0.013638524 0.04962706 -0.11169277 -0.026499325
0000f0 a2 dd f5 bc 48 b3 9d bd 5a 01 a7 3d 96 ef 33 3c
       -0.03001291 -0.07700211 0.08154555 0.010982415
000100 95 3b a9 3d d8 d4 66 bc b2 9d 60 bc 7c ef d7 3c
       0.082633175 -0.014088832 -0.0137094725 0.026359312
000110 0d b8 a5 3d 77 7a 86 bd 7a ac bd 3d 97 ca 79 3d
       0.080917455 -0.06566327 0.09261413 0.06098422
000120 50 7d cf 3d 8f 75 42 3b 83 a0 82 3d 2e dc 43 bc
       0.10131323 0.002967212 0.063782714 -0.01195435
000130 67 c0 bc bd 1b a5 e7 bd 40 04 00 3d 06 58 80 3d
       -0.09216385 -0.11310788 0.031254053 0.06266789
000140 a7 88 9c 3d df fc d4 bd 46 d3 d5 3d f1 28 55 bd
       0.07643252 -0.10399794 0.10440688 -0.052040998
000150 a4 d7 d9 3d 10 df 30 bc 89 7c ba bd 84 49 85 3d
       0.10636833 -0.01079537 -0.091057844 0.065081626
000160 59 9d 90 3d 02 37 a4 bd 31 5c 59 bd a3 7d 7f 3d
       0.07061262 -0.080183044 -0.053066436 0.062375676
000170 fe 47 03 3d 60 1b 92 3d 5d 2e f8 bd 56 4f d2 3c
       0.03205108 0.071341276 -0.12118218 0.025672596
000180 f2 b7 34 bc 1f 0a ba 3d 0d fb 58 bd 90 bf 4f bd
       -0.011030184 0.09083962 -0.052973796 -0.050719798
000190 78 5e ca 3d 5f 74 e6 3d a5 52 b9 3c 2f ff b1 3d
       0.098813 0.11252665 0.022622416 0.086912505
0001a0 fa 27 f4 bd b8 07 12 3c 0d 5d b0 bc 06 a8 29 3d
       -0.119216874 0.008912973 -0.021528745 0.041420005
0001b0 6f bd 24 bd eb 47 88 3d 8a ce a9 3b e8 01 e8 bc
       -0.04021972 0.06654342 0.005182092 -0.028321221
0001c0 f7 6d b0 bd 34 d0 57 3d 31 a9 d2 3d 52 8c 1a bd
       -0.08614724 0.052688792 0.10286177 -0.037731476
0001d0 18 88 b9 3c 05 de de bd 06 07 77 bd 03 a5 2b 3d
       0.022647902 -0.108821906 -0.060309432 0.041905414
0001e0 16 1b e9 bd b2 38 a6 bd 7b e5 29 bd 32 21 fc 3c
       -0.11382119 -0.081162825 -0.041478615 0.030777548
0001f0 51 cc a7 3d 5e d4 0e bd 66 31 6a 3d 5a f3 5d 3d
       0.08193267 -0.034870498 0.057176016 0.054187156
