data/processed/model/gnn_20250723_183545.pth (torch, 915203 bytes, 220 tensors)

lin_dict.core.weight f4 [64, 3]
0.22071481 0.3084846 -0.03356868 -0.17005154 0.13822877 0.06350267 0.343319 -0.060171783
0.10742998 -0.47305918 0.4201811 0.12929583 -0.0047835708 0.41340834 -0.10662684 0.5236095
0.18590117 -0.16500813 -0.36520433 0.26177204 -0.5019001 0.41934162 0.05112332 0.3130806
-0.55153626 0.14693588 0.22811973 0.22300208 -0.28302076 -0.39718035 0.22638088 -0.0705834
-0.3930985 -0.5170349 -0.25128084 -0.48342022 -0.28519297 -0.5107237 0.32250112 0.3634321
-0.5250432 -0.5457597 -0.54024917 0.4560541 0.1538446 0.4220571 0.054118335 0.1842596
0.005015433 0.29413337 0.15677696 0.17991483 0.15257096 0.18505812 0.25769782 -0.31888828
-0.00288862 0.3026799 0.1859054 0.20398235 -0.32339373 0.23306262 -0.44372553 -0.07553315
0.08599436 0.5053719 -0.22735092 -0.3960631 0.4441806 -0.465458 -0.30980134 0.15405238
0.41024458 -0.40643826 -0.1029084 0.496655 -0.32301205 -0.57626677 -0.080503285 0.22478628
0.48833287 -0.35612082 -0.124685526 0.37815106 -0.5054853 -0.18580866 0.010893822 -0.021514416
0.3415053 -0.11313373 0.43382335 0.5220587 0.48752213 -0.270369 0.19902265 -0.4692217
-0.19110504 0.14693451 0.03612858 0.22469997 -0.47015968 0.40962702 0.516763 0.062248528
-0.33065766 0.14492285 0.26663148 0.047906876 0.29737014 -0.36193568 -0.3782307 0.46462107
0.54494464 -0.1476365 -0.43301022 -0.3883896 0.18752295 -0.17386565 0.51437294 -0.018980145
0.46232295 -0.5219457 0.3865072 0.18021953 -0.40171656 0.1519463 0.0008896589 0.021455467
-0.44094002 0.2802109 0.31964046 -0.1424368 0.32772046 -0.17428732 -0.010053158 -0.12041953
0.16463816 -0.38663745 -0.45317975 -0.33393353 0.013992429 0.43206775 -0.56040555 -0.037403047
0.057386756 -0.5539707 -0.23963097 -0.2841539 -0.27015018 -0.039945006 0.16460145 0.54587865
-0.23909631 -0.4227969 0.2969995 -0.5526049 -0.42437014 0.3362463 -0.19545054 -0.52942616
-0.050037324 0.09890342 -0.39093986 0.44028604 0.3425395 0.4319402 -0.25767845 0.5476483
-0.08077437 -0.49571472 -0.28992245 -0.3911541 0.46597612 -0.35107315 0.042277873 0.5528382
-0.5452819 -0.3701454 -0.3974195 0.45514214 0.14928848 0.3452369 0.36365426 -0.5276559
-0.33346877 0.49026072 -0.39951566 -0.28068683 -0.33301884 -0.36923277 0.12393916 0.38090444
00000000: 1003 623e b2f1 9d3e 507f 09bd fe21 2ebe
00000010: d88b 0d3e b00d 823d 82c7 af3e b076 76bd
00000020: 4004 dc3d d034 f2be fa21 d73e 2066 043e
00000030: 80bf 9cbb 42aa d33e 2c5f dabd 460b 063f
00000040: e05c 3e3e e4f7 28be 10fc babe fc06 863e
00000050: 867c 00bf f2b3 d63e b066 513d 1a4c a03e
00000060: 7b31 0dbf 5c76 163e 3898 693e a85a 643e
00000070: 19e8 90be 395b cbbe 64d0 673e 088e 90bd
00000080: 3544 c9be 665c 04bf e2a7 80be db82 f7be
00000090: d004 92be cabe 02bf de1e a53e c613 ba3e
000000a0: 3b69 06bf e8b6 0bbf c54d 0abf ec7f e93e
000000b0: 7089 1d3e de17 d83e 30ab 5d3d 8cae 3c3e
000000c0: 8058 a43b a698 963e 248a 203e 983b 383e
000000d0: 903b 1c3e e07f 3d3e f8f0 833e 5345 a3be
000000e0: 004f 3dbb dcf8 9a3e fc5d 3e3e c0e0 503e
000000f0: dd93 a5be f8a7 6e3e fe2f e3be 20b1 9abd
00000100: d01d b03d 0e60 013f aece 68be c8c8 cabe
00000110: a46b e33e 8350 eebe 489e 9ebe e8bf 1d3e
00000120: 940b d23e ad18 d0be a4c1 d2bd 9049 fe3e
00000130: d661 a5be 3886 13bf e8de a4bd 602e 663e
00000140: c406 fa3e 7855 b6be 205b ffbd 049d c13e
00000150: 7c67 01bf a044 3ebe 007c 323c 003f b0bc
00000160: c8d9 ae3e a8b2 e7bd 181e de3e a4a5 053f
00000170: 809c f93e ce6d 8abe 98cc 4b3e d43d f0be
00000180: 0ab1 43be 0076 163e 90fb 133d c017 663e
00000190: c5b8 f0be a2ba d13e 944a 043f 50f8 7e3d
000001a0: f64b a9be a866 143e ec83 883e 003a 443d
000001b0: e640 983e a24f b9be 74a7 c1be d0e2 ed3e
000001c0: 7e81 0b3f 062e 17be 84b3 ddbe 00db c6be
000001d0: 0406 403e d609 32be f2ad 033f 407c 9bbc
000001e0: 98b5 ec3e 3c9e 05bf 46e4 c53e 788b 383e
000001f0: cbad cdbe d097 1b3e 0038 693a 60c3 af3c
00000200: e4c2 e1be ce77 8f3e eaa7 a33e f4da 11be
00000210: faca a73e 6078 32be 00b6 24bc 849e f6bd
00000220: e896 283e 58f5 c5be 2d07 e8be 56f9 aabe
00000230: 8040 653c fc37 dd3e bd76 0fbf f033 19bd
00000240: 600e 6b3d 06d1 0dbf d261 75be 9f7c 91be
00000250: 2051 8abe 609d 23bd 488d 283e b4be 0b3f
00000260: aad5 74be d678 d8be 5210 983e 8477 0dbf
00000270: 0b47 d9be 7a28 ac3e 3024 48be 7988 07bf
00000280: f0f3 4cbd e08d ca3d 4529 c8be 2c6d e13e
00000290: 5661 af3e 4427 dd3e 6eee 83be ae32 0c3f
000002a0: 086d a5bd 52ce fdbe b770 94be 5a45 c8be
000002b0: 6c94 ee3e dcbf b3be 902b 2d3d ce86 0d3f
000002c0: 9897 0bbf b383 bdbe 927a cbbe 6408 e93e
000002d0: 14df 183e e4c2 b03e e430 ba3e 7514 07bf
000002e0: 6bbc aabe 7403 fb3e 518d ccbe 2fb6 8fbe
000002f0: 7281 aabe 140c bdbe d0d3 fd3d e805 c33e

lin_dict.core.bias f4 [64]
-0.10582784 -0.18208078 0.020636857 -0.12356335 0.22497696 -0.08303228 0.18624675 -0.26451573
0.34121847 -0.008478403 -0.06937355 0.40254164 0.53686905 0.31568062 -0.020201683 0.368245
0.13772279 -0.5357334 -0.09654182 -0.15498117 -0.026326716 0.47842646 0.20218295 0.029284358
0.29415536 -0.3879779 -0.53963476 -0.061457038 -0.21723616 0.29304433 0.2711283 -0.1011554
-0.34720647 -0.0040208697 0.013017297 0.28823966 0.31028152 -0.042532742 0.13731486 -0.10253984
-0.04627663 0.19409448 -0.5058323 -0.3864731 -0.17027047 -0.08727145 0.37474263 -0.54095185
0.5045457 0.36516464 -0.15654445 0.4506812 0.22984838 0.40386868 -0.52619505 0.35093564
-0.3198325 -0.0109782815 0.121382415 -0.36183292 -0.26412967 0.21729112 0.32434112 0.11746335
00000000: 44bc d8bd 6273 3abe a00e a93c c80e fdbd
00000010: 5c60 663e d40c aabd 78b7 3e3e 9b6e 87be
00000020: 30b4 ae3e 00e9 0abc b813 8ebd f019 ce3e
00000030: 4070 093f e4a0 a13e 007e a5bc 9c8a bc3e
00000040: 3407 0d3e d325 09bf b8b7 c5bd 62b3 1ebe
00000050: 20ab d7bc 50f4 f43e 0c09 4f3e c0e5 ef3c
00000060: 889b 963e 0aa5 c6be 8125 0abf 60ba 7bbd
00000070: 2873 5ebe e809 963e 54d1 8a3e 902a cfbd
00000080: 0cc5 b1be 80c1 83bb 8046 553c 2694 933e
00000090: 38dd 9e3e d036 2ebd 449c 0c3e 6800 d2bd
000000a0: 908c 3dbd b4c0 463e 3a7e 01bf cddf c5be
000000b0: 625b 2ebe 60bb b2bd 44de bf3e d27b 0abf
000000c0: e829 013f dcf6 ba3e 304d 20be b0bf e63e
000000d0: 605d 6b3e e0c7 ce3e b8b4 06bf d6ad b33e
000000e0: 16c1 a3be 40de 33bc 5897 f83d 2a42 b9be
000000f0: 013c 87be 9081 5e3e 0a10 a63e a090 f03d

lin_dict.agg.weight f4 [64, 3]
-0.12617224 -0.06542015 0.5049012 -0.0107396245 0.30201137 -0.46713996 0.29470807 -0.34530166
-0.3578421 -0.107803464 0.05221033 -0.41185746 0.30633372 -0.073396504 -0.06607723 0.06140524
0.37581527 0.3253569 -0.4264972 -0.15070674 0.4113893 -0.27177447 -0.23436078 0.36754
0.23061258 -0.57066053 0.087649286 -0.35094818 -0.019984186 0.118539095 -0.070474625 0.12741059
0.2450388 -0.18853965 -0.26271415 -0.41732702 -0.54745203 0.43086112 -0.5759807 -0.0029206276
0.40800464 -0.49099654 0.1266262 0.033174753 0.4783306 -0.046690762 0.49911535 -0.09964964
-0.04623139 0.23469877 -0.20810625 -0.18763095 0.41330463 -0.4810425 -0.29778233 0.33195406
0.08028686 0.047541976 -0.32627183 0.4666953 -0.536267 0.29930758 -0.49637836 -0.00020849705
0.093040645 -0.19215459 0.5465944 -0.11965516 0.15421182 -0.3126158 0.15081733 0.119706035
0.073901236 0.20880747 0.20834607 0.50016785 0.15481234 0.13288987 0.29574347 -0.22893423
-0.2970763 -0.5320738 0.2630906 0.15445131 0.16729623 0.5499233 -0.532597 -0.35304177
-0.21595058 0.19291186 0.3700493 -0.40694147 -0.52057445 -0.27187508 0.37135673 0.07450652
0.32895654 0.5205041 0.07510495 0.22745514 -0.390745 -0.55128694 -0.4208606 0.19593358
-0.21710265 -0.2577093 -0.45659086 -0.48705435 0.28102934 0.33225042 -0.080593586 0.5376549
0.22340673 -0.34284645 -0.55659187 -0.4986884 -0.29880148 -0.5667745 -0.558544 0.526484
-0.5258475 0.2653541 0.30674738 0.48447978 0.34761602 0.16812515 -0.029233098 -0.03196299
0.13729012 0.46858668 -0.079713374 -0.1271506 -0.35846102 0.11746317 0.49046397 -0.19793674
-0.5190796 -0.45296377 -0.091129184 -0.23120198 -0.13663483 -0.4053224 0.2124418 0.539683
0.44639862 0.25961137 0.41780043 0.02595073 0.067219555 -0.10349092 -0.3678313 -0.093079
-0.36765805 -0.57512313 -0.49173635 -0.07595456 0.50865865 -0.26361948 -0.019897163 -0.5235667
-0.48566827 -0.54583716 -0.4483555 -0.40351945 0.24075961 0.1396299 -0.26558065 0.51767004
0.045215666 -0.49823782 -0.264592 -0.5079229 -0.40726212 -0.34550303 0.024444401 -0.22914779
0.27647996 0.13334394 0.44989133 0.5456803 -0.48458427 -0.3361529 0.09571028 -0.33078402
0.54205155 0.16972852 0.19555616 -0.18079019 0.48847127 0.5111493 0.49631917 0.446759
00000000: 4c33 01be 00fb 85bd 3441 013f 40f5 2fbc
00000010: 3ca1 9a3e f82c efbe fae3 963e 61cb b0be
00000020: 1437 b7be 10c8 dcbd 80da 553d fbde d2be
00000030: c6d7 9c3e e850 96bd 8053 87bd 1084 7b3d
00000040: dc6a c03e 2e95 a63e d75d dabe de52 1abe
00000050: 9ea1 d23e 0626 8bbe 46fc 6fbe 342e bc3e
00000060: b425 6c3e cf16 12bf 7881 b33d 7baf b3be
00000070: e0b5 a3bc a0c4 f23d 0055 90bd ec77 023e
00000080: 74eb 7a3e 8a10 41be 7882 86be e3ab d5be
00000090: d125 0cbf d499 dc3e 7973 13bf 0068 3fbb
000000a0: fce5 d03e e663 fbbe 4caa 013e 40e2 073d
000000b0: c0e7 f43e d03e 3fbd 0c8c ff3e 1c15 ccbd
000000c0: 205d 3dbd e054 703e ce19 55be 5422 40be
000000d0: aa9c d33e 344b f6be ed76 98be e2f5 a93e
000000e0: 706d a43d 60bb 423d 1a0d a7be b0f2 ee3e
000000f0: cb48 09bf d83e 993e 4e25 febe 00a0 5ab9
00000100: 188c be3d 2cc4 44be 9ced 0b3f c40d f5bd
00000110: b4e9 1d3e 2e0f a0be dc6f 1a3e 7028 f53d
00000120: 8859 973d a0d1 553e ac58 553e 000b 003f
00000130: 2087 1e3e 4814 083e b06b 973e bc6d 6abe
00000140: 631a 98be fd35 08bf d0b3 863e 7c28 1e3e
00000150: b44f 2b3e c6c7 0c3f 4758 08bf e4c1 b4be
00000160: 2622 5dbe b08a 453e 1a77 bd3e a25a d0be
00000170: 5e44 05bf 3633 8bbe 7822 be3e e096 983d
00000180: fe6c a83e c23f 053f a0d0 993d 00ea 683e
00000190: bb0f c8be 2421 0dbf 0a7b d7be d0a2 483e
000001a0: 2850 5ebe 79f2 83be 47c6 e9be 305f f9be
000001b0: 14e3 8f3e ba1c aa3e 400e a5bd c0a3 093f
000001c0: bcc4 643e 9289 afbe ce7c 0ebf 1654 ffbe
000001d0: 82fc 98be 2218 11bf bdfc 0ebf a8c7 063f
000001e0: f19d 06bf 7edc 873e fe0d 9d3e bc0d f83e
000001f0: bafa b13e 0029 2c3e 407a efbc a0eb 02bd
00000200: c895 0c3e 98ea ef3e c440 a3bd c433 02be
00000210: 3488 b7be 8890 f03d 181e fb3e eeaf 4abe
00000220: 67e2 04bf deea e7be f0a1 babd 36c0 6cbe
00000230: 00ea 0bbe 6b86 cfbe 588a 593e aa28 0a3f
00000240: 5c8e e43e c8eb 843e f0e9 d53e a096 d43c
00000250: 68aa 893d 0cf3 d3bd 6254 bcbe 34a0 bebd
00000260: ad3d bcbe 453b 13bf dec4 fbbe 108e 9bbd
00000270: 7437 023f 22f9 86be 60ff a2bc 7808 06bf
00000280: 83a9 f8be fcbb 0bbf da8e e5be 1a9a cebe
00000290: b089 763e 24fb 0e3e 30fa 87be 0686 043f
000002a0: 1034 393d 0719 ffbe 9a78 87be 3c07 02bf
000002b0: a984 d0be c6e5 b0be a03f c83c b8a5 6abe
000002c0: c88e 8d3e 508b 083e 2858 e63e b4b1 0b3f
000002d0: 6e1b f8be 3c1c acbe c003 c43d 865c a9be
000002e0: e4c3 0a3f 50cd 2d3e e03f 483e 1021 39be
000002f0: e818 fa3e aeda 023f 8c1d fe3e 98bd e43e

lin_dict.agg.bias f4 [64]
0.3231038 -0.314467 0.43867314 0.054162025 0.4714502 0.42501616 -0.059914768 0.42866933
-0.028882325 0.5596175 0.08070344 0.41159695 0.05299908 0.4603573 -0.2550693 -0.2309401
-0.40289485 -0.37626243 0.24368995 -0.103880286 0.0877049 0.23223972 -0.259661 -0.41867524
0.033076346 0.31051797 -0.033561528 0.3398124 0.11201048 -0.56492245 0.33168012 -0.40157002
-0.44264388 -0.5260157 0.35531628 0.33067638 0.10963875 0.4116277 -0.52187157 0.16764486
-0.2849761 -0.50787497 0.42094636 -0.42570356 0.42658484 0.14670378 0.019929707 -0.27285674
-0.57285887 -0.36434567 0.123010516 -0.028299928 -0.10498589 0.5701463 0.018385649 0.4110359
-0.56198263 -0.10101259 0.19996428 -0.49798268 -0.09835428 0.119635105 0.058644176 0.23301
00000000: dc6d a53e d201 a1be c499 e03e 00d9 5d3d
00000010: ec61 f13e b89b d93e 3069 75bd 8c7a db3e
00000020: a09a ecbc 1843 0f3f d847 a53d d6bc d23e
00000030: 9015 593d f4b3 eb3e 7198 82be 907b 6cbe
00000040: 3c48 cebe 78a5 c0be dc89 793e 30bf d4bd
00000050: a09e b33d 40d0 6d3e 49f2 84be 9a5c d6be
00000060: 107b 073d 36fc 9e3e d077 09bd e4fb ad3e
00000070: c065 e53d c29e 10bf fad1 a93e 969a cdbe
00000080: 38a2 e2be f7a8 06bf 04ec b53e 6a4e a93e
00000090: 488a e03d dec0 d23e 6099 05bf 18ab 2b3e
000000a0: 63e8 91be 1804 02bf 4886 d73e d1f5 d9be
000000b0: 5469 da3e 8439 163e a043 a33c e1b3 8bbe
000000c0: e1a6 12bf 848b babe f0ec fb3d 40d5 e7bc
000000d0: d802 d7bd 1cf5 113f 809d 963c 4c73 d23e
000000e0: 18de 0fbf b0df cebd 70c3 4c3e 96f7 febe
000000f0: f86d c9bd 4003 f53d e034 703d 2c9a 6e3e

lin_dict.access.weight f4 [64, 3]
-0.020107746 -0.4698186 0.49876916 0.33495766 -0.012546778 -0.5315262 -0.010748208 0.49455917
0.13728726 -0.10213059 -0.4397269 0.3148194 0.48301744 -0.44938606 0.3032109 0.5102496
-0.40521324 0.32971454 -0.29205406 -0.5560584 -0.029628873 0.1798824 -0.286633 0.47173762
0.2228213 -0.38191575 -0.060239196 -0.23952848 -0.49877313 0.23096937 -0.3000585 -0.38411498
-0.05202645 0.044384778 -0.11129615 -0.38277322 0.05268848 0.56100774 0.5110296 -0.3514424
-0.027970195 0.014836431 0.27162135 -0.51013255 -0.46990117 0.34927756 -0.21202222 0.23911971
-0.08054423 0.31817263 0.24110514 -0.37810028 0.3938805 -0.24106315 0.44123018 0.17884463
0.34877527 -0.24243286 0.38092732 0.42238927 0.16846985 -0.5360156 -0.13759616 -0.1996432
0.31382906 -0.34147036 0.13027036 -0.39965048 0.300139 -0.42150843 0.043177605 -0.02303493
0.095125854 0.47987676 -0.12801772 -0.49523833 -0.28516105 -0.13739955 -0.18180239 0.45869863
-0.21734348 -0.09685698 -0.07234317 -0.08197442 -0.050010562 -0.40019077 0.25572485 -0.4247836
0.272645 -0.010143936 -0.44904864 0.5055902 0.08006436 0.047240674 -0.060244143 -0.46693155
0.5411172 0.4282918 -0.41569185 0.4713136 -0.010258257 -0.3782184 0.16978711 0.0619874
-0.0325104 -0.49053466 0.27852917 -0.46637964 -0.057778478 -0.23750523 -0.08937219 -0.18530506
-0.40199387 -0.01737386 0.08561349 -0.41254807 -0.035984397 -0.007139504 -0.10522506 -0.4307502
0.34308106 0.45252717 0.16176224 -0.01897043 -0.108835846 -0.4399355 0.43886757 0.24343818
-0.20241466 0.21936756 -0.4888535 0.15497386 0.3274386 -0.3613566 -0.33877486 -0.36931172
-0.13200575 -0.36429268 0.03705907 0.41874826 -0.088881135 0.15983891 -0.044915795 -0.12308839
0.36144733 0.52011204 -0.051529348 0.44818866 0.030984819 0.40611959 -0.31965673 -0.5748514
-0.11248237 0.29587215 -0.28553194 -0.5600945 -0.54773283 0.050644577 0.2763214 -0.43934238
-0.42277208 -0.10496509 -0.562859 0.40867764 -0.42760777 0.1557228 -0.2897881 0.31879586
-0.17112598 -0.09906566 0.57702816 0.11807966 -0.21019304 0.5616368 0.23407674 -0.55064726
-0.53834575 0.28892535 0.31813955 0.5069908 -0.33178082 0.045452237 -0.196017 0.37023145
0.16033745 -0.29280803 -0.08948672 -0.32011518 0.06493503 0.17080551 0.30627602 0.32577258
00000000: 00b9 a4bc 108c f0be ac5e ff3e 927f ab3e
00000010: 0091 4dbc 1a12 08bf 4019 30bc dc36 fd3e
00000020: 0895 0c3e d829 d1bd e223 e1be 0230 a13e
00000030: 104e f73e ee15 e6be 763e 9b3e b89f 023f
00000040: 1c78 cfbe 58d0 a83e 1c88 95be d859 0ebf
00000050: 40b8 f2bc 1833 383e 90c1 92be 9887 f13e
00000060: 442b 643e 768a c3be 60bd 76bd f446 75be
00000070: 315f ffbe 3c83 6c3e 45a1 99be b8aa c4be
00000080: b019 55bd d0cc 353d 3cef e3bd dafa c3be
00000090: e0cf 573d 349e 0f3f d6d2 023f 42f0 b3be
000000a0: c021 e5bc 8014 733c f411 8b3e 0c98 02bf
000000b0: e396 f0be 82d4 b23e 5a1c 59be ccdb 743e
000000c0: 60f4 a4bd 86e7 a23e 44e4 763e 5c96 c1be
000000d0: b4aa c93e 42d9 76be ece8 e13e 0c23 373e
000000e0: ac92 b23e 5240 78be e808 c33e 6843 d83e
000000f0: 5c83 2c3e 5238 09bf 02e6 0cbe 446f 4cbe
00000100: 34ae a03e 34d5 aebe 9865 053e fd9e ccbe
00000110: d2ab 993e f4cf d7be 00db 303d c0b3 bcbc
00000120: 58d1 c23d 68b2 f53e 1417 03be e18f fdbe
00000130: a100 92be 78b2 0cbe 682a 3abe 8cda ea3e
00000140: 4a8f 5ebe f45c c6bd a828 94bd 34e2 a7bd
00000150: e0d7 4cbd cee5 ccbe 5eee 823e 3c7d d9be
00000160: 2098 8b3e c032 26bc b4e9 e5be 5c6e 013f
00000170: c8f8 a33d 707f 413d 90c2 76bd a711 efbe
00000180: a886 0a3f 1049 db3e 90d5 d4be 0450 f13e
00000190: 4012 28bc d8a5 c1be acdc 2d3e 80e6 7d3d
000001a0: a029 05bd 5c27 fbbe 609b 8e3e 50c9 eebe
000001b0: 20a9 6cbd 9234 73be c408 b7bd 9cc0 3dbe
000001c0: 24d2 cdbe a053 8ebc 2056 af3d 8039 d3be
000001d0: 6064 13bd 80f2 e9bb 3c80 d7bd 4a8b dcbe
000001e0: 52a8 af3e a4b1 e73e 00a5 253e e067 9bbc
000001f0: 54e5 debd 3a3f e1be 40b3 e03e dc47 793e
00000200: ca45 4fbe e4a1 603e 024b fabe 78b1 1e3e
00000210: 08a6 a73e bb03 b9be e673 adbe 6d16 bdbe
00000220: 842c 07be 9284 babe 40cb 173d 2c66 d63e
00000230: 5007 b6bd d0ac 233e a0f9 37bd c415 fcbd
00000240: a00f b93e 1026 053f 7010 53bd fc78 e53e
00000250: e0d3 fd3c e8ee cf3e 0caa a3be 7629 13bf
00000260: 285d e6bd 8e7c 973e 3e31 92be 5a62 0fbf
00000270: 3838 0cbf b070 4f3d 007a 8d3e 7cf1 e0be
00000280: 9575 d8be f0f7 d6bd 8717 10bf 323e d13e
00000290: 68ef dabe cc75 1f3e 1b5f 94be 3639 a33e
000002a0: a63b 2fbe f0e2 cabd 1eb8 133f c0d3 f13d
000002b0: d83c 57be 6ec7 0f3f d0b1 6f3e 38f7 0cbf
000002c0: 07d1 09bf 06ee 933e 30e3 a23e 26ca 013f
000002d0: 2ddf a9be 202c 3a3d aeb8 48be fa8e bd3e
000002e0: 802f 243e efea 95be d044 b7bd 23e6 a3be
000002f0: a8fc 843d a4e7 2e3e 36d0 9c3e aacb a63e

lin_dict.access.bias f4 [64]
-0.5285404 -0.3115193 0.39670622 0.01101476 -0.23420379 -0.11947936 -0.059997737 0.085368454
0.36818236 -0.39841694 0.20859027 0.1740377 -0.24815205 0.032162964 0.08155203 0.2908283
-0.090290815 -0.07364869 -0.3706066 0.19690394 0.5113956 0.094055 0.48268998 -0.40663037
0.11002296 -0.31685367 -0.49068213 0.15703857 0.23458844 -0.2974102 -0.13776493 0.12954807
-0.122736186 -0.36805075 0.26198447 -0.5141488 -0.10363531 -0.52320546 -0.36761945 -0.40688536
-0.13606542 -0.03389269 0.47614026 0.25381804 0.41207898 0.06493026 0.12681323 -0.44287828
-0.16423497 -0.049852192 0.36474603 0.19351292 0.23628521 -0.2621252 -0.32083234 0.107197344
-0.05006367 -0.03686887 -0.5731788 -0.46093935 0.34658986 0.15324557 0.5489217 0.19377768
00000000: 6c4e 07bf 757f 9fbe 141d cb3e 4077 343c
00000010: 1ed3 6fbe 98b1 f4bd 30c0 75bd a8d5 ae3d
00000020: 6682 bc3e 4efd cbbe b098 553e f036 323e
00000030: 921b 7ebe 50bd 033d c004 a73d 72e7 943e
00000040: 64ea b8bd 20d5 96bd 26c0 bdbe 30a1 493e
00000050: d2ea 023f e89f c03d 2423 f73e db31 d0be
00000060: b853 e13d a53a a2be b03a fbbe b8ce 203e
00000070: f437 703e 2646 98be 4012 0dbe 40a8 043e
00000080: 1c5d fbbd 2671 bcbe d422 863e 419f 03bf
00000090: c03e d4bd cbf0 05bf 9e38 bcbe 4753 d0be
000000a0: bc54 0bbe 10d3 0abd a8c8 f33e 70f4 813e
000000b0: 04fc d23e 28fa 843d 54db 013e f1c0 e2be
000000c0: 362d 28be d031 4cbd febf ba3e 4028 463e
000000d0: c0f4 713e 4635 86be 2344 a4be 488a db3d
000000e0: 900f 4dbd d003 17bd d9bb 12bf 3e00 ecbe
000000f0: 3a74 b13e 68ec 1c3e 2286 0c3f a86d 463e

attention.in_proj_weight f4 [192, 64]
-0.1147096 -0.11652323 0.044736415 -0.11189153 0.03888409 -0.00031663477 -0.12774643 0.15010183
-0.03930527 0.052998587 0.028815404 -0.020348608 0.13660131 -0.04639648 0.11916031 -0.017162055
-0.1506236 0.092366114 -0.12959462 -0.02779685 0.09968145 0.076297656 0.10548897 0.07376623
0.035272866 0.13207372 -0.11763707 0.09342179 0.1425329 0.11021222 -0.0071832836 -0.11707918
-0.06344717 -0.07005671 -0.033581413 -0.040446594 0.08760898 -0.08490161 0.03784655 0.015256166
-0.061512016 -0.05875417 0.045358837 -0.064193636 0.10114722 -0.05809357 0.09140347 -0.090094045
-0.13462281 -0.11185895 0.015398592 -0.044521697 0.078250825 -0.13366057 0.14602326 0.01578787
-0.10190937 0.02783145 0.0767968 -0.035419747 -0.10810059 -0.016764164 -0.10428758 0.11983274
-0.07708563 -0.07895671 0.09791769 0.069389895 0.10248135 -0.02971366 0.027922869 0.09701504
-0.027690873 0.04851538 0.12648298 -0.11367152 -0.13314483 -0.092100665 0.07112837 0.06873919
-0.03696361 0.06337282 0.12422134 -0.1421319 0.026631072 -0.034188174 0.00042277575 0.1122791
0.036918506 -0.034606226 -0.079591095 -0.056872085 0.08963427 -0.09963165 -0.08791934 0.05359654
0.11040549 -0.05489126 0.09193987 -0.044018306 -0.031023838 0.07689132 -0.121216014 0.097880974
0.08413814 0.132903 -0.0110146105 0.07291226 0.018652275 0.07064593 -0.063849635 0.017976746
-0.04314436 -0.1466676 -0.11815437 -0.13007885 0.048151374 0.13517942 0.056718007 0.0728195
-0.059380837 0.017760068 0.06992322 0.14350034 0.07368247 0.018842757 -0.030550778 0.00383161
-0.087916695 -0.14365754 0.09212689 0.050840825 -0.117245935 -0.010981768 0.06878674 0.076987475
0.025511444 -0.039270483 0.0018905103 -0.105635375 0.06831586 0.15155326 0.038127005 0.097695544
-0.10568258 -0.013120249 0.14787082 0.041174337 0.011543274 -0.14196359 0.093763754 -0.076321736
0.07476865 0.08811042 0.08604412 -0.008378819 -0.0886135 0.12333791 -0.12421874 -0.13156383
0.115912125 -0.006715849 -0.010506481 0.12194307 0.06456865 0.12077983 0.005445823 -0.074277304
-0.033913016 -0.07546058 -0.009111732 0.12657382 0.10073684 0.05533044 0.013300493 0.106655195
0.09879954 0.0019239038 0.11933939 -0.028778836 0.044360027 -0.0840992 -0.03440606 -0.046759844
0.045150876 0.13617744 -0.08859551 0.05488424 -0.14945649 0.14859323 0.15144767 0.11195098
0.03155318 -0.03249252 -0.04564403 0.02660428 0.09717481 -0.04778517 -0.0845262 -0.09187761
0.08886194 -0.031629942 0.015407592 0.05226168 0.12304674 0.035602435 0.01664503 0.029444203
0.0596084 -0.12186208 0.11069392 -0.14997354 -0.08103656 0.02925323 0.105396315 -0.10286046
-0.07475144 0.04967153 -0.029895581 0.07486178 -0.052307606 0.083255485 0.055230603 0.055028528
0.11745261 -0.12995154 -0.12553225 0.05364348 0.032248512 0.023164243 0.04629214 -0.14564681
0.038219452 0.036197037 -0.0827092 0.13802595 0.11984591 -0.15161994 -0.118143 -0.06054184
-0.039388925 0.032812417 0.0922779 0.05989495 -0.09856133 0.03786394 -0.14245297 0.11289306
-0.115518816 0.028789371 -0.072951846 -0.065744475 0.023266241 0.08609876 0.06582509 0.09733786
00000000: deec eabd bba3 eebd 883d 373d 6327 e5bd
00000010: ec44 1f3d 0002 a6b9 f6cf 02be 4bb4 193e
00000020: 90fe 20bd 0c15 593d 480e ec3c 20b2 a6bc
00000030: 37e1 0b3e 3c0a 3ebd 520a f43d 7097 8cbc
00000040: 133d 1abe 722a bd3d 74b4 04be 38b6 e3bc
00000050: ca25 cc3d f241 9c3d 9a0a d83d c012 973d
00000060: 487a 103d 553e 073e b4eb f0bd ec53 bf3d
00000070: 25f4 113e f2b6 e13d c061 ebbb 36c7 efbd
00000080: 97f0 81bd e479 8fbd aa8c 09bd 54ab 25bd
00000090: 566c b33d e5e0 adbd fc04 1b3d 00f5 793c
000000a0: 06f4 7bbd 36a8 70bd 30ca 393d f477 83bd
000000b0: 4626 cf3d 86f3 6dbd be31 bb3d 3a83 b8bd
000000c0: 90da 09be 4e16 e5bd 604a 7c3c 625c 36bd
000000d0: f841 a03d 51de 08be 1f87 153e 9055 813c
000000e0: dcb5 d0bd c8fe e33c a447 9d3d 4c14 11bd
000000f0: d863 ddbd 0055 89bc ba94 d5bd de6a f53d
00000100: 12df 9dbd 0eb4 a1bd 1289 c83d 4a1c 8e3d
00000110: bee1 d13d 106a f3bc 80be e43c d2af c63d
00000120: f8d7 e2bc 10b8 463d c184 013e 9dcc e8bd
00000130: 1e57 08be 469f bcbd c0ab 913d 22c7 8c3d
00000140: 2867 17bd 9cc9 813d c267 fe3d 068b 11be
00000150: 6829 da3c e608 0cbd 00a8 dd39 96f2 e53d
00000160: dc37 173d 42bf 0dbd a800 a3bd b4f2 68bd
00000170: 2c92 b73d ae0b ccbd 0e0f b4bd 0c88 5b3d
00000180: 461c e23d a8d5 60bd f84a bc3d 8a4c 34bd
00000190: b425 febc 3279 9d3d 1a40 f8bd d275 c83d
000001a0: 9e50 ac3d b917 083e a076 34bc 0653 953d
000001b0: a8cc 983c d0ae 903d 99c3 82bd f843 933c
000001c0: 24b8 30bd 0830 16be ebfa f1bd 6433 05be
000001d0: 603a 453d 796c 0a3e 2451 683d 6422 953d
000001e0: 5239 73bd 907d 913c e833 8f3d c1f1 123e
000001f0: d6e6 963d 205c 9a3c a045 fabc c01b 7b3b
00000200: ab0d b4bd f61a 13be 06ad bc3d 783e 503d
00000210: a31e f0bd e0ec 33bc 10e0 8c3d 9cab 9d3d
00000220: 60fd d03c 16da 20bd 00cb f73a 5c57 d8bd
00000230: 30e9 8b3d c730 1b3e 102b 1c3d 9a14 c83d
00000240: 1c70 d8bd 50f6 56bc 736b 173e 6ca6 283d
00000250: 0020 3d3c e75e 11be 3607 c03d 924e 9cbd
00000260: 4e20 993d 3c73 b43d e637 b03d 5047 09bc
00000270: ff7a b5bd 9698 fc3d 6566 febd abb8 06be
00000280: 5663 ed3d a010 dcbb 6023 2cbc 4abd f93d
00000290: 923c 843d 6a5b f73d e072 b23b b31e 98bd
000002a0: 60e8 0abd 148b 9abd 6049 15bc 919c 013e
000002b0: 1e4f ce3d 2ca2 623d 50ea 593c 0a6e da3d
000002c0: 6a57 ca3d 802b fc3a 3668 f43d 98c1 ebbc
000002d0: dcb2 353d 343c acbd 5eed 0cbd 4087 3fbd
000002e0: 20f0 383d 1972 0b3e 9071 b5bd 4cce 603d
000002f0: 1f0b 19be d328 183e 1915 1b3e 8e46 e53d
00000300: e83d 013d e016 05bd 3cf5 3abd 38f1 d93c
00000310: 9603 c73d 62ba 43bd 131c adbd 542a bcbd
00000320: 40fd b53d 668e 01bd 2070 7c3c 5810 563d
00000330: eeff fb3d dcd3 113d 285b 883c f834 f13c
00000340: f027 743d d492 f9bd 7eb3 e23d aa92 19be
00000350: 7ff6 a5bd 78a4 ef3c 06da d73d 81a8 d2bd
00000360: 4817 99bd 6074 4b3d 94e7 f4bc 2251 993d
00000370: 8040 56bd da81 aa3d 7c39 623d 9865 613d
00000380: fe8a f03d 0412 05be 878b 00be 44b9 5b3d
00000390: 0417 043d f0c2 bd3c d49c 3d3d 7024 15be
000003a0: 008c 1c3d 5843 143d 7163 a9bd ad56 0d3e
000003b0: c671 f53d 4242 1bbe f5f4 f1bd b8fa 77bd
000003c0: 4856 21bd 5066 063d 32fc bc3d 6854 753d
000003d0: 86da c9bd 3817 1b3d 31df 11be 7a34 e73d
000003e0: 2195 ecbd b0d7 eb3c c767 95bd 0aa5 86bd
000003f0: d898 be3c 8c54 b03d 4ecf 863d 1259 c73d

attention.in_proj_bias f4 [192]
0.0 0.0 0.0 0.0 0.0 0.0 0.0 0.0
0.0 0.0 0.0 0.0 0.0 0.0 0.0 0.0
0.0 0.0 0.0 0.0 0.0 0.0 0.0 0.0
0.0 0.0 0.0 0.0 0.0 0.0 0.0 0.0
0.0 0.0 0.0 0.0 0.0 0.0 0.0 0.0
0.0 0.0 0.0 0.0 0.0 0.0 0.0 0.0
0.0 0.0 0.0 0.0 0.0 0.0 0.0 0.0
0.0 0.0 0.0 0.0 0.0 0.0 0.0 0.0
0.0 0.0 0.0 0.0 0.0 0.0 0.0 0.0
0.0 0.0 0.0 0.0 0.0 0.0 0.0 0.0
0.0 0.0 0.0 0.0 0.0 0.0 0.0 0.0
0.0 0.0 0.0 0.0 0.0 0.0 0.0 0.0
0.0 0.0 0.0 0.0 0.0 0.0 0.0 0.0
0.0 0.0 0.0 0.0 0.0 0.0 0.0 0.0
0.0 0.0 0.0 0.0 0.0 0.0 0.0 0.0
0.0 0.0 0.0 0.0 0.0 0.0 0.0 0.0
0.0 0.0 0.0 0.0 0.0 0.0 0.0 0.0
0.0 0.0 0.0 0.0 0.0 0.0 0.0 0.0
0.0 0.0 0.0 0.0 0.0 0.0 0.0 0.0
0.0 0.0 0.0 0.0 0.0 0.0 0.0 0.0
0.0 0.0 0.0 0.0 0.0 0.0 0.0 0.0
0.0 0.0 0.0 0.0 0.0 0.0 0.0 0.0
0.0 0.0 0.0 0.0 0.0 0.0 0.0 0.0
0.0 0.0 0.0 0.0 0.0 0.0 0.0 0.0
00000000: 0000 0000 0000 0000 0000 0000 0000 0000
00000010: 0000 0000 0000 0000 0000 0000 0000 0000
00000020: 0000 0000 0000 0000 0000 0000 0000 0000
00000030: 0000 0000 0000 0000 0000 0000 0000 0000
00000040: 0000 0000 0000 0000 0000 0000 0000 0000
00000050: 0000 0000 0000 0000 0000 0000 0000 0000
00000060: 0000 0000 0000 0000 0000 0000 0000 0000
00000070: 0000 0000 0000 0000 0000 0000 0000 0000
00000080: 0000 0000 0000 0000 0000 0000 0000 0000
00000090: 0000 0000 0000 0000 0000 0000 0000 0000
000000a0: 0000 0000 0000 0000 0000 0000 0000 0000
000000b0: 0000 0000 0000 0000 0000 0000 0000 0000
000000c0: 0000 0000 0000 0000 0000 0000 0000 0000
000000d0: 0000 0000 0000 0000 0000 0000 0000 0000
000000e0: 0000 0000 0000 0000 0000 0000 0000 0000
000000f0: 0000 0000 0000 0000 0000 0000 0000 0000
00000100: 0000 0000 0000 0000 0000 0000 0000 0000
00000110: 0000 0000 0000 0000 0000 0000 0000 0000
00000120: 0000 0000 0000 0000 0000 0000 0000 0000
00000130: 0000 0000 0000 0000 0000 0000 0000 0000
00000140: 0000 0000 0000 0000 0000 0000 0000 0000
00000150: 0000 0000 0000 0000 0000 0000 0000 0000
00000160: 0000 0000 0000 0000 0000 0000 0000 0000
00000170: 0000 0000 0000 0000 0000 0000 0000 0000
00000180: 0000 0000 0000 0000 0000 0000 0000 0000
00000190: 0000 0000 0000 0000 0000 0000 0000 0000
000001a0: 0000 0000 0000 0000 0000 0000 0000 0000
000001b0: 0000 0000 0000 0000 0000 0000 0000 0000
000001c0: 0000 0000 0000 0000 0000 0000 0000 0000
000001d0: 0000 0000 0000 0000 0000 0000 0000 0000
000001e0: 0000 0000 0000 0000 0000 0000 0000 0000
000001f0: 0000 0000 0000 0000 0000 0000 0000 0000
00000200: 0000 0000 0000 0000 0000 0000 0000 0000
00000210: 0000 0000 0000 0000 0000 0000 0000 0000
00000220: 0000 0000 0000 0000 0000 0000 0000 0000
00000230: 0000 0000 0000 0000 0000 0000 0000 0000
00000240: 0000 0000 0000 0000 0000 0000 0000 0000
00000250: 0000 0000 0000 0000 0000 0000 0000 0000
00000260: 0000 0000 0000 0000 0000 0000 0000 0000
00000270: 0000 0000 0000 0000 0000 0000 0000 0000
00000280: 0000 0000 0000 0000 0000 0000 0000 0000
00000290: 0000 0000 0000 0000 0000 0000 0000 0000
000002a0: 0000 0000 0000 0000 0000 0000 0000 0000
000002b0: 0000 0000 0000 0000 0000 0000 0000 0000
000002c0: 0000 0000 0000 0000 0000 0000 0000 0000
000002d0: 0000 0000 0000 0000 0000 0000 0000 0000
000002e0: 0000 0000 0000 0000 0000 0000 0000 0000
000002f0: 0000 0000 0000 0000 0000 0000 0000 0000

attention.out_proj.weight f4 [64, 64]
-0.08883467 -0.11905743 -0.0023956 0.029938608 0.08857718 -0.10488358 0.011388108 -0.08846243
-0.111286536 -0.06974752 -0.08907732 0.067980394 0.0038476884 0.074778125 0.080141485 0.11725202
-0.12430802 0.013683826 0.053941295 -0.09429017 -0.08999273 -0.05720313 -0.111873716 -0.112516925
0.012707666 0.01526992 -0.016421542 0.124589294 -0.05610539 -0.05311945 0.10276201 0.0127532035
0.036561355 -0.09364487 -0.06060815 0.08597681 -0.0014299005 -0.035069585 0.028039306 -0.087308854
-0.124192506 -0.018799514 -0.121186554 -0.08388418 -0.012833908 -0.013704255 0.12073699 0.08224869
0.009190008 -0.046916723 0.010316908 0.09971714 -0.034625724 -0.092001945 0.088616565 0.10501613
0.08417325 0.032396585 -0.053889543 0.08583611 0.05376172 -0.059601337 0.11574815 -0.0529501
0.094888166 0.001994297 -0.0819523 -0.058000267 -0.1240329 -0.11899111 0.11950491 -0.10481873
0.09356883 -0.078393415 0.057872146 -0.06410918 0.02827841 0.007927254 0.038238794 -0.027002484
-0.01725252 -0.0036400557 -0.05266644 0.0070156455 0.068921626 -0.07781808 0.069390446 -0.049167007
-0.11836673 -0.07482383 -0.05791892 0.03479895 -0.038021192 0.07804808 0.06879185 -0.10589287
-0.11197823 -0.0847296 0.052380472 -0.095475405 0.020387337 0.01603879 -0.04837197 -0.04763566
0.04260333 -0.10651252 -0.07701488 -0.036704347 0.025262654 -0.06202148 0.05945252 0.07084715
-0.056793705 0.068559885 -0.03911178 -0.09654093 0.053290665 -0.10171908 0.08120765 0.06956199
0.07705705 0.12323587 0.0722411 0.06892808 0.12135485 -0.08118719 -0.003009975 -0.09867202
-0.11060183 -0.023499787 -0.12169258 -0.007394135 0.03334044 -0.01879561 0.116467655 0.08902091
0.10018541 0.116719514 0.10963188 0.020840332 -0.027042776 0.011601329 -0.11898607 -0.012269527
-0.07661651 0.022136346 -0.11354108 -0.031820968 -0.086849004 -0.09620325 -0.10356484 -0.057587802
-0.107060775 0.0071560293 -0.11418848 0.07401642 -0.019698277 -0.06989229 0.0697747 -0.07241158
-0.0627331 0.08973862 -0.031497642 0.016539827 0.08792852 0.052092373 -0.09411307 -0.09347223
0.07729219 0.02141577 0.024962083 -0.06048253 -0.03320743 -0.101162896 -0.07454398 0.08795497
-0.03772436 0.0521556 0.0060794204 -0.11533305 0.06473008 -0.013681874 0.018560007 0.022549883
0.1212108 -0.07017343 -0.030656591 0.110807836 0.0632122 -0.072627425 -0.032595783 0.034220472
0.06685485 -0.06878486 0.06716913 -0.050847262 0.03959477 0.032477513 0.01933442 0.0019013137
0.032560453 -0.09123671 -0.0013837367 0.041832015 -0.00014571846 -0.025789008 -0.11932929 0.111085
0.050817102 0.06415883 0.10911673 0.019020468 -0.10271753 -0.05939801 -0.078753576 -0.04645115
-0.11765823 0.072707474 -0.032062486 0.058185503 0.05037129 -0.0156513 0.017274171 0.108547434
0.066790834 -0.04313235 0.06018412 -0.0062143207 0.056840867 -0.085271 -0.068560004 -0.08352451
0.011943042 -0.0007433146 0.07789414 -0.07206334 -0.06977777 -0.0794148 0.06889577 -0.10617265
0.014463931 0.029030517 -0.09667568 -0.022049725 -0.08781327 0.118436635 -0.061267674 0.05307874
0.019637123 0.0014039874 -0.010479525 -0.079042345 0.066002235 0.08268121 0.012516156 0.07613152
00000000: f4ee b5bd 62d4 f3bd 80ff 1cbb d041 f53c
00000010: f467 b53d 34cd d6bd 3095 3a3c ca2b b5bd
00000020: 32ea e3bd cad7 8ebd 2c6e b6bd 4e39 8b3d
00000030: 8029 7c3b 4625 993d 3821 a43d d421 f03d
00000040: 3495 febd 2032 603c 8cf1 5c3d 341b c1bd
00000050: 1c4e b8bd d44d 6abd 0c1e e5bd 466f e6bd
00000060: d033 503c b02e 7a3c 7886 86bc ac28 ff3d
00000070: c4ce 65bd c893 59bd e474 d23d d0f2 503c
00000080: 5cc1 153d e2c8 bfbd 4040 78bd 9c14 b03d
00000090: 806b bbba 20a5 0fbd b0b2 e53c fcce b2bd
000000a0: a458 febd 7001 9abc a830 f8bd 78cb abbd
000000b0: 5045 52bc d087 60bc f444 f73d 0072 a83d
000000c0: b091 163c c02b 40bd 4008 293c 8038 cc3d
000000d0: b4d3 0dbd 846b bcbd 9a7c b53d b212 d73d
000000e0: 0663 ac3d 48b2 043d 48bb 5cbd d8ca af3d
000000f0: 4035 5c3d 8820 74bd 5e0d ed3d 34e2 58bd
00000100: ba54 c23d c0b2 023b 9cd6 a7bd b091 6dbd
00000110: f604 febd 9cb1 f3bd febe f43d 34ab d6bd
00000120: 04a1 bf3d ba8c a0bd 580b 6d3d ac4b 83bd
00000130: 20a8 e73c 50e1 013c 48a0 1c3d 5034 ddbc
00000140: 2855 8dbc 008e 6ebb c4b8 57bd 80e3 e53b
00000150: c826 8d3d 165f 9fbd 941c 8e3d 5863 49bd
00000160: 426a f2bd 3c3d 99bd 643c 6dbd 5889 0e3d
00000170: 1cbc 1bbd acd7 9f3d bee2 8c3d 5cde d8bd
00000180: d854 e5bd b686 adbd e88c 563d 9c88 c3bd
00000190: 5803 a73c c863 833c b021 46bd 9c1d 43bd
000001a0: d480 2e3d 3c23 dabd fab9 9dbd 4c57 16bd
000001b0: a0f3 ce3c 3c0a 7ebd 7c84 733d 5018 913d
000001c0: 84a0 68bd 2069 8c3d ac33 20bd 40b7 c5bd
000001d0: 5047 5a3d 1852 d0bd 3250 a63d 8476 8e3d
000001e0: 16d0 9d3d 1663 fc3d 24f3 933d 2a2a 8d3d
000001f0: e488 f83d 7845 a6bd 0043 45bb 8e14 cabd
00000200: 3683 e2bd a082 c0bc f639 f9bd 804a f2bb
00000210: fc8f 083d 40f9 99bc 9886 ee3d 9850 b63d
00000220: 022e cd3d a40a ef3d ae86 e03d 58b9 aa3c
00000230: d088 ddbc 8013 3e3c f8ae f3bd 2006 49bc
00000240: 1ee9 9cbd 4857 b53c 3a88 e8bd b456 02bd
00000250: e4dd b1bd 3606 c5bd ce19 d4bd 30e1 6bbd
00000260: ae42 dbbd 207d ea3b a6db e9bd ec95 973d
00000270: 485e a1bc b023 8fbd 0ae6 8e3d 864c 94bd
00000280: 367a 80bd e2c8 b73d ac03 01bd 887e 873c
00000290: de13 b43d d05e 553d 5abe c0bd 5e6e bfbd
000002a0: 5e4b 9e3d 2070 af3c 487d cc3c 88bc 77bd
000002b0: 8404 08bd 7e2e cfbd 84aa 98bd bc21 b43d
000002c0: dc84 1abd 1ca1 553d e035 c73b bc33 ecbd
000002d0: 3491 843d f029 60bc 280b 983c 88ba b83c
000002e0: 5e3d f83d 16b7 8fbd 8823 fbbc 38ef e23d
000002f0: 6675 813d b0bd 94bd 2883 05bd c42a 0c3d
00000300: 32eb 883d 14df 8cbd f88f 893d 3845 50bd
00000310: 202e 223d 2407 053d 3863 9e3c 8035 f93a
00000320: 1c5e 053d 50da babd 805e b5ba 0c58 2b3d
00000330: 00cc 18b9 7843 d3bc ea62 f4bd 8880 e33d
00000340: 9825 503d b465 833d 9878 df3d d0d0 9b3c
00000350: 925d d2bd 544b 73bd 8e49 a1bd 9043 3ebd
00000360: ccf6 f0bd a8e7 943d f453 03bd ec53 6e3d
00000370: 2052 4e3d 2837 80bc 9082 8d3c 1e4e de3d
00000380: a2c9 883d 8cab 30bd a083 763d 80a1 cbbb
00000390: f8d1 683d 90a2 aebd 3069 8cbd e60e abbd
000003a0: c0ac 433c 00db 42ba f686 9f3d f295 93bd
000003b0: a6e7 8ebd 3aa4 a2bd 3a19 8d3d 0c71 d9bd
000003c0: 20fa 6c3c 68d1 ed3c e6fd c5bd a0a1 b4bc
000003d0: 72d7 b3bd e88e f23d d0f3 7abd 1869 593d
000003e0: 08de a03c 0006 b83a 50b2 2bbc f4e0 a1bd
000003f0: 2e2c 873d c454 a93d 9010 4d3c d8ea 9b3d

attention.out_proj.bias f4 [64]
0.0 0.0 0.0 0.0 0.0 0.0 0.0 0.0
0.0 0.0 0.0 0.0 0.0 0.0 0.0 0.0
0.0 0.0 0.0 0.0 0.0 0.0 0.0 0.0
0.0 0.0 0.0 0.0 0.0 0.0 0.0 0.0
0.0 0.0 0.0 0.0 0.0 0.0 0.0 0.0
0.0 0.0 0.0 0.0 0.0 0.0 0.0 0.0
0.0 0.0 0.0 0.0 0.0 0.0 0.0 0.0
0.0 0.0 0.0 0.0 0.0 0.0 0.0 0.0
00000000: 0000 0000 0000 0000 0000 0000 0000 0000
00000010: 0000 0000 0000 0000 0000 0000 0000 0000
00000020: 0000 0000 0000 0000 0000 0000 0000 0000
00000030: 0000 0000 0000 0000 0000 0000 0000 0000
00000040: 0000 0000 0000 0000 0000 0000 0000 0000
00000050: 0000 0000 0000 0000 0000 0000 0000 0000
00000060: 0000 0000 0000 0000 0000 0000 0000 0000
00000070: 0000 0000 0000 0000 0000 0000 0000 0000
00000080: 0000 0000 0000 0000 0000 0000 0000 0000
00000090: 0000 0000 0000 0000 0000 0000 0000 0000
000000a0: 0000 0000 0000 0000 0000 0000 0000 0000
000000b0: 0000 0000 0000 0000 0000 0000 0000 0000
000000c0: 0000 0000 0000 0000 0000 0000 0000 0000
000000d0: 0000 0000 0000 0000 0000 0000 0000 0000
000000e0: 0000 0000 0000 0000 0000 0000 0000 0000
000000f0: 0000 0000 0000 0000 0000 0000 0000 0000

convs.0.convs.<core___to___core>.nn.lins.0.weight f4 [64, 64]
-0.027662769 -0.022448301 0.09437765 -0.06786603 0.038719952 -0.05393845 -0.07968943 -0.040430784
0.0043724626 0.07789551 0.0028639883 0.041321352 -0.081177205 0.018632159 0.018637896 -0.07067789
0.044811442 0.029653758 0.112487406 0.017811075 -0.11389825 0.11927876 -0.03639628 -0.053907797
0.05186844 0.093829334 -0.087600246 0.107720345 0.08735545 0.08510436 -0.011543214 0.11719607
0.026218906 -0.012374327 0.11829381 0.09089099 -0.017144725 0.0631201 0.09030667 0.02815944
0.014028296 -0.00949949 -0.0007162243 -0.085093096 -0.11466348 -0.0053887516 0.033924878 0.06674777
-0.026287526 0.10558896 0.06324579 0.08654733 0.058295846 0.05188918 -0.08025034 -0.091819376
-0.0057308674 0.033290863 -0.019598648 -0.05094658 -0.076443344 0.117784694 0.078197956 -0.06801425
0.036285877 0.09558515 -0.039537176 -0.055279955 -0.09529899 0.093547344 0.04060501 -0.07529329
0.019147664 0.09709768 -0.10441509 0.07974273 0.123779446 0.03805773 0.109538734 -0.09771316
-0.030671716 -0.07998285 0.03862378 0.017953113 0.123946086 -0.062480375 0.017561615 -0.12247831
-0.02419363 0.084363624 0.017138839 -0.06300482 -0.019381553 0.018061742 0.011685163 -0.09606707
-0.017187238 0.087467134 0.08481328 0.09590055 0.08444348 -0.09987047 -0.12362851 0.123946324
0.025466755 0.112440124 -0.104295045 -0.030117676 0.06820659 -0.11639573 -0.021280393 -0.053030968
-0.018945307 -0.087907135 -0.070809186 0.084251195 -0.01704298 0.07392529 0.005934149 0.097042635
0.06568156 -0.10319477 0.05185081 0.01770851 0.03678 -0.0674617 -0.05252917 -0.10637954
-0.066668645 -0.09235223 0.040720433 0.124855295 0.036789954 0.01816535 -0.08070281 0.050724477
0.06414436 -0.11024201 -0.11792393 -0.037609324 -0.02843593 0.015661031 -0.11063953 -0.0010302216
-0.056263268 0.11492811 -0.0056114495 -0.0659796 0.043802425 0.054988682 -0.026376009 0.11744739
-0.078250915 0.04616633 -0.06657997 0.043214962 0.09628175 -0.035913587 0.099072084 -0.027863413
0.030799076 -0.042664275 0.10823682 -0.08840485 0.024008691 -0.09192051 -0.090410724 -0.00667274
0.058120966 -0.019542783 0.023478895 0.06427713 -0.08223775 -0.066273674 -0.02747719 0.059792563
-0.11501932 0.03252922 0.015822113 0.09325862 0.110585496 0.117199436 0.08163369 -0.08118971
-0.0076141953 -0.010473311 0.11104731 0.0054305196 -0.0035978854 -0.048656046 -0.0002425909 0.09241369
0.07720159 0.042798206 0.072451875 -0.051600516 0.024764344 0.11764133 -0.09677008 0.088964924
0.06616199 0.0878441 0.04732442 0.007477388 -0.09225428 -0.05067788 0.05749722 -0.06347889
-0.01954697 0.01952584 0.027431548 0.12118822 0.109757915 -0.077235416 0.040983975 -0.07184079
0.017244577 0.01908122 -0.097776696 0.087328166 -0.0013361275 0.0060346723 -0.06276859 -0.04911098
-0.06430225 0.124342024 -0.07384479 -0.035131395 0.08899887 0.0401434 -0.06503859 -0.052205652
-0.080666676 0.02267234 -0.07696812 0.037017643 -0.10733937 -0.0002642125 0.019714475 0.11764957
-0.0533555 -0.011603117 0.11751717 0.037387475 -0.061161473 -0.108205006 0.102430135 0.05713147
0.120761365 0.04661584 0.108967766 0.019010782 0.11100346 0.10467769 0.0649336 -0.02748318
00000000: 089d e2bc 80e5 b7bc 1249 c13d 58fd 8abd
00000010: d098 1e3d 90ee 5cbd 3634 a3bd c09a 25bd
00000020: e046 8f3b ae87 9f3d c0b1 3b3b 9440 293d
00000030: 3c40 a6bd 78a2 983c 80ae 983c 92bf 90bd
00000040: 348c 373d 70ec f23c cc5f e63d 88e8 913c
00000050: 7c43 e9bd 6c48 f43d 4414 15bd 6cce 5cbd
00000060: 0074 543d 9829 c03d c267 b3bd 7c9c dc3d
00000070: 6ae7 b23d 324b ae3d c01f 3dbc 7e04 f03d
00000080: 08c9 d63c b0bd 4abc 0644 f23d 0e25 ba3d
00000090: 1873 8cbc 1c45 813d b4f2 b83d a0ae e63c
000000a0: f0d6 653c c0a3 1bbc 00c1 3bba 4a45 aebd
000000b0: b0d4 eabd 2094 b0bb d0f4 0a3d 0eb3 883d
000000c0: f058 d7bc 063f d83d 0287 813d ba3f b13d
000000d0: a0c7 6e3d c089 543d 4a5a a4bd cc0b bcbd
000000e0: 00ca bbbb 005c 083d 588d a0bc 5cad 50bd
000000f0: 548e 9cbd 1a39 f13d 4026 a03d 0e4b 8bbd
00000100: 80a0 143d 26c2 c33d bcf1 21bd 3c6d 62bd
00000110: 1e2c c3bd c095 bf3d 7051 263d 5e33 9abd
00000120: 90db 9c3c 26db c63d 94d7 d5bd 2850 a33d
00000130: 1480 fd3d 6ce2 1b3d d855 e03d d61d c8bd
00000140: 4043 fbbc 0cce a3bd f833 1e3d 6812 933c
00000150: 72d7 fd3d 6ceb 7fbd 60dd 8f3c e8d5 fabd
00000160: b831 c6bc d6c6 ac3d c066 8c3c ac08 81bd
00000170: 10c6 9ebc 38f6 933c 2073 3f3c d0be c4bd
00000180: 40cc 8cbc f821 b33d 96b2 ad3d 8267 c43d
00000190: b4f0 ac3d e488 ccbd f230 fdbd 92d7 fd3d
000001a0: a89f d03c 0247 e63d a498 d5bd 58b9 f6bc
000001b0: e6af 8b3d e260 eebd 3854 aebc 0037 59bd
000001c0: 3033 9bbc a808 b4bd 6804 91bd e48b ac3d
000001d0: b89d 8bbc 2466 973d 4073 c23b 4abe c63d
000001e0: 0e84 863d c857 d3bd 8461 543d 7011 913c
000001f0: a0a6 163d 5c29 8abd d428 57bd 84dd d9bd
00000200: 9289 88bd 2a23 bdbd 78ca 263d 22b4 ff3d
00000210: 10b1 163d 80cf 943c 8447 a5bd 78c4 4f3d
00000220: 1e5e 833d 90c6 e1bd 1a82 f1bd 3c0c 1abd
00000230: 78f2 e8bc 904b 803c fa96 e2bd 8008 87ba
00000240: 5074 66bd 6e5f eb3d 40e0 b7bb 5020 87bd
00000250: 2c6a 333d d03b 613d 8012 d8bc 4288 f03d
00000260: 0442 a0bd e818 3d3d 145b 88bd 2c02 313d
00000270: 5e2f c53d 201a 13bd 4ee6 ca3d d041 e4bc
00000280: 584e fc3c bcc0 2ebd 44ab dd3d 9a0d b5bd
00000290: e0ad c43c d240 bcbd 4229 b9bd 00a7 dabb
000002a0: 4010 6e3d 3018 a0bc d056 c03c baa3 833d
000002b0: 446c a8bd 7eba 87bd d817 e1bc 0ce9 743d
000002c0: 408f ebbd 5c3d 053d 609d 813c 60fe be3d
000002d0: a67a e23d 4206 f03d 902f a73d ca46 a6bd
000002e0: 8080 f9bb 4098 2bbc c66c e33d 80f2 b13b
000002f0: 80ca 6bbb 904b 47bd 0060 7eb9 6443 bd3d
00000300: de1b 9e3d 2c4d 2f3d a661 943d 105b 53bd
00000310: 98de ca3c f0ed f03d 642f c6bd 3e33 b63d
00000320: f07f 873d 9ce7 b33d 40d7 413d e004 f53b
00000330: d0ef bcbd 9c93 4fbd 3482 6b3d 3801 82bd
00000340: f820 a0bc a8f4 9f3c 20b8 e03c 8831 f83d
00000350: c2c8 e03d 9a2d 9ebd d0de 273d 4421 93bd
00000360: 8044 8d3c 3850 9c3c 263f c8bd 1cd9 b23d
00000370: 0021 afba 80be c53b d28c 80bd 9828 49bd
00000380: e6b0 83bd 08a7 fe3d f03b 97bd f0e5 0fbd
00000390: 0a45 b63d 686d 243d f432 85bd 98d5 55bd
000003a0: 9234 a5bd 58bb b93c 76a1 9dbd d09f 173d
000003b0: bed4 dbbd 0086 8ab9 4080 a13c 42f2 f03d
000003c0: 4c8b 5abd 001b 3ebc d8ac f03d 9c23 193d
000003d0: 7484 7abd 969a ddbd e4c6 d13d b002 6a3d
000003e0: bc51 f73d 40f0 3e3d 7e2a df3d 80bc 9b3c
000003f0: c855 e33d 4261 d63d e8fb 843d 6824 e1bc

convs.0.convs.<core___to___core>.nn.lins.0.bias f4 [64]
0.039936557 0.107585505 0.0013412237 0.03724712 -0.026584774 0.08084379 0.12339336 -0.022610605
0.12168926 0.109873116 -0.10627499 -0.034905016 -0.12141177 -0.008873954 -0.12319121 0.10281587
-0.030089974 0.0013975948 0.00807099 0.0013715625 0.1118854 0.121628314 0.050901875 0.11820711
0.041666597 0.051720247 -0.08802104 0.019363865 -0.0798614 -0.017431974 -0.0705547 -0.07760112
-0.07447472 -0.04755199 0.07920802 -0.10823658 0.028132752 -0.11117479 -0.08959335 0.12474711
-0.11240721 -0.022423789 0.12328118 -0.018498138 0.0717839 -0.11913809 -0.01842007 -0.04488969
-0.12343581 -0.09029108 0.11709139 0.018295944 0.12118554 0.082683966 -0.0140257925 -0.017675325
0.050786287 0.117709205 -0.051617295 -0.05729924 0.036211118 0.10066824 -0.113676205 0.11895545
00000000: 8494 233d ca55 dc3d 00cc af3a 7090 183d
00000010: 50c8 d9bc 6e91 a53d a8b5 fc3d e039 b9bc
00000020: 3838 f93d 2805 e13d b4a6 d9bd 90f8 0ebd
00000030: bca6 f8bd 1064 11bc ac4b fcbd 2091 d23d
00000040: 407f f6bc 802f b73a 303c 043c 00c6 b33a
00000050: 2c24 e53d 4418 f93d 7c7e 503d 9216 f23d
00000060: 98aa 2a3d 9cd8 533d 6044 b4bd f8a0 9e3c
00000070: 608e a3bd 80cd 8ebc fc7e 90bd 56ed 9ebd
00000080: 3486 98bd e0c5 42bd d037 a23d 24ab ddbd
00000090: a876 e63c 9caf e3bd b87c b7bd 6a7b ff3d
000000a0: c035 e6bd 18b2 b7bc d87a fc3d 6889 97bc
000000b0: 7003 933d acfe f3bd b0e5 96bc 40de 37bd
000000c0: eacb fcbd 88ea b8bd 9ccd ef3d 60e1 953c
000000d0: 2030 f83d 3656 a93d 70cc 65bc d8cb 90bc
000000e0: 4805 503d 8611 f13d a86c 53bd 9cb2 6abd
000000f0: 1c52 143d 262b ce3d 12cf e8bd ea9e f33d

convs.0.convs.<core___to___core>.nn.lins.1.weight f4 [64, 64]
-0.056603253 0.03746867 0.120328575 0.08956778 -0.027103946 -0.04681097 0.013773039 0.09634547
-0.09902477 0.09045486 -0.09454459 -0.035216406 -0.024381861 -0.096679896 -0.067256704 -0.06545468
0.05132486 -0.10067354 0.09711306 0.027997226 0.064339176 0.032990888 -0.045175493 0.11098747
-0.02072066 0.008239999 0.055252373 -0.026092052 0.1026102 0.041658327 -0.076787636 -0.08230148
-0.03234887 0.023187429 0.004383594 0.009685293 0.08307187 -0.09819101 -0.017079055 0.071746185
0.019002378 -0.05071515 0.053547114 0.0707362 0.018892348 -0.12293206 -0.09287819 -0.034972906
-0.07494183 -0.05886832 -0.05550398 0.043829367 0.11287795 0.030770645 -0.008324102 -0.027273342
-0.12483053 0.10686746 -0.02066201 0.07306282 -0.08483432 -0.0711934 -0.027027592 -0.1051902
-0.039439246 -0.12473068 -0.0029380172 0.12305528 0.10103457 0.0043153167 0.10717678 -0.00937514
0.04718338 -0.055917352 0.006090477 0.041210487 -0.07126957 0.091182575 0.02819091 0.031698525
-0.019566134 -0.015468895 -0.072665066 0.09477745 -0.017628476 0.0037888885 0.11305164 0.1022429
0.08685799 0.10996997 0.0051166713 -0.00077210367 0.080678165 -0.12353408 0.10237427 0.05654791
-0.0977018 -0.023418114 -0.021656394 -0.107237354 -0.05320494 -0.072479025 -0.043757617 -0.022315964
0.0976294 -0.017665178 -0.1147687 0.091396526 0.004646465 -0.01733309 0.09982492 0.101769865
0.09846012 -0.04599361 -0.010380924 0.095589 -0.05202341 -0.015147343 -0.014582008 -0.115096316
-0.07145873 -0.108260915 -0.040999427 0.09784174 0.024748728 -0.12388772 -0.11294724 0.011307225
0.1191317 0.0081413835 0.05464451 -0.09158231 0.0112427175 0.08194719 0.10377169 0.1024847
-0.034525782 -0.095169455 0.015602037 0.11046718 -0.08153404 -0.10557023 -0.09702647 -0.10046014
-0.059193254 -0.10458583 -0.10255675 -0.08469686 -0.10851297 -0.052928522 0.041931957 0.06331189
0.009962112 0.051491573 -0.10195775 0.11565408 0.0049835593 0.016927555 0.006403044 -0.05831404
0.07202475 0.021257788 -0.061863467 0.10613948 0.0660837 0.09690897 -0.12166913 -0.06941602
0.03851159 0.1045021 -0.0068026185 0.0036346316 -0.0647247 0.05227548 -0.0038206726 0.040800795
0.047749534 -0.0033656359 -0.028340891 -0.070859954 -0.0895834 -0.023430198 -0.10218856 -0.048933312
-0.009738237 0.09332131 -0.07772836 0.115143865 0.0329708 0.11281262 0.09647094 0.027867913
-0.03773214 0.053064197 0.027149916 -0.0977471 0.11668716 -0.010211274 -0.03587766 0.007903084
-0.0232393 -0.06862749 0.12188704 -0.12373729 0.004884988 -0.0050385743 0.038862824 -0.107657686
0.07962555 -0.022662163 0.0918653 0.12394634 0.072245255 0.113946155 0.10978034 -0.047952786
0.08908476 -0.013984904 0.08502166 -0.05503893 -0.0138787925 0.10191041 0.040683612 -0.102167696
0.03427814 0.07197477 0.010447621 -0.12481502 0.06964967 0.05978173 0.0023578405 0.028458923
-0.005600959 0.04240863 -0.059307024 0.03580585 0.06668037 -0.11361523 0.06024967 -0.04017973
0.09364894 -0.10262814 0.00892894 -0.019071892 -0.09905666 -0.12472679 0.106789455 0.10122855
-0.026784688 -0.09678273 -0.0545011 -0.08468844 0.010651201 0.019227535 -0.056464836 0.077239305
00000000: d0d8 67bd c078 193d d46e f63d 506f b73d
00000010: 1809 debc dcbc 3fbd 50a8 613c c650 c53d
00000020: 80cd cabd 6640 b93d 98a0 c1bd 143f 10bd
00000030: 78bc c7bc 1c00 c6bd e2bd 89bd 1a0d 86bd
00000040: 043a 523d ee2d cebd 36e3 c63d 705a e53c
00000050: 42c4 833d 7421 073d f009 39bd 664d e33d
00000060: 60be a9bc 1001 073c 5050 623d 00bf d5bc
00000070: 4c25 d23d eca1 2a3d d642 9dbd ae8d a8bd
00000080: 4080 04bd 90f3 bd3c 40a4 8f3b 10af 1e3c
00000090: 9621 aa3d 5e18 c9bd 60e9 8bbc aaef 923d
000000a0: e0aa 9b3c b0ba 4fbd 3854 5b3d 24de 903d
000000b0: 20c4 9a3c cec3 fbbd ec36 bebd c03f 0fbd
000000c0: 1a7b 99bd e81f 71bd 2458 63bd 6c86 333d
000000d0: 8e2c e73d b812 fc3c d061 08bc 586c dfbc
000000e0: 26a7 ffbd 54dd da3d 6043 a9bc f6a1 953d
000000f0: 9ebd adbd d8cd 91bd f868 ddbc f66d d7bd
00000100: 0c8b 21bd cc72 ffbd c08b 40bb 6804 fc3d
00000110: 36eb ce3d 8067 8d3b 807f db3d 309a 19bc
00000120: 5c43 413d 9809 65bd a092 c73b 54cc 283d
00000130: c8f5 91bd eebd ba3d a0f0 e63c 50d6 013d
00000140: 2849 a0bc 4071 7dbc 6cd1 94bd ae1a c23d
00000150: 9869 90bc 004f 783b 9e87 e73d ba64 d13d
00000160: 9ae2 b13d f037 e13d c0a9 a73b 0067 4aba
00000170: 983a a53d 70ff fcbd 9aa9 d13d c89e 673d
00000180: e217 c8bd 58d7 bfbc c068 b1bc 429f dbbd
00000190: 6ced 59bd e26f 94bd 303b 33bd f8cf b6bc
000001a0: ecf1 c73d 90b6 90bc da0b ebbd 1a2e bb3d
000001b0: 6041 983b 20fe 8dbc 0271 cc3d b86c d03d
000001c0: 76a5 c93d cc63 3cbd c014 2abc 2ac4 c33d
000001d0: 8016 55bd 902c 78bc 60e9 6ebc 9eb7 ebbd
000001e0: f458 92bd e6b7 ddbd 04ef 27bd 4061 c83d
000001f0: d8bd ca3c d8b8 fdbd e250 e7bd f041 393c
00000200: 52fb f33d 7063 053c ecd2 5f3d 828f bbbd
00000210: 6033 383c eed3 a73d 4086 d43d 80e3 d13d
00000220: e86a 0dbd 34e8 c2bd b09f 7f3c 9e3c e23d
00000230: 52fb a6bd 3435 d8bd d0b5 c6bd 0cbe cdbd
00000240: a074 72bd 1831 d6bd 4609 d2bd 8c75 adbd
00000250: 0c3c debd 94cb 58bd d8c0 2b3d aaa9 813d
00000260: 2038 233c d4e8 523d 3acf d0bd 0cdc ec3d
00000270: 204d a33b a8ab 8a3c a0d0 d13b b4da 6ebd
00000280: b681 933d d024 ae3c 8c64 7dbd a85f d93d
00000290: e456 873d 3678 c63d aa2d f9bd fc29 8ebd
000002a0: 54be 1d3d 3205 d63d 80e8 debb 0033 6e3b
000002b0: 628e 84bd d01e 563d 4064 7abb bc1e 273d
000002c0: 0495 433d 0092 5cbb 282b e8bc 061f 91bd
000002d0: 8077 b7bd b0f0 bfbc 3c48 d1bd 4c6e 48bd
000002e0: 208d 1fbc 3e1f bf3d 0c30 9fbd 8cd0 eb3d
000002f0: 640c 073d 4e0a e73d 8e92 c53d 404b e43c
00000300: 048d 1abd d859 593d 8069 de3c a22f c8bd
00000310: aef9 ee3d 304d 27bc 74f4 12bd f07b 013c
00000320: 5860 bebc 928c 8cbd ea9f f93d fa69 fdbd
00000330: 4012 a03b a01a a5bb a02e 1f3d a27b dcbd
00000340: b812 a33d 00a6 b9bc e023 bc3d 94d7 fd3d
00000350: 52f5 933d 9a5c e93d 84d4 e03d 246a 44bd
00000360: 1272 b63d f020 65bc d61f ae3d 8070 61bd
00000370: e063 63bc 68b6 d03d dca3 263d 4c3d d1bd
00000380: 3c67 0c3d 8267 933d 802c 2b3c 049f ffbd
00000390: 7ca4 8e3d b0dd 743d 0086 1a3b b022 e93c
000003a0: 4088 b7bb acb4 2d3d eceb 72bd 28a9 123d
000003b0: b88f 883d 1aaf e8bd 5cc8 763d 8093 24bd
000003c0: 04cb bf3d b42e d2bd b04a 123c a83c 9cbc
000003d0: 38de cabd c270 ffbd 6eb4 da3d ea50 cf3d
000003e0: 906b dbbc 0636 c6bd 8c3c 5fbd 2271 adbd
000003f0: 6082 2e3c 1083 9d3c ac47 67bd a42f 9e3d
