data/processed/model_20250729_222100/best_alarm_transformer.pth (torch, 497881 bytes, 29 tensors)

input_proj.weight f4 [64, 834]
0	0x3d79eca1	0.061016683
1	0x3dc1d695	0.094647564
2	0xbcea1498	-0.028574273
3	0x3c96ae61	0.018393697
4	0x3d511009	0.051040683
5	0x3c09c8c4	0.008409683
6	0x3d29b8ea	0.041436113
7	0x3df53d19	0.11974544
8	0xbda45c64	-0.080254346
9	0xbcb91419	-0.022592591
10	0x3bc892ba	0.006121007
11	0xbcfa00c6	-0.030517947
12	0xbd805d9c	-0.062678546
13	0x3c9b4b0b	0.018956682
14	0x3d5f7a64	0.05456008
15	0x3de04062	0.1094978
16	0xbd3f4920	-0.046700597
17	0xbe0cb303	-0.13740163
18	0x3e0ff741	0.14059164
19	0xbcb94cff	-0.022619722
20	0x3cdab97e	0.026699778
21	0xbda367bb	-0.079787694
22	0x3c98a184	0.018631704
23	0x3d6ab41f	0.057300683
24	0x3db1fca7	0.08690768
25	0x3db96bb7	0.09053748
26	0x3ca54f27	0.020179344
27	0x3c53e4ef	0.012933
28	0x3cdab6cd	0.026698494
29	0xbd9fecc6	-0.07808833
30	0x3d123fac	0.035705253
31	0xbc357a7a	-0.011076564
32	0xbd1bb6f8	-0.03801629
33	0x3df6ec24	0.12056759
34	0xbc73693f	-0.014856636
35	0xbd3dd8aa	-0.046349205
36	0x3be3be42	0.0069501707
37	0x3dc9b943	0.09849789
38	0x3c10d751	0.008840398
39	0xbd2b6fd3	-0.04185469
40	0x3c263120	0.010143548
41	0xbd2828f3	-0.041054677
42	0x3e0bb009	0.13641371
43	0xbc0fe49c	-0.008782532
44	0xbc1226e5	-0.008920406
45	0x3c371395	0.011174102
46	0x3d0db040	0.034591913
47	0xbce91388	-0.028451696
48	0xbd3f03b6	-0.0466344
49	0xbde74ea1	-0.11294294
50	0xbd4c0a83	-0.049814712
51	0xbcb34b7e	-0.021886583
52	0xbcf5093d	-0.029911632
53	0xbe4c3acb	-0.19944303
54	0xbcbd6a60	-0.023122013
55	0xbe07bc33	-0.13255386
56	0x3df2643e	0.11835526
57	0xbc020b7e	-0.00793731
58	0xbc3addee	-0.011405451
59	0x3d1d266a	0.038366713
60	0xbdec6d4f	-0.115442865
61	0x3d052e51	0.032514874
62	0xbc70a1d8	-0.014687024
63	0xbe11d067	-0.14239655
64	0x3df9083a	0.12159772
65	0x3dd22bbd	0.10262249
66	0x3e11f528	0.14253676
67	0xbdec0457	-0.11524265
68	0xbcf70b0d	-0.030156637
69	0x3c35f1f5	0.01110505
70	0x3d92acd6	0.07161872
71	0x3c27b876	0.01023685
72	0x3c644fbd	0.013935027
73	0xbb259ca0	-0.0025270358
74	0x3d5fd6be	0.054648153
75	0xbcc288b8	-0.023746833
76	0xbd2f9b69	-0.04287282
77	0x3d14807b	0.03625534
78	0xbccee26a	-0.025254447
79	0xbcbdf92c	-0.023190103
80	0x3bd4c0aa	0.006492694
81	0xbd36a68d	-0.04459243
82	0xbd1cb0ce	-0.03825455
83	0xbe02b901	-0.12765886
84	0x3d459932	0.0482418
85	0xbe1abe65	-0.15111692
86	0xbcb7b32d	-0.022424305
87	0xbd9c8bae	-0.07643829
88	0x3d17ec35	0.0370905
89	0x3cb8d621	0.022563042
90	0x3ddc7a27	0.10765486
91	0x3cb5a9f1	0.022175761
92	0xbc83b54b	-0.016077658
93	0x3e0abd77	0.13548838
94	0xbd284676	-0.04108282
95	0xbd63074a	-0.055426873
96	0xbdeb36e3	-0.11485078
97	0xbdf65e27	-0.12029677
98	0xbc0ed8c9	-0.008718678
99	0x3bfa6eb0	0.0076425895
100	0x3e193ec1	0.14965345
101	0xbdb1053f	-0.08643579
102	0xbc801704	-0.015635975
103	0xbce766c5	-0.028247247
104	0xbe196e83	-0.14983563
105	0xbccb6fe4	-0.024833627
106	0x3d2361b8	0.039888114
107	0x3cbc332d	0.022973621
108	0x3df02729	0.11726219
109	0xbc0ea792	-0.008706944
110	0x3d6c2a2c	0.057657406
111	0x3d307628	0.043081433
112	0xbba9284f	-0.005162276
113	0x3dbb18a7	0.091355614
114	0xbd922e95	-0.07137791
115	0xbd031f88	-0.032012492
116	0x3c3ae167	0.011406279
117	0x3dc34765	0.09535102
118	0xbe00fa71	-0.12595536
119	0xbd2ec7ee	-0.042671137
120	0x3e0e2c19	0.1388401
121	0x3cb2dfce	0.021835234
122	0xbb3245e2	-0.0027202298
123	0xbdf48e4a	-0.11941202
124	0xbdd653ba	-0.10465188
125	0x3d0e3b13	0.034724306
126	0x3d9c83f1	0.07642353
127	0x3d39728b	0.045275252
128	0xbd122251	-0.035677258
129	0xbd7f8c62	-0.06238974
130	0x3db1d8c5	0.08683924
131	0x3c565f39	0.013084226
132	0xbe67aa47	-0.2262355
133	0xbc064827	-0.008195913
134	0xbd0b7541	-0.03404737
135	0x3cae34ff	0.021265505
136	0x3b70413c	0.0036659976
137	0x3b927b58	0.00447027
138	0x3c031896	0.008001467
139	0x3c404e1b	0.011737372
140	0xbdb4f210	-0.08835232
141	0x3d1cfd91	0.038327757
142	0x3ba13f14	0.0049208496
143	0xbd24d2f2	-0.040240236
144	0xbc82d96c	-0.015972815
145	0xbcaec3b4	-0.021333553
146	0x3df26815	0.11836258
147	0xba94a8f5	-0.0011341857
148	0xbc4d9503	-0.012547734
149	0xbde09ffa	-0.10968013
150	0x3c81ee86	0.015860807
151	0xbd1f9aed	-0.038966108
152	0x3c0018a3	0.007818374
153	0xbe0e7b3a	-0.13914195
154	0x3e635afb	0.22202675
155	0x3cc8f742	0.024531964
156	0x3c8baea9	0.017051058
157	0xbe00846d	-0.12550516
158	0x3d0d8317	0.034548845
159	0x3bab7da6	0.0052334843
160	0x3c2a3645	0.010388915
161	0xbc174357	-0.009232364
162	0xbd4fadc0	-0.05070281
163	0x3dd246df	0.10267424
164	0xbdbd5d50	-0.092463136
165	0xbd10abd9	-0.035320137
166	0xbd9f3d97	-0.07775419
167	0xbd361d90	-0.044461787
168	0x3de8bc20	0.11364007
169	0xbcce0f3f	-0.025153754
170	0xbcb514f6	-0.022104722
171	0x3b663d90	0.003513191
172	0xbd07e19b	-0.03317414
173	0xbd98647d	-0.074410416
174	0xbd905cbb	-0.07048937
175	0x3bc28b75	0.0059370347
176	0x3d638356	0.055545174
177	0xbd7f1158	-0.0622724
178	0x3c02305b	0.007946099
179	0xbd2422c4	-0.040072218
180	0x3d35429b	0.044252973
181	0x3d731596	0.059346758
182	0x3d82f136	0.063936636
183	0x3dea9d4d	0.11455784
184	0xbcf31a45	-0.029675612
185	0xbdffae9a	-0.124844745
186	0x3e17b279	0.14814176
187	0x3d56b0b2	0.052414604
188	0x3c325f9a	0.010887051
189	0x3cee664e	0.029101517
190	0x3cab057f	0.020876644
191	0xbc92751e	-0.017878111
192	0xbda324dc	-0.07966015
193	0x3d824a1d	0.06361792
194	0xbb84494d	-0.0040370584
195	0x3c520d60	0.012820572
196	0x3e0aac04	0.13542181
197	0xbde6778d	-0.11253271
198	0xbd234e5a	-0.039869644
199	0x3cc1f55f	0.023676572
200	0x3d49852f	0.04919928
201	0x3c52f936	0.012876799
202	0xbbd436f6	-0.0064762784
203	0xbd06a375	-0.03287073
204	0x3bc43362	0.0059875706
205	0xbbfeb727	-0.0077732983
206	0xbd005ee1	-0.031340484
207	0x3d2742a5	0.04083504
208	0x3e050e79	0.12993802
209	0xbc419f88	-0.01181782
210	0xbcb4860f	-0.02203658
211	0x3dc52467	0.09626084
212	0x3cd3a74f	0.025836615
213	0x3c8b8289	0.017030017
214	0xbe59d4ee	-0.21272632
215	0xbe638e32	-0.22222212
216	0xbc844554	-0.01614634
217	0x3cf2fc10	0.029661208
218	0xbdd972db	-0.1061761
219	0xbc5e017f	-0.013550161
220	0xbcf61341	-0.030038478
221	0xbc7c3931	-0.015394495
222	0x3e5e1f3c	0.21691602
223	0x3d34ef04	0.044173256
224	0xbc72b6c2	-0.014814081
225	0xbc14bc79	-0.0090781385
226	0x3cc31c63	0.023817247
227	0x3e0b1082	0.13580516
228	0x3d851699	0.06498451
229	0x3d12ce3f	0.035841223
230	0xbd0d37e0	-0.034477115
231	0x3cc37bee	0.023862805
232	0x3dcce216	0.1000406
233	0x3d8bbfbf	0.06823682
234	0x3d046a2c	0.032327816
235	0xbd2bf45d	-0.04198109
236	0x3de4868f	0.111584775
237	0x3c140a7c	0.009035703
238	0x3d83c5a2	0.0643418
239	0xbd10f9eb	-0.03539459
240	0xbd18b1d2	-0.037278958
241	0x3d98de63	0.07464292
242	0x3a0f2c23	0.0005461594
243	0xbbd02dd5	-0.00635312
244	0x3d57b9ba	0.052667357
245	0xbb45fbbb	-0.0030209858
246	0xbdba35b1	-0.09092272
247	0xbd30c043	-0.043152105
248	0xbdd53c4e	-0.10411893
249	0xbd955ee2	-0.07293488
250	0x3d91b461	0.07114483
251	0xbd5a15ad	-0.053243328
252	0xbcd6dcac	-0.026228271
253	0x3d5b1b14	0.05349262
254	0xbc6c1df1	-0.014411435
255	0x3d20cca5	0.039257664

input_proj.bias f4 [64]
0	0x3d125078	0.035721272
1	0xbd1cbd07	-0.038266208
2	0xbc078d44	-0.008273426
3	0x3c962d0c	0.018332027
4	0x3c3b124b	0.011417936
5	0x3d0315dd	0.032003272
6	0x3c21f6c6	0.0098854955
7	0x3bcf4c42	0.0063262293
8	0xbc309aa1	-0.010779054
9	0xbdc4f805	-0.096176185
10	0x3c384376	0.011246553
11	0x3c0a0631	0.008424328
12	0xbcde94e4	-0.027170606
13	0x3d14ba5e	0.036310546
14	0xbcdd7875	-0.027034977
15	0xbb5fa1bf	-0.0034123508
16	0x3d08b0fa	0.033371903
17	0x3b877d8f	0.004134841
18	0x3cc850a2	0.024452511
19	0x3d171273	0.03688283
20	0x3d351585	0.044209976
21	0x3d32e8e0	0.04367912
22	0xbd3c363c	-0.04595016
23	0x3bcd16da	0.0062588276
24	0xbcc77fa1	-0.02435285
25	0x3c4bce61	0.012439341
26	0xbbde5a7c	-0.006785689
27	0xbda0722d	-0.07834277
28	0x3d2d7272	0.04234547
29	0x3cd5349f	0.026026068
30	0xbc9cf624	-0.019160338
31	0x3d3acf16	0.04560765
32	0xb9d324c8	-0.0004027246
33	0xbbc70a91	-0.0060742577
34	0x3ad9f0ba	0.0016627528
35	0xbd9ae78e	-0.07563697
36	0x3bff0da3	0.007783608
37	0xbc7688ee	-0.015047295
38	0xbc994054	-0.018707432
39	0x3c7284a4	0.014802132
40	0xbcbd6c62	-0.02312297
41	0xbcf51ac7	-0.029919995
42	0xbd7d73d9	-0.06187806
43	0x3c867b2c	0.016416155
44	0x3d879146	0.066195056
45	0xbc05474d	-0.008134675
46	0xbcbb973e	-0.022899266
47	0xbc0c4045	-0.008560245
48	0x3ba0ec3c	0.004910974
49	0x3c2c21be	0.010506092
50	0xbcd7e094	-0.026352204
51	0x3bb60396	0.0055546267
52	0xbc801577	-0.015635235
53	0x3c8ba0fd	0.017044539
54	0xba3b0f9e	-0.0007135811
55	0x3ce8f29d	0.028436
56	0xbd326c00	-0.043560028
57	0xbcebe185	-0.02879406
58	0x3ba50d25	0.0050369673
59	0x3cd7f1b5	0.026360372
60	0x3cff3d3c	0.031157129
61	0xbc729466	-0.014805889
62	0x3c5dc8ca	0.013536641
63	0x3d874228	0.06604415

pos_enc.pe f4 [1, 16, 64]
0	0x00000000	0.0
1	0x3f800000	1.0
2	0x00000000	0.0
3	0x3f800000	1.0
4	0x00000000	0.0
5	0x3f800000	1.0
6	0x00000000	0.0
7	0x3f800000	1.0
8	0x00000000	0.0
9	0x3f800000	1.0
10	0x00000000	0.0
11	0x3f800000	1.0
12	0x00000000	0.0
13	0x3f800000	1.0
14	0x00000000	0.0
15	0x3f800000	1.0
16	0x00000000	0.0
17	0x3f800000	1.0
18	0x00000000	0.0
19	0x3f800000	1.0
20	0x00000000	0.0
21	0x3f800000	1.0
22	0x00000000	0.0
23	0x3f800000	1.0
24	0x00000000	0.0
25	0x3f800000	1.0
26	0x00000000	0.0
27	0x3f800000	1.0
28	0x00000000	0.0
29	0x3f800000	1.0
30	0x00000000	0.0
31	0x3f800000	1.0
32	0x00000000	0.0
33	0x3f800000	1.0
34	0x00000000	0.0
35	0x3f800000	1.0
36	0x00000000	0.0
37	0x3f800000	1.0
38	0x00000000	0.0
39	0x3f800000	1.0
40	0x00000000	0.0
41	0x3f800000	1.0
42	0x00000000	0.0
43	0x3f800000	1.0
44	0x00000000	0.0
45	0x3f800000	1.0
46	0x00000000	0.0
47	0x3f800000	1.0
48	0x00000000	0.0
49	0x3f800000	1.0
50	0x00000000	0.0
51	0x3f800000	1.0
52	0x00000000	0.0
53	0x3f800000	1.0
54	0x00000000	0.0
55	0x3f800000	1.0
56	0x00000000	0.0
57	0x3f800000	1.0
58	0x00000000	0.0
59	0x3f800000	1.0
60	0x00000000	0.0
61	0x3f800000	1.0
62	0x00000000	0.0
63	0x3f800000	1.0
64	0x3f576aa4	0.84147096
65	0x3f0a5141	0.54030234
66	0x3f2e7ace	0.68156135
67	0x3f3b54b0	0.731761
68	0x3f087dba	0.53316844
69	0x3f58940d	0.8460091
70	0x3ed190f0	0.4093089
71	0x3f6992c7	0.9123959
72	0x3e9f393e	0.3109836
73	0x3f734e6b	0.9504153
74	0x3e708f25	0.23492105
75	0x3f78d5f1	0.9720145
76	0x3e35233a	0.17689219
77	0x3f7bf683	0.9842302
78	0x3e0825f3	0.13295726
79	0x3f7dba28	0.99112177
80	0x3dcc7576	0.099833414
81	0x3f7eb898	0.9950042
82	0x3d996f36	0.07491915
83	0x3f7f47d1	0.9971896
84	0x3d6636ae	0.05620449
85	0x3f7f9868	0.9984193
86	0x3d2cacfb	0.042157155
87	0x3f7fc5bd	0.999111
88	0x3d01815b	0.031617504
89	0x3f7fdf3c	0.99950004
90	0x3cc23ea5	0.023711512
91	0x3f7fed93	0.99971884
92	0x3c91ab42	0.017781857
93	0x3f7ff5a3	0.99984187
94	0x3c5a7a49	0.013334819
95	0x3f7ffa2c	0.99991107
96	0x3c23d657	0.009999833
97	0x3f7ffcb9	0.99995
98	0x3bf5b916	0.0074988706
99	0x3f7ffe28	0.99997187
100	0x3bb8445a	0.0056233825
101	0x3f7ffef7	0.9999842
102	0x3b8a2e5a	0.0042169513
103	0x3f7fff6b	0.9999911
104	0x3b4f3e1c	0.0031622713
105	0x3f7fffac	0.999995
106	0x3b1b6903	0.0023713715
107	0x3f7fffd1	0.9999972
108	0x3ae91520	0.0017782785
109	0x3f7fffe6	0.99999845
110	0x3aaec98b	0.0013335211
111	0x3f7ffff1	0.9999991
112	0x3a83126d	0.0009999998
113	0x3f7ffff8	0.9999995
114	0x3a449489	0.000749894
115	0x3f7ffffb	0.9999997
116	0x3a136a13	0.0005623411
117	0x3f7ffffd	0.9999998
118	0x39dd1721	0.00042169637
119	0x3f7fffff	0.99999994
120	0x39a5cb61	0.00031622782
121	0x3f7fffff	0.99999994
122	0x3978a80d	0.00023713727
123	0x3f800000	1.0
124	0x393a7753	0.00017782794
125	0x3f800000	1.0
126	0x390bd46d	0.00013335208
127	0x3f800000	1.0
128	0x3f68c7b7	0.9092974
129	0xbed51133	-0.41614684
130	0x3f7f5ad9	0.99748
131	0x3d914d53	0.070948265
132	0x3f66f20a	0.9021307
133	0x3edce8b2	0.43146282
134	0x3f3f3511	0.7469035
135	0x3f2a3903	0.6649324
136	0x3f17541b	0.5911271
137	0x3f4e7bec	0.8065784
138	0x3ee9d3b5	0.45669332
139	0x3f63be69	0.8896242
140	0x3eb247f6	0.34820527
141	0x3f6ffaa6	0.93741834
142	0x3e86f082	0.26355368
143	0x3f76f2f5	0.96464473
144	0x3e4b6ff8	0.19866931
145	0x3f7ae5a5	0.9800666
146	0x3e1900d3	0.1494172
147	0x3f7d204f	0.98877424
148	0x3de5d986	0.1122313
149	0x3f7e61f3	0.9936821
150	0x3dac85af	0.084239356
151	0x3f7f170e	0.99644554
152	0x3d8170c8	0.063203394
153	0x3f7f7cf9	0.9980007
154	0x3d4230aa	0.04740969
155	0x3f7fb64e	0.9988755
156	0x3d11a55c	0.03555809
157	0x3f7fd68e	0.9993676
158	0x3cda7550	0.026667267
159	0x3f7fe8b1	0.99964434
160	0x3ca3d43e	0.019998666
161	0x3f7ff2e5	0.9998
162	0x3c75b751	0.014997319
163	0x3f7ff8a1	0.9998875
164	0x3c38439b	0.011246587
165	0x3f7ffbdb	0.99993676
166	0x3c0a2e0a	0.008433828
167	0x3f7ffdab	0.9999644
168	0x3bcf3dd8	0.006324511
169	0x3f7ffeb1	0.99998003
170	0x3b9b68e7	0.00474273
171	0x3f7fff43	0.99998873
172	0x3b691508	0.0035565514
173	0x3f7fff96	0.9999937
174	0x3b2ec980	0.0026670396
175	0x3f7fffc4	0.9999964
176	0x3b031268	0.0019999985
177	0x3f7fffdf	0.99999803
178	0x3ac49485	0.0014997876
179	0x3f7fffed	0.99999887
180	0x3a936a12	0.0011246821
181	0x3f7ffff5	0.99999934
182	0x3a5d171f	0.0008433926
183	0x3f7ffffa	0.99999964
184	0x3a25cb60	0.0006324556
185	0x3f7ffffd	0.9999998
186	0x39f8a80c	0.0004742745
187	0x3f7ffffe	0.9999999
188	0x39ba7753	0.00035565588
189	0x3f7fffff	0.99999994
190	0x398bd46d	0.00026670416
191	0x3f800000	1.0
192	0x3e1081c3	0.14112
193	0xbf7d7026	-0.9899925
194	0x3f473cde	0.7782725
195	0xbf20bfce	-0.6279267
196	0x3f7e45d7	0.9932532
197	0xbded7fab	-0.11596616
198	0x3f742163	0.95363444
199	0x3e9a1863	0.3009673
200	0x3f5009c2	0.8126489
201	0x3f152f58	0.58275366
202	0x3f2724b7	0.652904
203	0x3f41e7a2	0.7574407
204	0x3f022f6c	0.5085361
205	0x3f5c6d29	0.86104065
206	0x3ec768a7	0.3894703
207	0x3f6bc937	0.92103904
208	0x3e974e6c	0.2955202
209	0x3f7490ef	0.9553365
210	0x3e646de2	0.22307542
211	0x3f798c92	0.9748012
212	0x3e2beed7	0.16790329
213	0x3f7c5d9e	0.9858035
214	0x3e01332c	0.12617177
215	0x3f7df443	0.9920084
216	0x3dc1ffc0	0.094726086
217	0x3f7ed94f	0.99550337
218	0x3d919306	0.071081206
219	0x3f7f5a3a	0.9974705
220	0x3d5a694e	0.053323083
221	0x3f7fa2c3	0.9985773
222	0x3d23d1c5	0.039994974
223	0x3f7fcb90	0.99919987
224	0x3cf5b91f	0.0299955
225	0x3f7fe283	0.99955004
226	0x3cb84747	0.022494925
227	0x3f7fef6b	0.999747
228	0x3c8a31c6	0.016869437
229	0x3f7ff6ad	0.9998577
230	0x3c4f4446	0.012650555
231	0x3f7ffac1	0.99991995
232	0x3c1b6e0d	0.009486687
233	0x3f7ffd0d	0.999955
234	0x3be91d13	0.0071140616
235	0x3f7ffe58	0.9999747
236	0x3baecfa8	0.005334813
237	0x3f7fff11	0.99998575
238	0x3b831713	0.0040005534
239	0x3f7fff7a	0.999992
240	0x3b449b92	0.0029999954
241	0x3f7fffb5	0.9999955
242	0x3b136f60	0.0022496805
243	0x3f7fffd6	0.9999975
244	0x3add1f17	0.0016870227
245	0x3f7fffe8	0.99999857
246	0x3aa5d156	0.0012650888
247	0x3f7ffff3	0.9999992
248	0x3a78b110	0.00094868336
249	0x3f7ffff9	0.9999996
250	0x3a3a7e09	0.00071141176
251	0x3f7ffffc	0.99999976
252	0x3a0bd97e	0.0005334838
253	0x3f7ffffe	0.9999999
254	0x39d1bea4	0.00040005625
255	0x3f7fffff	0.99999994

transformer.layers.0.self_attn.in_proj_weight f4 [192, 64]
0	0xbda033f4	-0.07822409
1	0x3ac58b6c	0.0015071458
2	0x3df0cc2a	0.11757691
3	0xbdaf533a	-0.08560796
4	0x3de662a3	0.11249282
5	0xbe42bba7	-0.19016896
6	0xbcff6914	-0.031178035
7	0xbda907f2	-0.082534686
8	0x3c4f1134	0.012638379
9	0x3e24339c	0.16035312
10	0xbd323224	-0.04350485
11	0xbe07b681	-0.13253213
12	0xbc15f420	-0.009152442
13	0x3dfdea26	0.12398176
14	0x3dcd3cc4	0.10021356
15	0xbdb4fa04	-0.08836749
16	0x3df04481	0.11731816
17	0xbc8b8682	-0.017031912
18	0x3df11c92	0.117730275
19	0xbe0c20aa	-0.13684335
20	0x3e334efe	0.17510602
21	0x3e057989	0.13034643
22	0x3e0e8d23	0.13921027
23	0xbd93bfc1	-0.072143085
24	0xbde202b0	-0.11035669
25	0x3dd15966	0.102221295
26	0xbd9de7f3	-0.077102564
27	0xbdcb5931	-0.09929121
28	0xbd9baf6e	-0.0760182
29	0xbce1183c	-0.027477376
30	0x3da6b31d	0.08139632
31	0x3c994608	0.018710151
32	0x3cd5c2dc	0.026093893
33	0x3e415d39	0.18883218
34	0xbd2035a5	-0.03911366
35	0xbd5eb7e5	-0.054374594
36	0xbe21eacf	-0.15812229
37	0x3e23ebc7	0.1600791
38	0xbe27f555	-0.1640218
39	0x3cec835e	0.028871235
40	0xbe25e4ba	-0.16200534
41	0xbd0d6660	-0.03452146
42	0xbdd47747	-0.10374313
43	0xbcc9479e	-0.024570283
44	0x3cfec31d	0.031098897
45	0x3c6c846f	0.0144358715
46	0x3c5ec109	0.013595828
47	0xbdbccb69	-0.09218485
48	0xba91794c	-0.0011098771
49	0x3de6c1b9	0.112674184
50	0xbd14aea1	-0.03629935
51	0x3d8cb1b1	0.068698294
52	0xbd03ddfe	-0.03219413
53	0x3ca43fda	0.020049978
54	0x3d9d6ac9	0.07686383
55	0xbca1d944	-0.01975692
56	0xbceef59e	-0.029169854
57	0xbd9940c6	-0.07483058
58	0x3df04448	0.117317736
59	0xbe02037e	-0.12696645
60	0xbd8f9cd5	-0.07012335
61	0x3de67cf8	0.11254305
62	0xbe49a5d5	-0.19692166
63	0x3d99984d	0.07499752
64	0xbcb39195	-0.021920005
65	0xbd8ad48e	-0.06778823
66	0xbd24c846	-0.040230058
67	0xbca77044	-0.020439275
68	0xbda5bd4e	-0.08092748
69	0x3e84757c	0.25870883
70	0x3c8507aa	0.016239006
71	0xbd1f8bda	-0.038951732
72	0x3e020db5	0.12700541
73	0x3e00534d	0.12531777
74	0xbe147b4f	-0.14500163
75	0x3d9ee829	0.07759125
76	0x3d8b340e	0.06797038
77	0xbd6ab0c7	-0.057297494
78	0xbe17cc92	-0.14824131
79	0x3c82431b	0.015901139
80	0xbdf56570	-0.11982238
81	0x3dc8432e	0.097784385
82	0xbdde6d43	-0.10860684
83	0xbd947f87	-0.072508864
84	0x3df159e2	0.11784722
85	0xbbda2287	-0.006656948
86	0xbe819fc5	-0.25317207
87	0xbd509535	-0.050923545
88	0xbe0966f8	-0.13418186
89	0xbce4f10c	-0.027946971
90	0xbc9dec90	-0.01927784
91	0x3ca16b8f	0.019704608
92	0x3db03da9	0.08605511
93	0xbe17f44d	-0.14839287
94	0x3e41eda5	0.1893831
95	0xbe0b2466	-0.13588104
96	0x3e36b962	0.17844155
97	0xbdcfa23e	-0.10138367
98	0xbc94adbd	-0.018149251
99	0x3d9f8535	0.07789079
100	0x3e32acf3	0.17448787
101	0x3bdeae1e	0.0067956587
102	0x3d28bed6	0.04119762
103	0x3b8ebba5	0.004355865
104	0x3db44703	0.08802607
105	0xbe580a24	-0.21097618
106	0xbd9def04	-0.07711604
107	0x3ddd084c	0.10792598
108	0xbe3c874a	-0.18410984
109	0x3e126635	0.14296801
110	0x3cb6529a	0.022256184
111	0xbc6d362c	-0.014478248
112	0xbc5c05cc	-0.013429116
113	0xbdf8cc63	-0.12148359
114	0x3d305b0e	0.043055587
115	0xbe154bb8	-0.14579666
116	0x3da309b0	0.07960832
117	0x3d59b7fe	0.053153984
118	0x3c9e1283	0.019295936
119	0x3d9b84ee	0.07593714
120	0x3e1ed4d3	0.15510873
121	0xbca5c0f5	-0.02023361
122	0xbd4f8c46	-0.050670885
123	0x3e2a3fff	0.16625975
124	0x3e0966a2	0.13418058
125	0xbd029a5f	-0.0318855
126	0x3d478def	0.048719343
127	0x3cdd1be4	0.026990838
128	0xbd3edcbc	-0.046597227
129	0xbd4a279b	-0.049354177
130	0x3daf56f9	0.085615106
131	0x3dd11ba7	0.102103524
132	0xbcd22018	-0.02565007
133	0xbd70889c	-0.05872403
134	0xbd8f85b8	-0.07007927
135	0xbbb31085	-0.0054646158
136	0xbda68216	-0.08130281
137	0xbd54bb30	-0.05193633
138	0xbdbfca88	-0.09364802
139	0xbc411fa5	-0.01178733
140	0xbe01cd4e	-0.12675974
141	0x3d8cf38e	0.06882392
142	0x3d60d6d9	0.054892395
143	0xbe27457b	-0.16335098
144	0xbc4978ac	-0.012296837
145	0x3dc9224a	0.09820993
146	0xbbc417da	-0.0059842886
147	0x3e17b44b	0.1481487
148	0xbc996e39	-0.018729316
149	0x3d804c1c	0.06264517
150	0xbc7e7236	-0.01553016
151	0x3e01a22c	0.1265952
152	0xbe41bc2a	-0.18919435
153	0x3dd381bf	0.103274815
154	0xbc9f3ec0	-0.019439101
155	0x3cc6efe7	0.024284316
156	0xbcbff022	-0.023429934
157	0x3e0be165	0.136602
158	0xbd95f74f	-0.07322561
159	0xbdaf7654	-0.08567491
160	0x3e0f21a6	0.1397768
161	0xbd373db2	-0.04473657
162	0x3cdf6bf6	0.02727316
163	0x3d092584	0.033483043
164	0xbd69e6f9	-0.05710504
165	0x3de2f786	0.110823676
166	0xbd20b6b2	-0.03923673
167	0x3d46ca66	0.048532866
168	0xbdd14495	-0.10218159
169	0x3dea34c3	0.11435845
170	0x3ccf2bec	0.025289498
171	0xbe0de12d	-0.13855429
172	0x3ce16167	0.027512265
173	0x3a551e5e	0.000812983
174	0xbcde4dde	-0.02713674
175	0xbd08b72c	-0.03337781
176	0x3c99563c	0.018717878
177	0xbd59ca64	-0.05317153
178	0xbc8842bf	-0.01663339
179	0xbddb5899	-0.10710258
180	0x3df6ff31	0.12060393
181	0xbdabb95e	-0.08384965
182	0x3c0bfff0	0.008544907
183	0xbd6774f9	-0.05650804
184	0xbd5b8879	-0.053596947
185	0xbe1e51cb	-0.15460889
186	0x3d7ae759	0.061255787
187	0xbdd1bd77	-0.10241216
188	0x3e232a5b	0.15934126
189	0x3de14ce1	0.110009916
190	0xbd343381	-0.04399443
191	0x3e350f07	0.17681514
192	0x3e03206d	0.12805338
193	0xbd036681	-0.032080177
194	0x3df47b91	0.11937631
195	0xbba7b6ae	-0.0051182127
196	0x3d3ebb4e	0.046565346
197	0xbc303f33	-0.010757255
198	0xbc0e4444	-0.008683268
199	0xbda4a134	-0.080385596
200	0xbd2a4736	-0.04157182
201	0x3c86f344	0.01647342
202	0xbc33c903	-0.010973218
203	0xbcd533f6	-0.026025753
204	0xbcf5ca98	-0.03000383
205	0x3d53801a	0.05163584
206	0x3e0b4ae2	0.13602784
207	0xbd9b2c63	-0.075768255
208	0x3d094a11	0.0335179
209	0xbcba6fb2	-0.022758339
210	0x3db8cbcd	0.09023247
211	0x3dd303be	0.10303448
212	0xbda98913	-0.08278098
213	0x3d8d3978	0.06895727
214	0xbc668ab4	-0.014071155
215	0x3ba28ecf	0.004960872
216	0xbd9aaabc	-0.07552096
217	0xbde0ff78	-0.10986227
218	0x3c7fdd6f	0.015616759
219	0xbd063406	-0.032764457
220	0xba8d659c	-0.0010787728
221	0x3c2384f8	0.009980433
222	0x3c294362	0.010331007
223	0x3d74c655	0.059759457
224	0x3d014714	0.031561926
225	0x3dbea1a9	0.09308178
226	0x3db164a0	0.08661771
227	0x3cd860c1	0.026413323
228	0xbd0565c5	-0.032567758
229	0xbc610231	-0.013733433
230	0xbcf7126d	-0.030160153
231	0x3dd562cf	0.10419237
232	0x3dbd18b8	0.0923323
233	0x3d3f9bab	0.046779316
234	0x3d78e02b	0.06076066
235	0x3d86ad3d	0.06576011
236	0xbdc75a8f	-0.097340696
237	0xb883dea3	-6.288036e-05
238	0xbd96c9ee	-0.07362734
239	0xbe5987ee	-0.2124326
240	0x3d850bd6	0.06496398
241	0xbe24d497	-0.16096722
242	0xbd06ffbf	-0.032958742
243	0x3ddb4b2e	0.10707699
244	0x3cdff87f	0.027340172
245	0xbe01607b	-0.1263446
246	0xbd02e6f2	-0.031958528
247	0x3cdbc2e5	0.026826331
248	0x3ba2238d	0.0049480856
249	0x3d3b8cca	0.045788564
250	0xbdae7485	-0.08518318
251	0xbd710e82	-0.058851726
252	0x3e3cbb01	0.18430711
253	0xbd97e018	-0.07415789
254	0xbb093d16	-0.002094095
255	0x3d81d21c	0.06338903

transformer.layers.0.self_attn.in_proj_bias f4 [192]
0	0xbd06a319	-0.032870386
1	0x3d11f389	0.035632644
2	0xbd5270c0	-0.051377058
3	0xbd1cc523	-0.03827394
4	0x3cc8a92e	0.024494734
5	0xbcaaa9a3	-0.020832842
6	0xbd3c5716	-0.04598149
7	0x3b3612ef	0.0027782281
8	0x3d1f426f	0.038881715
9	0x3b96dacb	0.004603719
10	0xbd5678e3	-0.05236138
11	0xbd1900b8	-0.0373542
12	0xbd80ed3a	-0.062952474
13	0xbd03991f	-0.03212845
14	0xbd0984e4	-0.033574
15	0xbcdd72c2	-0.02703226
16	0x3e01fe74	0.12694722
17	0x3d1b429a	0.037905313
18	0xbcdf91e9	-0.027291255
19	0x3c971679	0.018443333
20	0x3c3aa405	0.011391644
21	0xbdb07780	-0.08616543
22	0xbd87b6dd	-0.06626675
23	0x3e07fd20	0.13280153
24	0x3da7a06a	0.081848934
25	0x3db34638	0.087536275
26	0xbd05ef62	-0.032698996
27	0x3db0041b	0.08594533
28	0x3d5de0c7	0.054169443
29	0xbd09c73c	-0.03363727
30	0x3da9b4cb	0.08286437
31	0x3c523c7e	0.012831805
32	0x3e0ccf72	0.13751009
33	0xbe0b6ea2	-0.13616422
34	0x3da45879	0.08024687
35	0xbdda8f05	-0.1067181
36	0x3dc5f8cf	0.09666597
37	0xbdfaf910	-0.12254536
38	0x3d9b2c6e	0.07576834
39	0xbddf9caf	-0.10918557
40	0x3decaedc	0.11556789
41	0xbb17e83c	-0.0023179194
42	0x3d99d343	0.07510998
43	0x3de2596e	0.110522136
44	0xbce86d28	-0.028372362
45	0x3d1365d9	0.0359858
46	0x3c90ed4b	0.017691275
47	0x3dd110d8	0.10208291
48	0xbdbdf527	-0.09275275
49	0x3d6b77ed	0.057487417
50	0xbc8bda7a	-0.017071951
51	0xbaf284d9	-0.0018502726
52	0x3d970609	0.07374198
53	0x3d450dad	0.048108745
54	0xbc404d6e	-0.011737211
55	0xbd0979c8	-0.033563405
56	0xbd995944	-0.07487729
57	0x3bb0a96b	0.00539129
58	0x3be94999	0.007119369
59	0x3db6930b	0.08914765
60	0x3cf6e476	0.030138236
61	0xbd80db2f	-0.06291806
62	0x3d43d59b	0.047811132
63	0xbc72674b	-0.014795135
64	0xbabbcc77	-0.0014327903
65	0x3a30b69e	0.0006741079
66	0x3ab03aad	0.0013445221
67	0x3aab9335	0.0013090136
68	0xb9eb9bab	-0.00044938675
69	0xbbcfc67c	-0.0063408
70	0x3a7b46d1	0.00095854426
71	0x3b0dc397	0.0021631473
72	0xbb2c2c12	-0.0026271385
73	0xbb986fff	-0.004652023
74	0xbbabf720	-0.0052479655
75	0xb90e81bd	-0.00013590507
76	0x3b55fe7a	0.00326529
77	0x3a5797d4	0.0008224223
78	0x39aa2a88	0.00032456615
79	0x3b11d036	0.0022249348
80	0x3c216a76	0.009852042
81	0xb9745292	-0.00023300413
82	0x3bd9db96	0.006648491
83	0x3bb61db1	0.0055577387
84	0x3b65331c	0.003497309
85	0xbbece1b6	-0.0072290553
86	0xbb98e100	-0.004665494
87	0x3bd5c1e8	0.0065233596
88	0x3bae056f	0.0053107063
89	0x3c153bf9	0.009108537
90	0xbbfd9b6f	-0.0077394764
91	0x3bfd7ebf	0.0077360566
92	0xba351e9f	-0.0006909165
93	0xbbd4eac4	-0.006497713
94	0x3bfd193d	0.007723956
95	0xbb709cc2	-0.0036714529
96	0x3ca6cdfd	0.020361895
97	0x3b618e66	0.0034417151
98	0xbae434f0	-0.0017410796
99	0x3b7d37a4	0.00386379
100	0xbc88be2f	-0.01669225
101	0x3c24771f	0.010038166
102	0xbbb2a772	-0.00545209
103	0x39b673e3	0.00034800087
104	0xbbe51404	-0.0069909114
105	0xba42344a	-0.00074083044
106	0xbb206a7a	-0.0024477527
107	0xbc12e393	-0.008965391
108	0xbb294584	-0.0025828788
109	0xbc0708cd	-0.008241844
110	0xb9d60920	-0.0004082406
111	0xbb8e84cf	-0.004349328
112	0xbbeb7bfc	-0.007186411
113	0xbc37886c	-0.011201959
114	0xbc8b4628	-0.017001227
115	0xbbf12dad	-0.0073601813
116	0x3bc86a88	0.006116215
117	0xbc07b262	-0.008282276
118	0x3be34037	0.0069351452
119	0xbc25c758	-0.010118328
120	0xbc0873ae	-0.008328361
121	0xbc6bac19	-0.014384293
122	0xbb35b47c	-0.0027725985
123	0xbbbba0b6	-0.0057259453
124	0x3c040b7a	0.008059377
125	0xbc15e2e5	-0.009148334
126	0x3b5a4861	0.0033307301
127	0xbb0678f6	-0.0020518876
128	0x3b73db1c	0.0037209457
129	0xbcc260df	-0.023727832
130	0x3d40c12b	0.04705922
131	0x3c5bab29	0.013407507
132	0xbd24427a	-0.04010246
133	0x3ca4c6b0	0.020114273
134	0x3cb7a1cb	0.022416016
135	0xbc8a1693	-0.016856467
136	0xbcf9989b	-0.030468276
137	0xbc98678d	-0.018604064
138	0xbd5d114c	-0.053971574
139	0x3cc934ca	0.024561305
140	0x3cd87d83	0.026427036
141	0xbd44730d	-0.047961283
142	0x3c292211	0.0103230635
143	0x3d105dec	0.03524582
144	0x3c38eaeb	0.011286478
145	0xbbc18e2d	-0.0059068413
146	0xbcbb1891	-0.022838863
147	0xbcdc0d15	-0.026861707
148	0x3cca68cc	0.024708174
149	0xbc9d8e52	-0.019232903
150	0xbd1fbd74	-0.038999036
151	0xbcf33779	-0.029689537
152	0xbca19ce1	-0.019728126
153	0xbd31523a	-0.043291308
154	0x3c8b38a3	0.01699478
155	0xbc56ecc6	-0.013117975
156	0xbcfdc39d	-0.030977065
157	0xbbb9bb32	-0.0056680674
158	0xba9e98c6	-0.0012099973
159	0x3cb08260	0.021546543
160	0xbc1aaff4	-0.009441365
161	0x3cd16441	0.0255605
162	0x3c80b5a4	0.015711613
163	0x3c4e3d4e	0.012587858
164	0x3cc37ef8	0.023864254
165	0xbc4569f3	-0.012049186
166	0x3bf1c7da	0.0073785605
167	0x3d0eac7b	0.03483246
168	0xbc65939a	-0.014012242
169	0xbb458b07	-0.0030142681
170	0x3d5dd943	0.054162275
171	0xbc179850	-0.009252623
172	0x3d0720af	0.032990154
173	0xbcf20f44	-0.029548295
174	0x3c9b6e81	0.01897359
175	0x3d2df041	0.042465452
176	0xbb166514	-0.002294843
177	0x3cc6e4e1	0.02427906
178	0x3c7de9a3	0.015497598
179	0xbc91e52c	-0.017809473
180	0x3bbbddd5	0.0057332315
181	0x3c2d6fe3	0.010585758
182	0xbc415ce8	-0.011801936
183	0xbbcf6296	-0.006328891
184	0xbc9f7e61	-0.019469442
185	0x3c607008	0.013698585
186	0x3cdab285	0.026696453
187	0xbc83907a	-0.016060103
188	0x3ba5bac0	0.0050576627
189	0xbca8dd37	-0.020613296
190	0xbc8f9e30	-0.017531484
191	0x3c135c25	0.008994137

transformer.layers.0.self_attn.out_proj.weight f4 [64, 64]
0	0x3d09b2d8	0.033617824
1	0xbdc13062	-0.094330564
2	0x3c3cf38b	0.011532675
3	0xbdc21107	-0.09475904
4	0xbdc706be	-0.09718083
5	0xbd85fde0	-0.065425634
6	0xbc078b13	-0.008272904
7	0x3da436a5	0.08018235
8	0x3b1a6d0a	0.0023563528
9	0xbbcdaae0	-0.0062764734
10	0x3dfe34fc	0.1241245
11	0xbce72601	-0.028216364
12	0xbde3f4e3	-0.11130693
13	0x3d96152c	0.07328257
14	0x3dcc2fa8	0.09970027
15	0x3d0d3865	0.03447761
16	0xbdebb7a6	-0.115096375
17	0xbcce585b	-0.025188616
18	0xbd3d122f	-0.04615992
19	0x3e01abe7	0.12663232
20	0xbd9ea90c	-0.07747087
21	0x3de33dd4	0.11095777
22	0xbd29fd88	-0.041501552
23	0x3e084687	0.13308154
24	0x3dd83678	0.10557264
25	0x3d07d070	0.033157766
26	0x3d36f6a6	0.044668816
27	0xbd9dfb2a	-0.07713921
28	0xbd542e77	-0.051802125
29	0x3d7ed5e2	0.062215693
30	0xbd4353a8	-0.047687203
31	0xbda015ee	-0.07816683
32	0x3dae325e	0.085057005
33	0xbd2bcffa	-0.04194639
34	0x3dc64f50	0.096830964
35	0xbde63505	-0.112405814
36	0x3d60d0bf	0.054886576
37	0x3e0e5750	0.13900495
38	0x3be14100	0.0068742037
39	0x3e0d5136	0.13800511
40	0xbd92107e	-0.07132052
41	0x3d83fc83	0.06444647
42	0xbcaaad89	-0.020834701
43	0xbda47184	-0.08029464
44	0x3e09cf1c	0.13457912
45	0x3ca4b157	0.020104093
46	0xbded31c2	-0.11581756
47	0x3cd85f12	0.02641252
48	0xbd4df533	-0.05028267
49	0xbcb66080	-0.022262812
50	0xbde436ea	-0.111432865
51	0xbda5b56f	-0.08091246
52	0x3d2bd559	0.04195151
53	0xbd4db1e4	-0.050218478
54	0x3c5681cf	0.013092472
55	0xbde2ccb0	-0.11074197
56	0x3e3adec8	0.18249047
57	0x3c89d0e3	0.016823238
58	0xbddbed03	-0.10738566
59	0xbe0e1344	-0.13874537
60	0x3d7dc329	0.061953697
61	0xbd98fca9	-0.07470066
62	0xbc4cafc6	-0.0124930795
63	0xbd862a16	-0.06550996
64	0x3d4f0b1c	0.050547704
65	0xbd996998	-0.074908435
66	0x3cb55a8d	0.022137905
67	0xbd13c8be	-0.036080115
68	0x3da11a90	0.078663945
69	0x3cb1cd28	0.021704271
70	0xbc0404e7	-0.008057809
71	0xbdecc9a6	-0.11561899
72	0x3dbcf94b	0.09227236
73	0x3de833c3	0.11337998
74	0xbda247cb	-0.0792385
75	0x3d96c20c	0.0736123
76	0x3da8da0d	0.08244715
77	0xbdc92f86	-0.098235175
78	0x3d99512f	0.07486188
79	0xbdbb57a9	-0.09147579
80	0x3cc033ba	0.023462165
81	0x3c1916f0	0.009343848
82	0xbd970c43	-0.073753856
83	0x3d0c8431	0.034305755
84	0xbd09cabc	-0.03364061
85	0x3d9bd6a4	0.07609299
86	0xbe0ed84f	-0.13949703
87	0xbcce8b6d	-0.025212968
88	0xbd2ac0c0	-0.041687727
89	0x3d63d699	0.05562458
90	0xbc074fcb	-0.00825877
91	0x3cfd559d	0.030924613
92	0x3d240ea8	0.04005304
93	0x3de05c5f	0.109551184
94	0xbdaa27b1	-0.08308352
95	0xbe10df61	-0.14147712
96	0x3c11a339	0.008889013
97	0xbd3c1898	-0.045921892
98	0xbdac27b0	-0.08406007
99	0xbc5f7184	-0.013637904
100	0xbd8ce439	-0.068794675
101	0x3dfd9f8c	0.12383947
102	0xbdaa16d9	-0.08305139
103	0xbd235d86	-0.039884113
104	0x3dc97d7a	0.09838386
105	0xbdfee661	-0.12446285
106	0xbd5615ac	-0.05226676
107	0xbdb156c6	-0.08659129
108	0xbd80bb01	-0.06285668
109	0xbd5bbc46	-0.05364635
110	0x3c0cb7b2	0.008588718
111	0x3de7ea5d	0.11323998
112	0xbd8b4dce	-0.068019494
113	0x3db0a819	0.08625812
114	0xbc868e92	-0.016425405
115	0xbd1d1a8b	-0.03835539
116	0x3d98ed25	0.07467107
117	0x3d605ade	0.054774158
118	0x3ce5c3a6	0.028047394
119	0xbbdf7fa3	-0.0068206354
120	0x3ab2390c	0.0013597324
121	0xbe0c41a4	-0.13696915
122	0xbd0e014d	-0.03466921
123	0xbdaff514	-0.08591667
124	0x3d860e84	0.065457374
125	0x3d4385e8	0.047735125
126	0x3d5d7381	0.05406523
127	0xbdd06a64	-0.101765424
128	0xbe19baad	-0.15012617
129	0xbd1378e2	-0.036003955
130	0x3d5bb29b	0.05363713
131	0x3e153ba9	0.1457354
132	0xbdbcdf73	-0.09222307
133	0x3db14414	0.08655563
134	0xbdc63506	-0.09678082
135	0xbe28b65d	-0.16475816
136	0xbda155de	-0.07877706
137	0xbdd11534	-0.10209122
138	0xbde8ead6	-0.113729164
139	0xbd43e090	-0.04782158
140	0x3d67ede7	0.056623366
141	0xbdaf90ca	-0.08572538
142	0x3df7d18d	0.121005155
143	0x3d0fb3fd	0.03508376
144	0xbd989829	-0.07450897
145	0x3d004608	0.031316787
146	0xbd17914e	-0.037003808
147	0xbcb6dc35	-0.0223218
148	0xbd082703	-0.03324033
149	0xbd86aa91	-0.06575502
150	0xbd648916	-0.055794798
151	0x3d2bea0a	0.041971244
152	0x3bacfd0d	0.0052791894
153	0xbe044562	-0.12917092
154	0x3cabcdd5	0.020972172
155	0xbda153a3	-0.078772806
156	0xbe0f8d0b	-0.14018647
157	0x3dd12500	0.10212135
158	0xbd90c1fd	-0.0706825
159	0x3e101993	0.14072256
160	0x3dd788e9	0.105241604
161	0xbd6fba59	-0.058527324
162	0x3dc0f146	0.09421019
163	0x3df0d2a4	0.117589265
164	0xbdd83cd6	-0.105584785
165	0x3d8cf919	0.06883449
166	0xbdd38381	-0.10327817
167	0x3cfa9d54	0.030592598
168	0x3bcbdd90	0.0062214807
169	0xbb0ef399	-0.0021812676
170	0x3dba1847	0.09086662
171	0xbddfa757	-0.109205894
172	0x3d4441f0	0.047914445
173	0xbdaf5439	-0.08560986
174	0xbdac5715	-0.08415047
175	0xbd94b3f6	-0.07260887
176	0x3d1e2115	0.03860577
177	0xbe022094	-0.1270774
178	0x3e21aa0a	0.15787521
179	0xbe150935	-0.14554293
180	0xbd2eb4e7	-0.04265299
181	0x3e59bb5f	0.21262883
182	0x3dced5e8	0.10099393
183	0xbdc9ddf3	-0.098567866
184	0xbeb34881	-0.35016254
185	0x3e2be119	0.16785087
186	0x3e4eef07	0.20208369
187	0x3e81193f	0.25214574
188	0x3e38b8ec	0.18039292
189	0xbdb94444	-0.09046224
190	0xbe421149	-0.18951906
191	0x3d028b2d	0.03187101
192	0xbe1e2b63	-0.15446238
193	0x3c85e922	0.016346518
194	0x3c78601b	0.015159632
195	0xbcda6854	-0.026661076
196	0x3c5acc3a	0.0133543555
197	0x3d3dbaad	0.046320606
198	0x3ce55ec5	0.027999291
199	0x3d8adeec	0.067808
200	0xbd820175	-0.06347934
201	0xbdabf4e5	-0.08396319
202	0x3ca65a49	0.020306723
203	0xbcc43724	-0.023952074
204	0xbd8ee12d	-0.069765426
205	0x3d98672b	0.07441553
206	0x3b92cabb	0.0044797338
207	0x3d5275c9	0.05138186
208	0x3abdccbb	0.001448057
209	0xbd836a11	-0.06416715
210	0xbe208fd5	-0.15679868
211	0x3d639098	0.055557817
212	0x3dd56c9d	0.10421107
213	0x3d9dc635	0.077038206
214	0xbdf9b49f	-0.12192654
215	0xbd80783c	-0.06272933
216	0xbd3fefe8	-0.04685965
217	0xbdeaf304	-0.11472133
218	0x3cfe82f4	0.031068303
219	0xbd10fce5	-0.03539743
220	0x3c2b27f3	0.010446536
221	0x3d768365	0.0601839
222	0x3ca649d3	0.020298874
223	0x3a3d2a56	0.00072160864
224	0xbe09c00b	-0.13452165
225	0x3da81964	0.08207968
226	0x3d8aeac1	0.06783057
227	0xbda50691	-0.08057893
228	0x3d11beee	0.035582475
229	0xbd19273a	-0.037390925
230	0x3d876a99	0.06612129
231	0x3dd74c60	0.10512614
232	0xbd860066	-0.06543045
233	0xbd539dc6	-0.051664136
234	0xbd85b5da	-0.06528826
235	0xbd282544	-0.041051164
236	0xbd383a09	-0.04497722
237	0x3cc20370	0.02368328
238	0x3cfe591e	0.031048354
239	0x3de8c689	0.113659926
240	0xbe0559e7	-0.13022576
241	0xbdc2d84d	-0.09513912
242	0xbe0401de	-0.12891337
243	0x3e0bd444	0.13655192
244	0xbce22b16	-0.027608436
245	0xbe350723	-0.17678504
246	0x3d3e505e	0.046463363
247	0x3ce4388c	0.027858995
248	0x3e4f0cc2	0.2021971
249	0xbe0a7be7	-0.13523827
250	0xbe011a3a	-0.12607661
251	0xbdd924bb	-0.10602709
252	0xbdbfbf12	-0.09362616
253	0xbdcf65fb	-0.10126873
254	0x3de7c8f5	0.113176264
255	0xbbe67411	-0.007032879

transformer.layers.0.self_attn.out_proj.bias f4 [64]
0	0xbbf7fde4	-0.007568108
1	0x3d3bab9f	0.045817968
2	0x3ac98988	0.001537607
3	0x3d1a6310	0.03769213
4	0xbd5deb2d	-0.05417936
5	0x3c7d5a2b	0.015463392
6	0xbbd1915b	-0.0063955016
7	0x3cf75042	0.030189637
8	0xbc81999e	-0.01582032
9	0x3b443774	0.002994028
10	0xbba8f48d	-0.005156106
11	0xbd155546	-0.036458276
12	0xbd04dc03	-0.032436382
13	0xbc56918a	-0.013096223
14	0xbd2c68e7	-0.04209223
15	0x3c9d9cc4	0.01923979
16	0x3cf80386	0.030275118
17	0x3be18546	0.0068823425
18	0xbb4ce454	-0.0031264024
19	0x3cf7e8f7	0.030262453
20	0xbcb9936b	-0.022653302
21	0x3ba450b9	0.0050145057
22	0xbc2bf143	-0.010494533
23	0x3d25e088	0.040497333
24	0x3c24e963	0.010065409
25	0xbd29930f	-0.04140001
26	0xbd5832a6	-0.052782677
27	0xbc483338	-0.012219243
28	0xbc9b4e02	-0.018958095
29	0x3c081d55	0.008307775
30	0x3bbf7bf4	0.005843634
31	0x3bbb090c	0.0057078656
32	0xbc40c1bb	-0.011764939
33	0x3d316f73	0.043319177
34	0x3cf8a8e3	0.030353969
35	0xbcd07ed8	-0.025451109
36	0xbc2c8a28	-0.010530986
37	0x3bf832f1	0.007574432
38	0x3bece051	0.007228889
39	0x3ab2e03a	0.0013647147
40	0x3c90bbb2	0.017667625
41	0x3b67a3fb	0.0035345543
42	0xbd6ebdce	-0.05828648
43	0x3bb4ecdc	0.0055214
44	0x3c97956e	0.01850387
45	0x3cc871d8	0.024468347
46	0xbc664915	-0.01405551
47	0xbc2cf14a	-0.010555575
48	0x3c34e7d0	0.0110415965
49	0x3cb83aa6	0.022488903
50	0xb9e94f35	-0.00044500237
51	0xbc5ec8c6	-0.013597673
52	0xbcaabed4	-0.020842947
53	0x3d09a79b	0.033607107
54	0xbd1413f6	-0.03615185
55	0x3c9bc7ba	0.019016135
56	0xbc8a5d3e	-0.016890164
57	0xbd051541	-0.032490972
58	0x3c43cabe	0.011950193
59	0x3c066b70	0.008204326
60	0x3b49ddf2	0.0030802456
61	0xb9b0cc94	-0.00033721759
62	0xbd3cc038	-0.04608175
63	0xbc821de5	-0.015883395

transformer.layers.0.linear1.weight f4 [128, 64]
0	0x3dc56fc3	0.096404575
1	0x3bef604d	0.007305181
2	0x3d4bdcbf	0.049771067
3	0x3d848ff6	0.06472771
4	0xbcfc8821	-0.03082663
5	0x3cb63bd5	0.022245327
6	0xbd13ff4b	-0.03613214
7	0x3d6cf3f4	0.05784984
8	0xbbd0eac8	-0.0063756444
9	0xbdc0d6a1	-0.09415937
10	0x3cf4a23e	0.02986252
11	0x3cc51a41	0.02406037
12	0x3e01bb1f	0.12669037
13	0xbd772e5d	-0.06034695
14	0x3ceb5989	0.028729217
15	0x3cd0eb0a	0.0255027
16	0xba83329f	-0.0010009593
17	0xbd52463e	-0.05133652
18	0xbdf9cc3e	-0.12197159
19	0xbdc4da0e	-0.09611903
20	0x3d941849	0.072311945
21	0x3cf9c67a	0.030490149
22	0x3ceab7ca	0.02865209
23	0xbbee5320	-0.007273093
24	0xbc4e98ef	-0.012609704
25	0x3d9239b0	0.07139909
26	0x3cec01da	0.028809477
27	0xbde74457	-0.11292332
28	0x3e007982	0.12546352
29	0xbc932f5c	-0.017966919
30	0xbd2b4ef6	-0.04182335
31	0xbdb1263b	-0.0864987
32	0xbd8063cc	-0.06269035
33	0xbdb6b129	-0.08920509
34	0xbc221327	-0.009892262
35	0x3dd5fb97	0.104483776
36	0xbd0828b8	-0.033241957
37	0x3e1d7e8b	0.15380304
38	0xbd1506ea	-0.036383547
39	0xbd1d0be3	-0.038341414
40	0xbde2dd25	-0.11077336
41	0xbd389edb	-0.04507337
42	0x3d7d6821	0.061866883
43	0x3d02c9b0	0.031930625
44	0xbc8d8f73	-0.017280316
45	0x3d716332	0.05893249
46	0x3e0e2423	0.13880973
47	0xbe04d30f	-0.12971137
48	0x3dbdf8cd	0.092759706
49	0xbd8722dd	-0.065984465
50	0xbda78f1b	-0.08181592
51	0xbbb1a25c	-0.005420966
52	0x3d4e2b35	0.050334174
53	0xbe1cef3b	-0.15325634
54	0x3c89a06f	0.016800134
55	0xbe14c925	-0.14529856
56	0x3e0fb434	0.14033586
57	0xbd91c24e	-0.07117139
58	0x3ca08429	0.019594269
59	0x3c06150a	0.008183727
60	0x3d84f1ee	0.06491457
61	0xbd99214f	-0.07477056
62	0xbc915953	-0.017742788
63	0x3c0a1341	0.008427442
64	0xbdb1714b	-0.08664187
65	0x3adb7199	0.0016742229
66	0x3d5b8d92	0.05360181
67	0xbd92e931	-0.07173384
68	0xbb822335	-0.003971482
69	0xbd9cf1a9	-0.076632805
70	0xbda9258d	-0.08259115
71	0xbd892306	-0.06696133
72	0xbddd6458	-0.10810155
73	0xbdeb9745	-0.11503462
74	0xbd961ac2	-0.073293224
75	0xbd564f1d	-0.052321542
76	0x3de3077e	0.110854134
77	0xbd1f986c	-0.03896372
78	0x3c68547b	0.014180298
79	0xbd816f0f	-0.06320011
80	0x3d2f72fe	0.042834274
81	0x3dbb0f30	0.09133756
82	0xbcca8ebb	-0.024726262
83	0x3debae7c	0.1150789
84	0x3debfb68	0.11522561
85	0x3dc93e33	0.09826317
86	0xbd9be375	-0.07611743
87	0x3ca2e835	0.019886116
88	0x3c11df47	0.008903331
89	0x3de28dea	0.11062224
90	0xbca0729f	-0.019585906
91	0xba3348f2	-0.0006839178
92	0x3d5bc52d	0.05365484
93	0x3df727e9	0.12068159
94	0xbda41c05	-0.08013157
95	0xbd8aba64	-0.067738324
96	0xbd018ff3	-0.03163142
97	0x3dca14aa	0.098672226
98	0x3dfaa228	0.1223796
99	0x3d10b870	0.035332143
100	0xbdd9176c	-0.106001705
101	0x3cd42e57	0.025901003
102	0x3d76f529	0.060292397
103	0xbd796b65	-0.060893435
104	0x3ddaea2d	0.10689197
105	0xbc511964	-0.012762401
106	0xbd934804	-0.0719147
107	0xbd93ddd6	-0.07220046
108	0xbded7396	-0.11594312
109	0xbdfe51eb	-0.12417968
110	0xbdd4ccc9	-0.10390622
111	0xbb6625f1	-0.003511783
112	0x3dc829aa	0.09773572
113	0xbcee1219	-0.029061364
114	0xbdb9b3ff	-0.09067535
115	0x3dd305fb	0.10303875
116	0x3c387f98	0.0112608895
117	0x3db63a45	0.08897833
118	0xbd641fcd	-0.05569439
119	0xbcc16c61	-0.02361125
120	0x3c1a268b	0.009408603
121	0xbd45a370	-0.04825157
122	0xbd15a066	-0.03652992
123	0x3d4d2caa	0.050091423
124	0x3ac7170f	0.0015189367
125	0xbb7a5105	-0.0038195264
126	0x3d334ad6	0.04377254
127	0x3c2bb1b7	0.010479382
128	0xbd910741	-0.07081462
129	0xbd92dfd1	-0.07171596
130	0x3e1ce65f	0.15322255
131	0x3ddfbb89	0.10924441
132	0xbdc72758	-0.09724301
133	0x3d0589aa	0.03260199
134	0xbd87c836	-0.06629984
135	0xbda22e06	-0.079189345
136	0x3d9f76e7	0.07786351
137	0xbd628783	-0.055305015
138	0x3c74dcec	0.01494525
139	0xbdc216fe	-0.09477042
140	0xbd2c9089	-0.042130027
141	0xbdde5719	-0.10856456
142	0x3ddb694a	0.10713442
143	0xbe0e60af	-0.1390407
144	0x3e036706	0.12832269
145	0xbd8e3ca4	-0.0694516
146	0xbcd6de47	-0.026229037
147	0x3d543e7f	0.051817413
148	0x3d4b523b	0.049638968
149	0x3dede9d8	0.11616868
150	0x3d1f84ef	0.038945135
151	0xbd97822e	-0.07397877
152	0xbdbc3b85	-0.0919104
153	0xbd48b054	-0.048996285
154	0x3b90d448	0.004419837
155	0x3d78954b	0.060689252
156	0x3d23e816	0.040016256
157	0x3d3dd9e0	0.04635036
158	0xbd99f848	-0.07518059
159	0xbd0237a1	-0.031791333
160	0x3ceef8d1	0.02917138
161	0xbcc0dd86	-0.02354313
162	0x3d582c47	0.0527766
163	0xbddc3975	-0.107531466
164	0xbd65e43c	-0.056125864
165	0x3d874ab2	0.06606044
166	0xbc83bf1f	-0.016082345
167	0x3d88256d	0.066477634
168	0x3dabe753	0.08393731
169	0x3d71bb80	0.059016705
170	0x3c14d564	0.009084079
171	0x3d25e540	0.040501833
172	0xbdcaa0bc	-0.09893939
173	0xbdc58316	-0.09644143
174	0xbd50a8c1	-0.050942186
175	0xbccb7662	-0.024836723
176	0xbd6bab22	-0.05753625
177	0xba99c143	-0.001173057
178	0xbc90391b	-0.017605355
179	0x3da22925	0.07918004
180	0x3dff134e	0.12454854
181	0xbca9860a	-0.020693798
182	0x3b8ce697	0.0042999494
183	0x3dd627c2	0.10456802
184	0x3dd0bde9	0.101924725
185	0xbbeefbf8	-0.0072932206
186	0xbd328728	-0.043585926
187	0x3dd1f1fa	0.102512315
188	0x3cdcfb63	0.02697534
189	0xbced0163	-0.028931325
190	0x3cce7c4f	0.02520576
191	0xbd151c5e	-0.036404006
192	0x3d9fddaa	0.07805951
193	0xbd86f487	-0.06589609
194	0x3c218266	0.00985775
195	0x3dc63c8f	0.096795194
196	0xbd257b54	-0.040400818
197	0x3c92c32f	0.017915336
198	0xbdbf0ffb	-0.0932922
199	0xbdf09f82	-0.11749174
200	0x3e389be2	0.18028215
201	0xbced6c3d	-0.028982276
202	0xbe149acf	-0.1451218
203	0xbcf3253e	-0.029680844
204	0x3d941355	0.0723025
205	0xbd0e01b0	-0.034669578
206	0x3d8d6b0f	0.069051854
207	0x3e11d421	0.14241077
208	0x3d925fee	0.071472034
209	0x3d4e8e3a	0.050428607
210	0xbdfd93c5	-0.123817004
211	0xbc8efdd9	-0.017455028
212	0x3cec693c	0.028858773
213	0xbd4f44fb	-0.050602894
214	0xbd866ba7	-0.06563502
215	0x3da4a05b	0.08038398
216	0x3e1ac5b0	0.15114474
217	0xbd9e8e1c	-0.07741949
218	0xbd205dde	-0.03915202
219	0x3dce8687	0.10084253
220	0x3dde6aaa	0.10860188
221	0xbc8da293	-0.017289435
222	0x3e1071a8	0.14105856
223	0xbdc00b32	-0.09377135
224	0x3d5dc061	0.054138545
225	0xbde08a08	-0.10963827
226	0xbda92ed6	-0.08260886
227	0xbcbd94fd	-0.023142332
228	0x3dbb0ab3	0.091329
229	0xbde508e4	-0.111833364
230	0x3da6c1e3	0.0814245
231	0x3cdc73dd	0.026910717
232	0xbd355bbc	-0.044276938
233	0xbd8bf559	-0.06833906
234	0xbcf92586	-0.0304134
235	0x3d8d4fe5	0.06900004
236	0xbce69045	-0.028144965
237	0xbd79c86b	-0.06098215
238	0x3de1e3d3	0.11029782
239	0x3ba6901a	0.005083096
240	0x3d53e74e	0.05173426
241	0xbd9329ea	-0.07185729
242	0x3dbc50a2	0.09195067
243	0x3d6feecf	0.058577355
244	0x3d88bce9	0.06676657
245	0xbda419b1	-0.08012713
246	0xbd32b2a9	-0.043627415
247	0xbe2be883	-0.16787915
248	0x3dc0de2c	0.09417376
249	0xbcfa3240	-0.03054154
250	0xbba1dc64	-0.0049396027
251	0xbd7b6c30	-0.061382473
252	0x3d0a54a3	0.033772122
253	0xbd566880	-0.052345753
254	0x3d7a9aa3	0.06118263
255	0x3dccafa4	0.09994438

transformer.layers.0.linear1.bias f4 [128]
0	0x3c827045	0.015922675
1	0xbdea05ff	-0.11426925
2	0xbdd6baa1	-0.104848154
3	0xbe0af738	-0.13570869
4	0x3e0e42bb	0.13892643
5	0x3d980152	0.07422127
6	0xbdcd50c2	-0.10025169
7	0x3d53b003	0.05168153
8	0xbdd92405	-0.10602573
9	0xbe29ac3b	-0.16569607
10	0x3d4d5198	0.050126642
11	0xbe0daa32	-0.13834456
12	0x3c0a23cc	0.008431386
13	0xbe15a636	-0.14614186
14	0xbcb80f9b	-0.022468379
15	0xbc9de632	-0.019274805
16	0xbc5809c2	-0.01318592
17	0x3db62e45	0.08895544
18	0x3c693fdb	0.014236416
19	0x3c542a83	0.012949589
20	0x3c2b4af2	0.01045488
21	0x3d258f7d	0.040420044
22	0xbe17b481	-0.1481495
23	0xbd944a08	-0.07240683
24	0x3cfb7852	0.030697022
25	0xbe0dd10f	-0.13849281
26	0xbc1b6671	-0.009484873
27	0xbd0a605e	-0.03378331
28	0xbe23c72e	-0.1599395
29	0xbe167feb	-0.14697234
30	0xbdcc00ec	-0.09961113
31	0xbdde196b	-0.10844692
32	0xbdeed6c1	-0.11662055
33	0x3c179744	0.009252373
34	0xbd6fc2bb	-0.05853532
35	0xbdd46c3c	-0.103722066
36	0x3ce5c744	0.028049119
37	0xbdfa5f6e	-0.12225233
38	0xbde5aef2	-0.11215009
39	0xbdf346ad	-0.11878715
40	0xbd454921	-0.048165444
41	0xbdb227be	-0.086989865
42	0xbe0dcd1f	-0.13847779
43	0x3c2a7be1	0.010405512
44	0xbc58e201	-0.013237477
45	0xbd127e12	-0.03576476
46	0xbdbd4a8c	-0.09242734
47	0x3d85c92e	0.065325126
48	0xbe07ebc8	-0.13273537
49	0xbdf04b97	-0.117331676
50	0xbdfaf244	-0.1225324
51	0xbe27719b	-0.16351931
52	0xbe0dc8ea	-0.13846174
53	0xbdc413f5	-0.09574119
54	0x3b906408	0.004406456
55	0xbda90915	-0.082536854
56	0xbdf6076b	-0.120131336
57	0xbde91a1c	-0.11381933
58	0x3d064bd6	0.032787167
59	0xbd72a107	-0.0592356
60	0xbbc5a4f8	-0.0060316287
61	0xbc8a1e8f	-0.016860275
62	0x3d4a5970	0.0494017
63	0x3d4d2f81	0.05009413
64	0x3db3a0b3	0.08770885
65	0xbd21a19d	-0.039460767
66	0x3ccd1b68	0.025037482
67	0xbdd78c4a	-0.10524805
68	0xbc4306a4	-0.011903439
69	0x3d7d67ee	0.061866693
70	0xbdf6beeb	-0.120481335
71	0x3d199aa6	0.037501
72	0x3b35a906	0.0027719154
73	0xbd0ede24	-0.03487982
74	0x3d953a38	0.07286495
75	0x3baaa725	0.0052079135
76	0xbde7acbf	-0.113122456
77	0x3d3e0342	0.046389826
78	0x3d131144	0.035905138
79	0x3cad921d	0.021187836
80	0xbcf1d3a8	-0.02951987
81	0xbe053a17	-0.13010441
82	0x3d666646	0.05624988
83	0xbdd280c0	-0.10278463
84	0xbd6ab9be	-0.057306044
85	0xbd28693e	-0.04111599
86	0xbdd3b586	-0.10337357
87	0x3d69b3ac	0.057056114
88	0xbcab6b7e	-0.02092528
89	0xbca25eea	-0.01982065
90	0x3ba8f3a2	0.0051559964
91	0x3d8b575e	0.06803773
92	0xbdbbaa87	-0.09163385
93	0xbd848457	-0.06470554
94	0x3cf5476b	0.029941281
95	0x3c334acc	0.010943126
96	0x3c84db74	0.016217925
97	0xbceacb1c	-0.028661303
98	0x3c92095f	0.017826734
99	0xbc9573b4	-0.018243648
100	0xbd97d024	-0.074127465
101	0x3d568008	0.052368194
102	0xbe10f822	-0.14157155
103	0x3c6ecb43	0.014574829
104	0xbde0d63a	-0.109783605
105	0xbdcacc85	-0.0990229
106	0xbdf6f1d7	-0.12057846
107	0x3d354009	0.04425052
108	0xbe3005bd	-0.17189689
109	0xbe124fa7	-0.14288197
110	0xbd858812	-0.06520094
111	0x3c936dc7	0.017996682
112	0xbdc01398	-0.09378737
113	0x3ba62ae4	0.005071031
114	0xbd0d7b78	-0.034541577
115	0xbdd7e406	-0.10541539
116	0xbd056c24	-0.032573834
117	0xbdea1392	-0.11429514
118	0xbd53ac56	-0.051678024
119	0xbd52bbfe	-0.051448815
120	0x3d3e5f57	0.046477642
121	0x3bc13a7a	0.0058968635
122	0xbb10e4fb	-0.002210914
123	0x3b8d3e02	0.0043103704
124	0xbd916a93	-0.071004055
125	0xbd825c13	-0.06365218
126	0xbde52eaf	-0.11190545
127	0xbdb08248	-0.08618599
