data/processed/model_20250729_222100/best_token_root_head.pth (torch, 2573 bytes, 2 tensors)

weight f4 [2, 64]
000000 b0 0b 36 bc e8 1d c5 3b 6a 84 df bd 5e b6 18 bd
       -0.011111185 0.006015528 -0.10913928 -0.037283294
000010 9b 9d 80 3d f2 c0 15 bd ed 65 f3 bd 8f 98 46 3d
       0.06280061 -0.03656096 -0.11884675 0.048485335
000020 54 56 85 3d a4 4c a1 bd 2a cb 3e bd 6f 98 b1 3b
       0.065106064 -0.07875946 -0.04658047 0.005419783
000030 53 09 87 bd 5e 3a 18 3e 5f 67 65 bd fe 8f 5a bd
       -0.06593575 0.14866015 -0.056006785 -0.053359978
000040 ac 43 46 bd 7f 81 02 bd a2 21 f4 3d 8d 12 c0 bd
       -0.04840438 -0.03186178 0.119204774 -0.09378538
000050 5f 12 52 3b d6 a2 be ba c7 fc 7c bd 52 50 d1 bd
       0.0032054407 -0.0014544379 -0.061764505 -0.10220398
000060 83 04 c1 bd af f9 89 3d 08 7a 06 bd 39 f6 03 be
       -0.09424689 0.067370765 -0.03283122 -0.12886895
000070 0a ab 2a 3d 11 33 e4 3b 7c 46 44 bd 81 67 ca 3d
       0.04166702 0.0069640954 -0.04791878 0.09883023
000080 53 cf 2a bd b5 b8 dc 3d e8 bb e8 bd c1 1c 9d 3d
       -0.041701626 0.107774176 -0.11363965 0.076715
000090 80 2a 82 bd 2c 0c 2b bd 5a e8 11 bc f1 0c fb 3d
       -0.063557625 -0.041759655 -0.008905495 0.12258328
0000a0 b2 39 3f be c9 0e a4 39 eb f1 00 bd 10 1d 8d bb
       -0.18674353 0.00031291533 -0.03148071 -0.004306443
0000b0 43 6f 8c bc 7b 31 b8 bd 57 e3 e3 bc 3b c4 65 3d
       -0.017142897 -0.08993813 -0.027818365 0.056095343
0000c0 0d 2f 63 3d c8 36 d6 3d 0d 04 8c bc 18 3b 85 3d
       0.055464793 0.104596674 -0.017091775 0.06505412
0000d0 cb 47 87 bd e6 40 84 3d a2 e0 d2 bd a4 08 37 3e
       -0.0660549 0.06457691 -0.102967516 0.1787439
0000e0 f6 b1 18 bc b1 34 c0 bd 41 ed cd bc dd a3 07 bc
       -0.009319773 -0.0938505 -0.025137546 -0.008278814
0000f0 e1 0d 06 bd bc 2c 8b 3d 9b 76 c6 3b 46 d9 cd 3d
       -0.03272808 0.06795642 0.0060566193 0.10051207
000100 e2 2f 11 bc f3 09 69 3d bd 1e 70 bd c0 f0 5e 3d
       -0.008861514 0.056894254 -0.058623064 0.054428816
000110 f9 e3 80 3c 97 20 c8 3d 43 5c 36 3d eb 53 99 3d
       0.015733706 0.09771841 0.04452158 0.07486709
000120 27 fc e6 3d ea d5 17 bd d2 b5 bb bd 9f 6d 27 bc
       0.11278563 -0.03706924 -0.09165539 -0.010219007
000130 8b f3 3f 3d d0 05 9a bd 99 44 a9 bd a4 19 90 3d
       0.04686312 -0.0752064 -0.08265037 0.070361406
000140 c4 ae 24 3d 5f 58 3d bc 11 41 a9 bd 01 9a 0a 3c
       0.040205732 -0.011556714 -0.082643636 0.008459569
000150 3c c1 4e 3d 87 fd ba bd c2 40 fd bc e7 ea e9 3c
       0.05047725 -0.09130388 -0.030914668 0.028554393
000160 20 79 8b bb 2f c2 09 be 19 c6 c1 3b 89 53 89 3d
       -0.0042563826 -0.13452981 0.0059135077 0.06705386
000170 73 17 e1 3c 86 03 b0 bd f6 91 f8 3d 4f d3 c4 bb
       0.027477002 -0.08594422 0.12137215 -0.0060066353
000180 ae f7 00 3d ae bd 1f be 56 2e a7 3d df 15 f1 bc
       0.031486206 -0.15599701 0.08163135 -0.029429374
000190 60 13 ab 3d 2d fa 74 bd 7e 39 81 3d 35 bb 99 bd
       0.08353305 -0.0598089 0.06309794 -0.0750641
0001a0 cb 90 ac 3d 01 88 e9 bd 23 5f cc 3d 7a 55 39 be
       0.084260546 -0.11402894 0.099790834 -0.18099013
0001b0 4a e4 91 bc 57 70 9d 3c 27 d2 c3 3d 65 45 65 3d
       -0.017809052 0.019218607 0.09561568 0.055974383
0001c0 d4 0a 0a 3e c5 20 2f 3d 4b fc f0 3d ef a1 d9 bd
       0.13480693 0.04275586 0.11766871 -0.106265895
0001d0 8b 0a d7 3d 6c 74 c0 3d 20 87 d9 bb 00 a2 c2 bd
       0.10500058 0.09397206 -0.0066384226 -0.09503555
0001e0 21 b1 ee bb 3a 76 86 bd a3 13 2b bd d3 bb a1 3c
       -0.007284299 -0.06565519 -0.041766774 0.019742882
0001f0 fd d0 3f 3c a6 64 14 3d e4 63 f6 3c b8 ff 8f bd
       0.0117075415 0.0362288 0.030076928 -0.07031196

bias f4 [2]
000000 fa 98 82 bd 64 d4 2f 3d
       -0.06376834 0.04292716
