data/processed/model_20250729_222100/best_gnn_model.pth (torch, 917511 bytes, 220 tensors)

lin_dict.core.weight f4 [64, 3]
000000 f0 f4 95 be 04 89 04 3f cd 9c 77 3d 1b 49 ed be
       -0.29288435 0.5177157 0.06045227 -0.46344838
000010 b0 9d 0b 3f 38 0a ae be 30 72 00 bf 06 22 5f bd
       0.5453749 -0.3399217 -0.50174236 -0.054475807
000020 8e c4 cd be b8 b6 a1 3d 33 8a 2d be cc fe 68 be
       -0.40189022 0.07896179 -0.1694725 -0.22753447
000030 0c 4e d3 3e f9 fc 4f 3c 8b 02 fd 3d bc 06 07 be
       0.41270483 0.012694591 0.12354001 -0.13186163
000040 7b 3e a7 3e dd 8f f4 3a 0b c8 cd 3e 4b 5a 8c 3e
       0.32664856 0.0018658597 0.40191683 0.27412638
000050 e5 da 09 be 08 74 82 3d f7 92 f1 be c9 c3 fe be
       -0.13462408 0.063697875 -0.47182438 -0.49758747
000060 19 7a c9 3e af 1e 5b 3e 16 d1 8f bd 18 f6 a0 be
       0.39350966 0.21398424 -0.07022302 -0.31437755
000070 cd 41 1a be 29 90 b7 3d 5a ae 01 3f 1a 1b b6 be
       -0.15064164 0.08963043 0.50656664 -0.35567552
000080 38 c3 32 be 37 af d5 3e 6c 24 e8 3e de 7e 74 be
       -0.17457283 0.4173524 0.45340288 -0.23876521
000090 c3 57 0a bf 3f 65 da 3e ab 0f 3d 3e 2c e7 08 bf
       -0.54040164 0.4265537 0.18463008 -0.5347774
0000a0 4d 95 b4 3e 00 b7 fc 3e 5d f9 ff 3d 96 0d 64 bd
       0.35270157 0.49358368 0.12498734 -0.05567702
0000b0 22 a6 0a bf 6b 55 38 3e b4 60 05 bf af 54 8e bd
       -0.5415975 0.18001334 -0.5210068 -0.06949746
0000c0 66 74 13 bf 35 ab 3a be bc c7 a4 bd 30 22 ac 3e
       -0.57599485 -0.18229373 -0.08045909 0.33619833
0000d0 0d 82 e6 3e 40 77 6f 3e 8e 83 23 3e e7 0f bd be
       0.45021096 0.23385334 0.15968153 -0.36926195
0000e0 04 c8 d6 3e 2d af 9e be 5b 4a 12 bf 03 9e 96 be
       0.41949475 -0.30993024 -0.5714471 -0.29417428
0000f0 3c ed af 3e c3 50 c7 be cb aa 11 bf bf e8 9d 3e
       0.34360683 -0.38928804 -0.56901234 0.30841634
000100 f0 b6 24 3e 8d 27 0c 3f a3 06 96 3c e2 64 d5 3b
       0.1608541 0.5474785 0.018313712 0.0065122703
000110 1e ca a4 bc b5 35 03 bf d3 93 d3 bd 8d 6e a0 3e
       -0.020115908 -0.51253825 -0.103309296 0.31334344
000120 37 5b dc 3e 3c b7 2d 3e 8d d1 8d 3d fe 53 bb 3e
       0.4303834 0.1696443 0.06924734 0.36587518
000130 c6 f0 49 3e d2 c7 35 be 38 60 02 3f d4 d8 fa 3d
       0.19720754 -0.17752007 0.5092807 0.12248388
000140 79 87 f7 3d 7d 8f 0b bf 1c 9c 6d bd ee d7 7f 3e
       0.12086386 -0.5451582 -0.058010206 0.24984714
000150 19 8a 11 bf 0e 21 e5 3d 7f 61 92 bb 5e e9 23 be
       -0.56851345 0.11187945 -0.004467189 -0.16006991
000160 66 7e 8e be b7 48 b9 bd 2d b3 17 be 58 0d 03 bf
       -0.2783081 -0.090470724 -0.14814444 -0.51192236
000170 e8 86 0a bf cd 11 01 3f 09 37 f7 3e a3 e9 fe be
       -0.541121 0.50417787 0.48284176 -0.49787626
000180 10 70 07 3f d8 a7 ea 3e c7 f5 fc be 55 5e f0 3e
       0.5290537 0.4583118 -0.49406263 0.4694697
000190 ae 8c f5 3e 8c 11 b3 3e ad ec 18 be 66 39 a2 be
       0.47958893 0.34974325 -0.14934035 -0.31684417
0001a0 0f bf a3 be ca bd dd 3e ac 42 ed be c0 18 c4 3e
       -0.31981704 0.4330886 -0.4633993 0.38300133
0001b0 8b 36 81 be 43 8a 53 be 16 6d 68 3e 25 c7 9f 3e
       -0.25236925 -0.20658211 0.22697863 0.31206623
0001c0 1d ca 9e 3e 92 ab e2 be b7 31 3f 3e bd d5 cd be
       0.31013575 -0.44271523 0.18671308 -0.40202132
0001d0 46 10 af be 3b 08 02 3e 35 f7 8f 3e 3e a1 b0 3d
       -0.34192103 0.12698452 0.28118291 0.086245045
0001e0 ac 2a 1d 3d f3 41 d1 bd 11 5b ca 3e 22 dd bd 3e
       0.038370773 -0.10217657 0.39522603 0.37082773
0001f0 05 a9 d6 3e fd c7 f1 3b 80 39 a2 be 50 1c f9 3e
       0.41925827 0.007378577 -0.31684494 0.48654413
000200 fc 4c d4 3e bd 38 ab 3e 16 e5 b6 be 8d 3c da be
       0.41464984 0.33441725 -0.35721654 -0.42624322
000210 2a a0 f7 be 31 28 db be 9f ac 08 bf a2 9b 0c bf
       -0.48364383 -0.428041 -0.533884 -0.54924977
000220 49 9d 82 3e 62 1c 1d bd ff 92 20 be 2a c9 11 3e
       0.25510624 -0.038357146 -0.15681075 0.14236894
000230 0e 45 c8 3e 9f 4c aa 3d a1 2a db be fa 32 98 be
       0.39115185 0.083153956 -0.4280596 -0.29726392
000240 cb 5d 3e be 0b 5d f2 3e 4c 72 49 be ff f4 8d be
       -0.18590467 0.4733661 -0.19672507 -0.2772598
000250 e4 86 8a be b3 66 8e be d0 fc 85 be 5f da 00 3f
       -0.27056038 -0.27812728 -0.26169443 0.5033321
000260 20 f7 1b 3e 57 81 93 3d ab d9 94 3e f9 f8 58 3e
       0.1523099 0.07202404 0.29072317 0.21188726
000270 f8 fa 1d be 31 f1 f4 3e e8 0d c6 be be c3 ff bd
       -0.15427768 0.47840264 -0.38682485 -0.12488507
000280 7f 69 9d 3e 27 ec f9 3e 79 16 f2 3d b9 e4 12 3f
       0.3074455 0.48812982 0.118206926 0.57380253
000290 de 50 33 3e 01 31 4a be 59 7f e1 3e 2c 52 d4 3e
       0.17511317 -0.19745256 0.4404247 0.41468942
0002a0 97 9b 0e 3e b6 0a 00 bf a0 25 9f 3d 50 80 14 be
       0.1392654 -0.50016344 0.07770848 -0.14502072
0002b0 ef cc 0e bf 9a 94 21 3e 7a 34 0e 3f d9 61 d3 3e
       -0.55781454 0.15779343 0.5554882 0.4128559
0002c0 e3 aa fe 3e 05 d7 29 3e 8b bf 01 3f 8a 15 94 be
       0.4973975 0.1658593 0.50682896 -0.28922683
0002d0 b7 84 93 3e 80 49 15 be 90 32 58 3e 20 fb 92 be
       0.2881219 -0.1457882 0.21113038 -0.28707218
0002e0 87 33 16 3a db 4b 06 be 72 21 5c 3e 3d d7 c2 3e
       0.0005729724 -0.13114874 0.21497133 0.3805484
0002f0 70 af d1 be c0 cb 15 3e af 55 98 3e d3 fe 87 be
       -0.4095416 0.14628506 0.2975287 -0.26561603

lin_dict.core.bias f4 [64]
000000 d6 6c b8 be 5d 65 87 bd 31 54 fd be 5f 93 f3 3e
       -0.36020535 -0.066111304 -0.49478295 0.47573373
000010 ca 71 ec 3e a0 e2 99 3e 43 02 0a bf fb 85 c7 3e
       0.46180564 0.30055714 -0.539097 0.38969406
000020 f7 ce 29 be 43 74 e5 be cc 98 da bd 63 72 d2 3e
       -0.16582857 -0.44815263 -0.10673675 0.41102895
000030 88 86 cd 3e 0e 29 0b 3f 80 e6 10 bf 92 75 b6 3d
       0.40141702 0.5435952 -0.56601715 0.089091435
000040 07 90 5a be d4 02 70 3e 69 8d ca 3d 6c a3 9b 3d
       -0.21344005 0.23438579 0.09890253 0.075995296
000050 16 70 24 be c7 d1 e3 3e e2 08 09 be 70 af 49 3d
       -0.16058382 0.44495985 -0.13382295 0.049239576
000060 14 f9 c7 3e 26 e8 03 3f 83 77 05 3f ec e5 a0 3e
       0.3905722 0.51526105 0.52135485 0.31425416
000070 82 21 89 3e 5b d9 09 bf 79 99 b9 3e 25 8f 08 3f
       0.26783377 -0.53847283 0.36249903 0.5334342
000080 05 3d 13 3d bd 9c e7 be 41 3c f8 3e f6 28 b2 3e
       0.035946865 -0.4523677 0.4848347 0.34796876
000090 82 3a 25 bb 2c 0c 83 3e 9e 07 e8 be 09 3c 67 be
       -0.0025211875 0.25595224 -0.4531831 -0.22581495
0000a0 5c 3a fd 3e ce 88 71 bd 43 dc 91 3d e2 4f bf 3e
       0.49458587 -0.058968358 0.0712209 0.37365633
0000b0 82 2a ec 3d 8d 9a 5b bd 0d bd 64 3d 00 16 0c 3f
       0.11531545 -0.053614188 0.055844355 0.5472107
0000c0 54 c6 9a be e6 4c 8e bd 94 04 ad be 99 e6 9f 3e
       -0.30229437 -0.06948261 -0.33792555 0.3123062
0000d0 8a 06 09 3f 6b b2 cd 3e 4d 5e 11 be f4 d8 cf 3e
       0.535256 0.40175185 -0.14196129 0.4059521
0000e0 bd 89 ec be 12 63 01 3f c2 ab ce be 75 98 0e bf
       -0.46198836 0.50541794 -0.40365416 -0.5570138
0000f0 3f 0d 33 be d6 cd bd bc db 21 2a be a1 e9 03 3f
       -0.17485522 -0.02316944 -0.16614477 0.51528364

lin_dict.agg.weight f4 [64, 3]
000000 88 98 d9 be b3 25 a5 3e 35 ac f5 bd fe d2 d6 bd
       -0.42499185 0.32255325 -0.119957365 -0.10489462
000010 9e dd 04 3f c2 8d cc be 47 56 05 3f 45 e5 23 3e
       0.5190066 -0.39951903 0.52084774 0.16005428
000020 d3 9c 9c 3d 9e aa b1 be bc 82 7f be 59 cd 07 3f
       0.07647099 -0.34700483 -0.24952215 0.5304771
000030 40 3c ec be 4d bc 42 3e ff d0 12 3d 40 cb 13 3f
       -0.46139717 0.19017144 0.035843845 0.5773201
000040 c3 f8 9f 3e 27 df 09 bd f6 e9 fc 3e 40 da a6 be
       0.31244478 -0.03366008 0.49397248 -0.32588387
000050 72 85 de be 81 9e 0e 3f ed 31 ff bc 40 f1 a3 be
       -0.43461186 0.5571061 -0.031151736 -0.32019997
000060 be 55 d4 3e b1 66 09 3f 59 ba 07 3f ca 90 b4 be
       0.41471666 0.5367232 0.5301872 -0.35266715
000070 9e 3a 60 bd 66 aa 04 bf 24 58 01 bf f0 63 b6 bd
       -0.0547434 -0.5182251 -0.50525117 -0.0890578
000080 18 c9 12 bf b7 19 20 be d3 5c c7 3e d8 31 cd 3e
       -0.57338095 -0.1563481 0.38938007 0.4007709
000090 30 4f c0 be 94 d8 4c 3d d4 af 02 3f 10 40 f3 3d
       -0.37560415 0.050011232 0.5104954 0.11877453
0000a0 76 2d ac 3e e7 2c 13 be 48 75 6d 3d 26 1d 70 be
       0.33628434 -0.14372598 0.057973176 -0.23448619
0000b0 9d 33 41 3e 6b 9a 83 be 30 10 9b 3d 51 53 b0 3e
       0.18867345 -0.2570375 0.07571447 0.34438565
0000c0 06 49 a2 3e 2b 37 46 be 56 19 f9 be c3 5a 04 3f
       0.31696337 -0.19356982 -0.48652142 0.5170099
0000d0 fc 33 4f bd d1 4f d5 be 67 7f 09 bf 6d 61 96 3d
       -0.050586686 -0.41662458 -0.53710026 0.07342801
0000e0 d4 40 e8 be cf 63 2e 3e bc bb 87 3e 19 9f b3 bd
       -0.4536196 0.17030261 0.26510417 -0.0877058
0000f0 ce f5 a0 be 90 95 a7 3d 2a 55 69 3d 1b 2c 82 be
       -0.31437534 0.08182824 0.056965984 -0.25424275
000100 f9 d8 93 be 43 14 7b bd 0f e6 4d bd e3 31 b0 3d
       -0.28876474 -0.06129862 -0.05026823 0.08603265
000110 bf 33 04 bf 22 4b ed bd a9 fc 2d 3e b6 17 67 be
       -0.5164146 -0.11586596 0.16990913 -0.22567639
000120 9c 65 86 3e 69 79 36 bb aa 54 ca be 76 5c b6 be
       0.26249397 -0.0027843362 -0.3951772 -0.35617417
000130 25 d9 af 3e 58 d3 14 3b c9 3f f7 be 37 b8 b9 3c
       0.34345356 0.0022708979 -0.48290852 0.022670848
000140 56 32 5f 3d aa 37 90 3e bd e7 39 3e 65 6b ca 3e
       0.054491363 0.28167468 0.18154807 0.3953506
000150 72 e7 fe 3d f5 95 ef be eb 1c bb be 06 32 d8 bd
       0.124464884 -0.46794096 -0.365455 -0.10556416
000160 8e 88 d8 ba 7a a1 d7 be 2f 2a ca 3d d1 1e b3 3d
       -0.0016520189 -0.42115384 0.09871327 0.08746112
000170 e1 b8 4d 3e 80 a8 df be 99 54 c7 3d f6 03 72 3d
       0.20090057 -0.43683243 0.097329326 0.05908581
000180 35 2d 9a be 6e 75 e8 3e 3a 6e e3 3e 4b 26 02 3f
       -0.30112615 0.45402092 0.44420034 0.5083968
000190 2a d6 b7 be df 04 4b be be 9e a2 bd a3 9e 8d 3d
       -0.35905582 -0.19826077 -0.07940434 0.06915023
0001a0 9a f3 dc 3e 5b ee 66 3c ad fe 0f 3f e6 d5 fc be
       0.43154603 0.014094914 0.5624798 -0.49381942
0001b0 c3 d8 e7 3b 7c 3e c3 be ca 4f 55 3e 66 11 22 be
       0.0070754006 -0.3813361 0.20831218 -0.1582695
0001c0 39 cc b6 3d af ea ef 3e 58 89 de be f9 8b 66 be
       0.08925671 0.46858737 -0.4346416 -0.22514333
0001d0 65 c6 33 be d6 78 b9 3e 0c 8f 58 3d 5e ac 0b 3e
       -0.1755615 0.36225003 0.052870795 0.13639972
0001e0 a6 69 04 bf 35 b8 75 be 10 1a 8a be 2a ed 48 be
       -0.51723707 -0.2399605 -0.2697301 -0.19621721
0001f0 d1 68 81 3e d7 d8 58 3e a6 6b ef bd 49 8e ea 3e
       0.2527528 0.21176468 -0.11690454 0.4581168
000200 1a d7 03 3d 47 62 66 3e cc 37 41 be c8 59 d0 3d
       0.03218756 0.22498427 -0.18868941 0.101733744
000210 4f ba ba be b8 f2 e0 3d be 1a e9 3e 1d 12 96 bd
       -0.36470267 0.10983795 0.45528215 -0.073276736
000220 3b b7 a7 3b 97 59 0d be b7 23 57 be 90 40 a4 be
       0.0051182783 -0.13803707 -0.21009718 -0.32080507
000230 f9 62 b3 be 96 d6 74 3e 51 8a d3 be 12 19 f0 be
       -0.35036448 0.23909983 -0.41316465 -0.46894127
000240 90 ce ec 3e 63 02 a1 3e b1 34 b1 3e ae 9a aa be
       0.46251345 0.31447133 0.34610513 -0.33321136
000250 b2 f9 23 bc 44 ac 08 3f 96 08 13 be 4b c2 2c 3e
       -0.0100082625 0.53387856 -0.14358744 0.16870992
000260 88 70 b2 3e 3b 4e e1 3e a4 51 4a be 90 7b 07 3f
       0.3485148 0.44004998 -0.19757706 0.52922916
000270 c6 46 44 be 1e d9 02 3f b0 ac 94 3e 5a 9a 81 be
       -0.19167623 0.51112545 0.29038 -0.25313073
000280 91 33 13 bf b5 c2 10 bf 3e ed 69 be e0 ee 0f bf
       -0.5750056 -0.565471 -0.22844407 -0.5622387
000290 c8 6c dc 3e ea 88 d8 3d a0 2b 05 3f 3e 9b eb 3e
       0.43051744 0.10572989 0.5201969 0.46016878
0002a0 15 67 03 3f 61 0f fa be ac d6 ac 3e b9 13 9d 3e
       0.51329166 -0.48839858 0.33757532 0.3067911
0002b0 a7 0f c0 3e e2 38 f5 bd a6 8f 76 3e 27 95 03 bf
       0.37511942 -0.1197374 0.24078235 -0.51399463
0002c0 6d 22 8f be a1 31 b5 be 34 52 65 3d 26 25 b1 be
       -0.27955952 -0.35389426 0.055986598 -0.34598655
0002d0 f2 30 11 bf 38 85 42 be ec d5 5c 3d 1a df f0 bd
       -0.5671531 -0.18996131 0.05391495 -0.11761303
0002e0 0f 3a fc 3e 5d 7f 06 bd 99 24 e0 3e ae c5 a5 be
       0.49263045 -0.032836307 0.43777922 -0.3237738
0002f0 4a e7 0b 3f 99 ff f7 3e 67 70 c8 3e 32 27 0e bf
       0.54649794 0.48437193 0.39148256 -0.5552856

lin_dict.agg.bias f4 [64]
000000 d5 91 78 3e fb 57 e2 be 30 62 e5 3e c9 72 00 bf
       0.2427438 -0.4420775 0.44801474 -0.5017515
000010 a3 75 08 3f 70 10 70 be 7e 9f 0b bf 6e 3c 61 3e
       0.533045 -0.2344377 -0.5454024 0.21995708
000020 d1 fe a0 3d 1c 96 ff be 13 4c 94 3e 35 37 db 3e
       0.07861102 -0.49919212 0.2896429 0.42815557
000030 ba 7f a8 be 4b 71 b2 be 7d 91 c8 3e 0d 85 9d be
       -0.32909948 -0.3485206 0.391735 -0.30765572
000040 f4 ca da 3e 98 69 4f 3e b2 01 17 be 5d 5c ed 3e
       0.42732966 0.20255125 -0.1474674 0.4635953
000050 9d 36 b9 3e 7f 31 f8 3d 0b 03 c9 3e fa c5 94 be
       0.3617448 0.12118816 0.39260134 -0.29057294
000060 ea ea 0f 3e b7 bb b9 be 75 4e 0b bf c2 7d af be
       0.14054456 -0.36276028 -0.5441659 -0.34275633
000070 61 f2 5b bd 44 7e d1 3e 2d ec 99 be 19 a1 e4 be
       -0.053697947 0.40916646 -0.30063 -0.44654158
000080 6e 28 0f 3f 63 21 fd be 8d bb 5a 3e c4 de 06 3f
       0.55921066 -0.49439535 0.21360607 0.52683663
000090 a6 c2 87 3e e9 97 de 3e cb 31 6b be 54 9d 10 3f
       0.26515692 0.43475273 -0.22968213 0.56490064
0000a0 42 0f fa 3c 8f 6b 09 bf 5a 7e 83 bd b9 c5 a2 bd
       0.030524854 -0.53679746 -0.06420584 -0.07947869
0000b0 d8 61 5b 3e 4e 0a b4 be 59 9a 16 3e 51 72 af bd
       0.21424043 -0.35164112 0.14707316 -0.08566726
0000c0 b8 7b b5 3e 41 d5 53 3e 76 80 a2 3e 07 66 92 3e
       0.35445952 0.20686819 0.31738633 0.28593466
0000d0 1f 2d a6 be 87 57 e2 3e 3c 4d 97 be 1c 1d 03 be
       -0.324563 0.44207403 -0.29551113 -0.12804073
0000e0 c0 fa 9c 3e ad f8 04 be 0b 52 09 3f b8 c8 09 bf
       0.30660057 -0.12985487 0.5364081 -0.538219
0000f0 ad d1 c9 3e ae d7 f5 3d ab 1e 72 be 43 f6 d9 be
       0.39417782 0.12004028 -0.23644511 -0.42570695

lin_dict.access.weight f4 [64, 3]
000000 2a 0a c4 be c1 51 d1 3d 87 05 38 be da 6a bb be
       -0.38289005 0.102206714 -0.17970859 -0.3660496
000010 2c 47 8f bd c3 17 a3 be 0b a2 11 bf 29 4c 09 bf
       -0.06995997 -0.31854066 -0.5688788 -0.53631836
000020 2f 35 c2 3d 9b ab 01 bf 38 53 ef 3e 74 cd 55 3e
       0.094828 -0.50652474 0.46743178 0.20879155
000030 7d bf 85 be 03 4f 51 bd e0 92 bf bc a6 d3 f9 3d
       -0.26122656 -0.051100742 -0.023385465 0.12198572
000040 99 e6 0a bf b8 0d 20 be 2c 10 3b 3d 83 50 ec be
       -0.54258114 -0.15630233 0.04566972 -0.46155176
000050 3b 83 72 3e d8 fd be 3d 5b 69 3d 3e 4a 8e 0a 3f
       0.23682873 0.093257606 0.18497221 0.54123366
000060 b6 55 d9 be 43 08 f0 be 85 8b b1 be 6e 4c 50 bd
       -0.42448205 -0.46881303 -0.34676757 -0.05085414
000070 69 e8 54 3e 39 9f cd bd 53 a4 07 3f 76 4a 02 be
       0.20791782 -0.10040135 0.52985114 -0.12723717
000080 b3 73 f5 3d 10 57 57 be bc 00 0e 3e 20 35 fc be
       0.119849585 -0.21029305 0.13867468 -0.4925928
000090 7a 4f 7d 3e d8 52 76 bd 7e 0d c4 3c b4 6c b2 3d
       0.24737349 -0.0601376 0.023932215 0.0871214
0000a0 e7 15 04 3f f0 9f d0 3e f5 6b ce 3e bb 76 b8 3e
       0.5159592 0.40747023 0.4031674 0.36028084
0000b0 15 96 d2 3b 4e 88 de 3a f0 8f dd 3d 0a 65 01 3f
       0.0064265826 0.0016977878 0.108184695 0.505448
0000c0 6a fc 9e bd ba 9c c3 3e ce c7 6a 3e eb ad 97 be
       -0.07762988 0.3820551 0.22927782 -0.29624876
0000d0 50 23 0e bf 49 03 68 3e bc 36 f4 3e 8e 0b e4 3e
       -0.5552263 0.22657503 0.4769801 0.44540066
0000e0 f7 e6 9f 3e fb 57 3a 3e 23 1c 8c be 3e 10 8f be
       0.312309 0.18197624 -0.27365217 -0.2794208
0000f0 2b f4 1d 3e 65 34 d9 3e e6 05 fc 3e 0e 24 07 3e
       0.15425174 0.42422786 0.4922325 0.13197348
000100 0e 5f fd 3e 12 82 cf be 82 ee ba 3d 7b 67 0e 3f
       0.49486583 -0.40528923 0.09127523 0.5562665
000110 e7 7e c0 3e a8 11 cd be 8d ea f5 be e9 2b f8 be
       0.3759682 -0.40052533 -0.4803051 -0.48471
000120 c5 9a 51 3e 6a bc e2 3d 6b a6 11 be 4d 8b c7 be
       0.20469196 0.110710934 -0.1422364 -0.38973466
000130 d5 76 0f bf 9d 04 44 be a0 b6 66 be d6 93 ef be
       -0.560407 -0.19142385 -0.22530603 -0.46792477
000140 9a 06 96 bd 6c c9 97 3e cc 3d 84 bd 95 f5 a4 be
       -0.07325478 0.2964586 -0.06457099 -0.32218614
000150 4e f9 87 3e 37 45 a1 be f7 8d 00 bf d9 3e 9f bd
       0.26557392 -0.3149812 -0.5021662 -0.07775659
000160 33 5f 8d be bc d3 a3 3e 45 da 00 3f 23 fa a2 3e
       -0.27611694 0.31997478 0.5033305 0.31831464
000170 71 aa 5e 3d c8 3b 94 be d8 6f 80 be ff ec ab 3e
       0.054361764 -0.2895186 -0.2508533 0.3357925
000180 64 23 11 bf 91 92 3c be bd 80 bb be 8e 02 f4 bd
       -0.56694627 -0.18415286 -0.36621657 -0.1191455
000190 0c 71 74 bd 9f f1 98 3d 63 a8 2e 3d 36 94 f5 be
       -0.059678122 0.074679606 0.042641055 -0.47964638
0001a0 8e 09 e8 3e 8a 9e ff 3d 3a 00 e7 3e 84 9a 35 be
       0.4531979 0.12481411 0.4511736 -0.17734724
0001b0 7a 58 16 bb 4d 11 8a be 36 b1 80 be 80 d0 f6 be
       -0.002294092 -0.26966324 -0.251352 -0.48205948
0001c0 fd 38 81 be 06 39 8a 3e 31 57 06 3f d0 69 db be
       -0.2523879 0.2699663 0.52476794 -0.42854166
0001d0 dc 23 98 3e c2 7b bc 3e 9e 4d fe bd 0c bf 47 3e
       0.2971486 0.3681317 -0.12417148 0.19506472
0001e0 29 35 0a be ef b8 9c 3e ef 9a 06 3d 59 cd f2 bd
       -0.13496841 0.30609843 0.0328626 -0.11855573
0001f0 56 45 80 be 9e ce 94 3d 08 90 8d be 95 65 52 3c
       -0.250529 0.072659716 -0.2764895 0.012841602
000200 30 ca bd 3e 94 b7 c7 3e bb 3d b0 be 61 85 90 3e
       0.3706832 0.39007246 -0.34422097 0.2822676
000210 a4 62 0f 3f 52 aa 34 3e 8a 77 d5 3d d6 ed 1d 3e
       0.5600989 0.17643097 0.10423191 0.15422758
000220 52 e8 22 be 6d 49 9a be b7 b2 08 3d ae 7a 9b be
       -0.15908936 -0.30134144 0.03337356 -0.30367035
000230 32 c2 ca 3e 72 4d a4 3e b2 65 71 3d 29 61 0e bf
       0.39601284 0.32090336 0.058934875 -0.55617005
000240 bc bf 97 bd ad 3a 0c bf 64 01 80 3c 9c 7a c2 3d
       -0.07409617 -0.5477703 0.015625663 0.09496042
000250 a4 ae 11 3f db 63 9a 3e b9 15 ca 3d 9e cc f2 be
       0.56907105 0.3015431 0.098674245 -0.47421736
000260 a6 06 89 3b c1 2c a4 3e 95 96 c0 3e 87 28 c6 be
       0.0041817008 0.32065395 0.37614885 -0.38702795
000270 7b 33 08 3f 01 36 d1 bd e6 4f a5 be d7 21 81 be
       0.5320355 -0.102153786 -0.3228752 -0.2522113
000280 fa 52 c0 3e 37 bf b7 bd 7f dd 27 3e 06 ea b0 3d
       0.37563306 -0.08972018 0.16393088 0.086383864
000290 54 2c 47 3d 99 ca d8 be 3e 27 96 be 3c 40 0f bf
       0.04862626 -0.4234207 -0.29326814 -0.5595739
0002a0 66 97 d5 bd 64 ee 15 be 0a 6d 40 bd 71 f7 e7 3e
       -0.104292676 -0.1464172 -0.046978988 0.4530597
0002b0 a4 b4 34 be 4b 05 00 bf 40 96 11 be bf ba d6 bd
       -0.17647034 -0.50008076 -0.14217472 -0.10484838
0002c0 bb 9e eb 3e cf 3f 81 3e c8 e5 f9 3e 87 a6 7a be
       0.4601954 0.25243995 0.48808122 -0.24477588
0002d0 f4 11 82 3e d0 10 d4 be 09 f6 e6 3e 81 66 53 3d
       0.25404322 -0.41419077 0.45109585 0.051611427
0002e0 a8 c3 9f be a9 8c 9a bd d4 c1 da 3e 9d ee b6 bc
       -0.3120396 -0.0754636 0.42726004 -0.022330577
0002f0 3d 58 f5 be cf 9c 9f 3b ac 1c 05 bf 59 09 66 3e
       -0.47918883 0.004870988 -0.51996875 0.22464503

lin_dict.access.bias f4 [64]
000000 0b b0 a3 be 34 b4 46 3d 77 05 cb bd e7 3f fa 3d
       -0.31970248 0.0485117 -0.09913152 0.1221922
000010 5d 99 ee be eb bf e0 3d 84 bc 46 3e f5 61 46 3e
       -0.46601382 0.109741054 0.1940785 0.19373305
000020 75 2b 5e bd d3 19 de be ed 9c 0a 3f 98 14 d0 bd
       -0.054240663 -0.43379077 0.541457 -0.10160178
000030 be 90 0d 3f 1b 65 cf be c9 6e 6f be 46 5f ee 3c
       0.55298984 -0.40506825 -0.23382105 0.029098164
000040 22 ed 80 3e 45 d8 99 3e 39 0a 14 3e f5 d5 01 3f
       0.25180918 0.30047813 0.14457025 0.507171
000050 b2 b8 8a 3d 89 e3 b0 be 70 61 55 be a8 17 0f 3f
       0.06773509 -0.34548596 -0.2083795 0.5589547
000060 7c ec c7 bc f9 94 06 bf 90 f5 98 be 66 80 66 be
       -0.024404757 -0.52571064 -0.2987485 -0.22509918
000070 cc 0c 58 3d 85 2c e5 be 74 26 a7 bc 21 50 7a 3e
       0.05274658 -0.44760528 -0.020404078 0.24444629
000080 b4 06 96 ba 95 22 f7 be c1 27 e2 3d f7 4f ae 3d
       -0.001144609 -0.48268571 0.11042739 0.08511346
000090 49 18 8d 3e b5 97 ec be 48 a4 0a 3f c9 76 6d bd
       0.2755759 -0.46209493 0.54156923 -0.05797461
0000a0 f3 5c ae be 99 9f 91 be 8b 34 1b be 65 fb a1 3e
       -0.3405529 -0.28442076 -0.15156762 0.3163711
0000b0 ff 38 01 bf b8 4a 0c 3f 39 be 3e 3a 8f bb b0 3e
       -0.50477594 0.5480151 0.000727627 0.34518096
0000c0 d7 3c cd be 4b 0d b1 3e 00 19 12 3e 7d 1e 83 be
       -0.4008548 0.34580454 0.14267349 -0.25609198
0000d0 98 3b 05 3f 66 e0 83 3e bd 44 a5 3e 00 72 84 3d
       0.5204406 0.2575714 0.32279006 0.06467056
0000e0 54 8d 07 bc cf 00 0d bf 81 95 58 be 47 35 84 3e
       -0.008273441 -0.5507936 -0.21150781 0.25821897
0000f0 54 81 70 be 33 04 0b 3f c0 a4 99 be de d1 73 be
       -0.23486835 0.5430328 -0.30008507 -0.23810527

attention.in_proj_weight f4 [192, 64]
000000 c1 22 16 bd 55 dc f5 3d 97 c0 ed bd c8 77 84 bd
       -0.036654238 0.120049156 -0.11608999 -0.06468159
000010 56 2e 56 bd 6a c6 4c bd 45 6e e3 3c ce 49 ff 3c
       -0.052290283 -0.04999391 0.027762542 0.031163123
000020 1a 24 c3 bd 0d 04 85 3d 25 39 e2 bd 70 79 ec bd
       -0.0952837 0.06494913 -0.11046056 -0.115466
000030 0c 53 0a 3e bd 6d d9 3d 16 69 d2 bc 17 13 17 bd
       0.13508242 0.10616634 -0.025684875 -0.03688344
000040 35 2e b2 bd 73 de ce bd f0 41 4d bd 99 9b 90 3c
       -0.087002195 -0.101010226 -0.05011171 0.01765232
000050 e5 0f 0a be 7f ef ad 3d 5f 6a ae 3d 96 4f a0 bd
       -0.13482626 0.08492946 0.085163824 -0.0782768
000060 71 79 ac bd 61 60 22 3c 9b 85 82 3d d6 07 5e 3d
       -0.084216006 0.009910674 0.063731395 0.05420669
000070 33 89 f6 3d 9d bb 8e 3d 7c 82 2e bc b0 fe bf 3d
       0.120378874 0.06969378 -0.010651227 0.0937475
000080 86 5b af bd 2a 65 54 bb 9f 9c 0e 3e a2 46 8e 3d
       -0.085623786 -0.0032408931 0.13926934 0.06947066
000090 e9 8c 14 be bd ce 20 bd 40 d1 2e 3c e3 43 08 3e
       -0.14506878 -0.03925966 0.010670006 0.13307147
0000a0 12 12 10 3e 7e b0 21 3d 60 97 ca 3d 11 26 31 bd
       0.14069393 0.039474957 0.09892154 -0.043249194
0000b0 68 36 a8 3d 5f c5 d5 3d 6c 9b 08 be 67 6b 16 be
       0.08213502 0.10438036 -0.13340539 -0.14689408
0000c0 46 b2 8b 3d d0 6a 0a 3e 5e da ed 3d 82 0e 00 be
       0.06821112 0.13517308 0.11613916 -0.12505534
0000d0 fa fd 38 3c a3 95 09 bd 46 80 de 3d 85 32 42 3d
       0.0112910215 -0.03358997 0.1086431 0.04741146
0000e0 6a 98 09 3e c3 7f b4 bd 66 d7 05 be 79 2a 41 bd
       0.13437048 -0.08813431 -0.13070449 -0.047159646
0000f0 f0 69 0f 3e 5f b0 c1 bc 10 32 93 bd 01 ba 51 3d
       0.14005256 -0.02364367 -0.07187283 0.051202778
000100 57 c4 a1 3c 16 ae c0 bd 4c 8d 4b 3d 41 9d f1 bd
       0.019746942 -0.09408204 0.049695298 -0.11797572
000110 1a be 1a 3e dc 85 ac bd b4 3d 0d bd 3f 70 43 bd
       0.1511158 -0.08423969 -0.034482673 -0.047714468
000120 e2 33 cb bd eb 86 03 be 01 eb e8 3d ab 59 fe 3d
       -0.09922005 -0.12844436 0.113729484 0.124194466
000130 7a 3b be bd 6a a6 17 3e 05 26 88 3c 15 f0 4d bd
       -0.09288688 0.14809576 0.016619692 -0.05027779
000140 5a f7 2a bd 38 d4 c7 3c 27 31 73 3d 86 59 16 3e
       -0.0417398 0.024393186 0.059373047 0.14682588
000150 11 1f 6f bd ed 38 fa 3d 61 72 c3 bd 62 25 c0 bd
       -0.058379237 0.12217889 -0.095433004 -0.0938213
000160 e1 dd 45 bd 30 a6 9c bd e8 8c 13 be 2a 72 1d bd
       -0.048307303 -0.07648885 -0.1440922 -0.038438953
000170 73 62 17 bd d0 b1 4b 3c 6f 05 a8 3d 1c 55 f5 3d
       -0.036959123 0.0124325305 0.082041614 0.11979124
000180 2b d5 7c 3c ad c5 f9 bd 65 9f 9d bd 4b 34 80 bc
       0.015431683 -0.12195907 -0.07696418 -0.015649935
000190 ef 71 62 3d 89 5e 8e 3d f5 be 77 bc 2a df f9 3d
       0.055284437 0.06951625 -0.015121211 0.12200768
0001a0 e1 a9 03 3d 74 83 67 bd 73 52 f3 3d 8d bf ff 3d
       0.03214443 -0.056521848 0.1188096 0.12487707
0001b0 e9 ac 15 bc c1 71 17 3e 96 9a df bc 79 42 b0 bd
       -0.009135463 0.14789487 -0.027295392 -0.08606429
0001c0 8c a6 f8 3d e4 37 e3 bd 29 17 1e 3c f7 ad cb bd
       0.12141141 -0.11094645 0.0096490765 -0.099452905
0001d0 53 0d b7 3d 27 a5 16 be f8 f8 5b 3d b3 3b 1a 3e
       0.08938088 -0.14711438 0.053704232 0.15061836
0001e0 ff c9 91 bd 5e 46 31 3d 71 a2 07 3e 64 08 90 3d
       -0.07118606 0.043279998 0.1324556 0.070328504
0001f0 3e 5e 86 bd 48 81 b7 3d 40 1e 9b bc 23 5a e4 3d
       -0.06560944 0.08960205 -0.018935323 0.11150005
000200 ae c2 95 bd 57 9e 4c 3d 4b ae 53 3d c7 46 c4 3d
       -0.07312523 0.049955692 0.05167989 0.09583812
000210 67 58 47 3d 2b a5 a5 bd e8 d0 f3 3c 11 fe 24 3d
       0.04866829 -0.08088144 0.0297627 0.04028136
000220 0f bf f2 3d 4c a2 42 ba 4f 3f d0 ba 4f f2 92 3c
       0.11852848 -0.0007424697 -0.0015888008 0.017937807
000230 80 d9 7d 3d c6 b3 e8 3d a0 fd 17 be 0f 45 0e 3e
       0.061975002 0.11362414 -0.14842844 0.13893531
000240 ee 27 80 bc 67 93 ca 3d b5 2e cd 3b 01 8e 08 3e
       -0.01564404 0.09891396 0.0062616714 0.1333542
000250 0e 25 a2 ba ee e9 61 bd 57 49 1b be dd 22 3a 3d
       -0.0012370662 -0.055154733 -0.15164696 0.045443404
000260 6a ec 5b bd ef 33 12 be c7 f4 de bd 3d 67 88 3d
       -0.05369226 -0.14277624 -0.10886531 0.06660316
000270 df 4d 4a bd 05 c3 15 be 3a 13 9d 3d 2a 89 82 3b
       -0.04939067 -0.14625175 0.07669683 0.0039836364
000280 2e f8 d4 3d 1a 90 c9 3d cf a0 e5 3d 57 7d 85 3d
       0.10398899 0.09841938 0.112123124 0.06518047
000290 89 fd 04 bc 1e 98 af 3d 35 0a a0 bc 5f d8 b6 bd
       -0.008117088 0.08573936 -0.019536117 -0.08927988
0002a0 b7 34 e6 3d d8 86 0b 3d 3d d4 0d 3e 25 68 10 3e
       0.11240523 0.034064144 0.13850494 0.14102228
0002b0 c5 a8 e9 3d f0 6f d7 3d 2b 22 ae 3d e2 0c 05 3e
       0.11409143 0.10519397 0.08502611 0.12993196
0002c0 04 8f 1c be 63 c0 9e bd d8 6e eb 3c 36 8a 06 be
       -0.15288931 -0.077515386 0.028739378 -0.13138661
0002d0 75 13 38 3d bb 3e 16 be cc 3c 94 bd 35 d9 ce bd
       0.04494043 -0.14672367 -0.072381586 -0.10100023
0002e0 ae 6c e3 3d 56 dc bc 3d 3f 06 ea 3d 0d 87 98 bc
       0.111047134 0.09221713 0.114269726 -0.018619085
0002f0 a0 94 0b be f5 58 92 3d 8f 3d e5 3d 98 5d 6a bd
       -0.13630915 0.071458735 0.11193382 -0.057218164
000300 05 e5 0e 3e 3b d7 14 bd 67 b1 0b bc 97 3a 9e bd
       0.13954552 -0.036338072 -0.008526183 -0.07726019
000310 84 49 99 bd 65 1b 92 3d 13 02 8f ba 1f f8 84 bd
       -0.07484725 0.07134131 -0.0010910652 -0.06492638
000320 97 dc 94 3d d8 c4 b9 39 9c 77 13 3e ee eb 02 be
       0.07268637 0.0003543261 0.14401096 -0.12785313
000330 93 f3 ce 3d 79 a6 ff 3d b3 25 f1 3d e4 ca 4c bd
       0.10105052 0.12482924 0.11774769 -0.04999818
000340 ec b7 76 bd 57 7b e9 3d e0 77 05 be 2d c5 c3 bd
       -0.060233995 0.11400478 -0.1303401 -0.09559093
000350 d0 7a 4d bd 05 18 0b be 16 d8 b4 3d 92 45 2a bd
       -0.05016595 -0.13583381 0.088302776 -0.041570254
000360 3e 47 ff bc 52 32 79 3d da fd 9d 3d a3 40 15 3e
       -0.0311619 0.060839005 0.07714434 0.14575438
000370 cc 04 af 3d 1c 01 25 3d 56 11 92 3d 79 22 19 3e
       0.08545837 0.04028426 0.07132213 0.14954557
000380 dd 4e 4a 3d bc 4b 0d be 07 b3 89 bd 19 a6 de 3d
       0.049391616 -0.13798422 -0.067236 0.10871524
000390 2e b8 06 3e 3c 90 42 bb b7 ce 97 bd f2 58 d3 3d
       0.13156196 -0.0029688021 -0.074124746 0.10319699
0003a0 81 7b 19 be 45 1a 16 be 23 40 28 3d 9a 2d d4 3d
       -0.14988519 -0.14658459 0.04107679 0.1036026
0003b0 8a 2c 17 3e 94 77 15 3e 91 ab f0 bd e8 97 5f bd
       0.14763084 0.14596397 -0.11751474 -0.05458823
0003c0 97 fd 49 bd c5 54 cf ba 70 c9 07 bd 88 2d cd 3d
       -0.049314108 -0.001581811 -0.03315109 0.1001845
0003d0 1f 00 67 3d ee ea dc 3c 3b 59 d1 bc ef 5a 9d 3b
       0.0563966 0.026967492 -0.025555244 0.0048021
0003e0 84 eb c6 bc ec 0e 14 3e 89 c1 d1 bd bf 8c 00 3e
       -0.024282224 0.14458817 -0.10241992 0.1255369
0003f0 16 d2 e7 bd 72 49 23 bd 7a 06 d8 3c 90 17 03 be
       -0.113193676 -0.039864965 0.026370276 -0.12801957

attention.in_proj_bias f4 [192]
000000 00 00 00 00 00 00 00 00 00 00 00 00 00 00 00 00
       0.0 0.0 0.0 0.0
000010 00 00 00 00 00 00 00 00 00 00 00 00 00 00 00 00
       0.0 0.0 0.0 0.0
000020 00 00 00 00 00 00 00 00 00 00 00 00 00 00 00 00
       0.0 0.0 0.0 0.0
000030 00 00 00 00 00 00 00 00 00 00 00 00 00 00 00 00
       0.0 0.0 0.0 0.0
000040 00 00 00 00 00 00 00 00 00 00 00 00 00 00 00 00
       0.0 0.0 0.0 0.0
000050 00 00 00 00 00 00 00 00 00 00 00 00 00 00 00 00
       0.0 0.0 0.0 0.0
000060 00 00 00 00 00 00 00 00 00 00 00 00 00 00 00 00
       0.0 0.0 0.0 0.0
000070 00 00 00 00 00 00 00 00 00 00 00 00 00 00 00 00
       0.0 0.0 0.0 0.0
000080 00 00 00 00 00 00 00 00 00 00 00 00 00 00 00 00
       0.0 0.0 0.0 0.0
000090 00 00 00 00 00 00 00 00 00 00 00 00 00 00 00 00
       0.0 0.0 0.0 0.0
0000a0 00 00 00 00 00 00 00 00 00 00 00 00 00 00 00 00
       0.0 0.0 0.0 0.0
0000b0 00 00 00 00 00 00 00 00 00 00 00 00 00 00 00 00
       0.0 0.0 0.0 0.0
0000c0 00 00 00 00 00 00 00 00 00 00 00 00 00 00 00 00
       0.0 0.0 0.0 0.0
0000d0 00 00 00 00 00 00 00 00 00 00 00 00 00 00 00 00
       0.0 0.0 0.0 0.0
0000e0 00 00 00 00 00 00 00 00 00 00 00 00 00 00 00 00
       0.0 0.0 0.0 0.0
0000f0 00 00 00 00 00 00 00 00 00 00 00 00 00 00 00 00
       0.0 0.0 0.0 0.0
000100 00 00 00 00 00 00 00 00 00 00 00 00 00 00 00 00
       0.0 0.0 0.0 0.0
000110 00 00 00 00 00 00 00 00 00 00 00 00 00 00 00 00
       0.0 0.0 0.0 0.0
000120 00 00 00 00 00 00 00 00 00 00 00 00 00 00 00 00
       0.0 0.0 0.0 0.0
000130 00 00 00 00 00 00 00 00 00 00 00 00 00 00 00 00
       0.0 0.0 0.0 0.0
000140 00 00 00 00 00 00 00 00 00 00 00 00 00 00 00 00
       0.0 0.0 0.0 0.0
000150 00 00 00 00 00 00 00 00 00 00 00 00 00 00 00 00
       0.0 0.0 0.0 0.0
000160 00 00 00 00 00 00 00 00 00 00 00 00 00 00 00 00
       0.0 0.0 0.0 0.0
000170 00 00 00 00 00 00 00 00 00 00 00 00 00 00 00 00
       0.0 0.0 0.0 0.0
000180 00 00 00 00 00 00 00 00 00 00 00 00 00 00 00 00
       0.0 0.0 0.0 0.0
000190 00 00 00 00 00 00 00 00 00 00 00 00 00 00 00 00
       0.0 0.0 0.0 0.0
0001a0 00 00 00 00 00 00 00 00 00 00 00 00 00 00 00 00
       0.0 0.0 0.0 0.0
0001b0 00 00 00 00 00 00 00 00 00 00 00 00 00 00 00 00
       0.0 0.0 0.0 0.0
0001c0 00 00 00 00 00 00 00 00 00 00 00 00 00 00 00 00
       0.0 0.0 0.0 0.0
0001d0 00 00 00 00 00 00 00 00 00 00 00 00 00 00 00 00
       0.0 0.0 0.0 0.0
0001e0 00 00 00 00 00 00 00 00 00 00 00 00 00 00 00 00
       0.0 0.0 0.0 0.0
0001f0 00 00 00 00 00 00 00 00 00 00 00 00 00 00 00 00
       0.0 0.0 0.0 0.0
000200 00 00 00 00 00 00 00 00 00 00 00 00 00 00 00 00
       0.0 0.0 0.0 0.0
000210 00 00 00 00 00 00 00 00 00 00 00 00 00 00 00 00
       0.0 0.0 0.0 0.0
000220 00 00 00 00 00 00 00 00 00 00 00 00 00 00 00 00
       0.0 0.0 0.0 0.0
000230 00 00 00 00 00 00 00 00 00 00 00 00 00 00 00 00
       0.0 0.0 0.0 0.0
000240 00 00 00 00 00 00 00 00 00 00 00 00 00 00 00 00
       0.0 0.0 0.0 0.0
000250 00 00 00 00 00 00 00 00 00 00 00 00 00 00 00 00
       0.0 0.0 0.0 0.0
000260 00 00 00 00 00 00 00 00 00 00 00 00 00 00 00 00
       0.0 0.0 0.0 0.0
000270 00 00 00 00 00 00 00 00 00 00 00 00 00 00 00 00
       0.0 0.0 0.0 0.0
000280 00 00 00 00 00 00 00 00 00 00 00 00 00 00 00 00
       0.0 0.0 0.0 0.0
000290 00 00 00 00 00 00 00 00 00 00 00 00 00 00 00 00
       0.0 0.0 0.0 0.0
0002a0 00 00 00 00 00 00 00 00 00 00 00 00 00 00 00 00
       0.0 0.0 0.0 0.0
0002b0 00 00 00 00 00 00 00 00 00 00 00 00 00 00 00 00
       0.0 0.0 0.0 0.0
0002c0 00 00 00 00 00 00 00 00 00 00 00 00 00 00 00 00
       0.0 0.0 0.0 0.0
0002d0 00 00 00 00 00 00 00 00 00 00 00 00 00 00 00 00
       0.0 0.0 0.0 0.0
0002e0 00 00 00 00 00 00 00 00 00 00 00 00 00 00 00 00
       0.0 0.0 0.0 0.0
0002f0 00 00 00 00 00 00 00 00 00 00 00 00 00 00 00 00
       0.0 0.0 0.0 0.0

attention.out_proj.weight f4 [64, 64]
000000 66 dd 9c bd f8 87 be 3d 40 d1 dd bd 22 f5 9c 3d
       -0.07659416 0.09303278 -0.10830927 0.07663943
000010 18 10 55 3d 6c 13 4f 3d 28 7c 44 3d 90 2e 57 3d
       0.0520173 0.05055563 0.047969967 0.05253464
000020 cc 47 4a bd 6a 84 87 3d f8 73 05 bd 60 30 48 bc
       -0.049384877 0.06617053 -0.0325813 -0.012218565
000030 b0 69 cf 3d 80 57 fe 3d 0a ba e7 bd ba 74 80 3d
       0.1012758 0.12419033 -0.11314781 0.06272264
000040 c0 fc a2 3c 84 c4 f5 3d 5a 4f a8 3d 44 f2 31 bd
       0.019895911 0.12000373 0.0821826 -0.043443933
000050 c0 6b 80 3b a0 d0 ea bc c8 7a 61 3d 24 0e 85 bd
       0.003919095 -0.028663933 0.055048734 -0.06496838
000060 a0 40 c7 bc cc 0a 8b bd 00 ad dc bc 08 54 6e bd
       -0.024322808 -0.06789169 -0.026937962 -0.058185607
000070 6c 6d 35 3d 40 4f 36 bc f2 f2 8b 3d 9a b0 9c 3d
       0.044293806 -0.011127293 0.068334475 0.076508716
000080 90 c2 ca 3c c4 b4 7f 3d 70 67 7e bc e2 45 fe bd
       0.024750978 0.06242825 -0.015527591 -0.12415673
000090 a8 09 4c 3d 78 9d d2 3d 0c 89 89 bd b0 5f 69 3d
       0.049813896 0.10283941 -0.06715593 0.05697602
0000a0 52 cb 80 3d a4 1a 09 3d 18 3a ff 3d 0e be ce 3d
       0.0628878 0.033472672 0.124622524 0.10094844
0000b0 b8 0f ee 3d c0 88 f7 3d 00 a0 d2 38 e0 b3 b8 3d
       0.11624092 0.1208663 0.00010043383 0.090186834
0000c0 a0 3f 32 bd 66 c4 df bd 18 c7 26 bd aa 9e d8 3d
       -0.04351771 -0.10926132 -0.040717214 0.10577138
0000d0 60 b6 c9 bc 6c 9c 44 3d 72 08 fa 3d 70 96 57 3c
       -0.024623096 0.048000738 0.12208642 0.013158426
0000e0 10 3c 97 3d 00 4e 67 bd 48 27 d6 bd 20 36 56 3c
       0.07384503 -0.05647087 -0.10456711 0.013074428
0000f0 d8 9e 6a bd 30 aa c6 3d ea 3c ba 3d ba dc f8 3d
       -0.05728039 0.097004294 0.0909365 0.12151475
000100 b0 2e fd bc a0 51 dc bc 5c c6 fc bd 2e f5 d0 bd
       -0.030906051 -0.02689439 -0.123425215 -0.10203014
000110 30 b5 5c 3c da 91 bf 3d 1c aa 59 3d 38 27 8e bc
       0.013470933 0.09353991 0.053140745 -0.017352685
000120 66 62 b1 3d 20 42 ac bb a0 7f a1 3d f2 7e a3 3d
       0.08661346 -0.005256906 0.07885671 0.07983197
000130 c2 8a f6 bd 00 f6 e8 3c 74 ee ee 3d ca bb fc bd
       -0.12038185 0.028437614 0.11666575 -0.123405054
000140 b6 0b 93 bd b6 67 e8 bd 20 77 c7 3c 98 1e f5 bc
       -0.07179968 -0.11347906 0.024348795 -0.029921815
000150 6a 0d 91 bd 08 dc 00 3d c0 0d de bd d8 ca a4 3d
       -0.07082637 0.03145984 -0.10842466 0.08046502
000160 b8 bb 7e bd a4 88 2a 3d ce 99 87 bd da d9 84 bd
       -0.06219074 0.041634217 -0.06621133 -0.064868644
000170 d6 07 c1 3d 64 17 da 3d 10 4e 0f 3d 8a c1 ca bd
       0.09425323 0.10648993 0.034986556 -0.09900196
000180 50 30 c9 bd b4 a1 76 3d 20 3e 69 3d 28 d9 5e bd
       -0.09823668 0.060212806 0.056944013 -0.054406315
000190 6a 7a 87 3d 30 83 ed bc 1e a0 d6 bd ac b5 31 bd
       0.066151455 -0.02899322 -0.10479759 -0.043386146
0001a0 f4 7c 71 3d 9c 3b 2f 3d ec ee 99 3d 88 7f 96 3d
       0.058957055 0.042781457 0.07516274 0.073485434
0001b0 fc 43 f7 3d 08 f2 99 3c b8 1a 32 3d ba 20 96 bd
       0.12073514 0.018792167 0.043482512 -0.07330461
0001c0 78 25 c4 3c e0 0c 5f 3d 5a 65 ac bd a0 10 98 3b
       0.023943648 0.054455638 -0.08417769 0.0046406537
0001d0 88 59 16 bd ec d3 7a 3d 54 06 09 bd ea cf a3 bd
       -0.036706477 0.06123726 -0.0334533 -0.07998641
0001e0 90 61 43 3c 88 cc 69 bd 28 00 af 3d 58 b6 97 3d
       0.011925116 -0.05707982 0.08544952 0.07407826
0001f0 9c 16 f5 bd 78 4c f9 bd 4e 5f 85 3d 68 9d ba bd
       -0.11967203 -0.121727884 0.065123186 -0.09112054
000200 d2 cb a8 bd 3a f6 ad 3d b4 b7 b6 3d 0c 7c 9e bd
       -0.08242001 0.084942296 0.08921757 -0.07738504
000210 1e 7a 90 bd 6c 6c 7d bd 80 83 5b bb d0 70 18 3c
       -0.07054542 -0.061870977 -0.0033495128 0.00930424
000220 78 2e 91 3d 80 86 fa 3d b4 c8 3d 3d 6e 64 a9 bd
       0.07088941 0.12232685 0.046333984 -0.082711086
000230 90 5e c4 bc f0 e8 d3 bc 30 f4 ab 3d 40 9f 3a bb
       -0.023970872 -0.02586791 0.083961844 -0.0028476268
000240 82 73 db 3d ba b6 9f bd c6 2d f9 bd c2 d7 82 bd
       0.10715391 -0.07798524 -0.12166934 -0.06388809
000250 f0 f8 0d bd 70 46 29 3d cc 81 3a 3d 94 ab 6a bd
       -0.034661233 0.04132694 0.04553394 -0.057292536
000260 e0 51 02 bd e0 2f 50 bd 10 35 b6 3c d0 9d bc bc
       -0.031816363 -0.050826907 0.022242099 -0.02302447
000270 86 ca f0 bd d0 0d ea bd 00 98 bf 3b 00 dd ec bd
       -0.11757378 -0.11428416 0.0058469772 -0.1156559
000280 cc 5b f6 bd e4 08 47 3d 86 ed ca 3d 4a d5 e5 bd
       -0.120292276 0.048592463 0.09908585 -0.11222322
000290 c0 b2 dc bc c0 4d 8b 3b 0e a2 c6 3d 2e 7c c2 3d
       -0.026940703 0.004251212 0.09698878 0.09496342
0002a0 a8 f9 77 3d 50 2c 2f bc b8 af 72 3d 90 f8 e5 3c
       0.060540825 -0.010691717 0.05924961 0.028072625
0002b0 cc 7a 5a 3d 40 92 4c 3b 98 49 c0 3d 50 69 da 3d
       0.053339764 0.0031215101 0.09389037 0.10664618
0002c0 90 c9 2f bc b4 60 27 bd f8 b9 b7 3c c4 d1 a8 3d
       -0.010729209 -0.040863708 0.022427544 0.082431346
0002d0 f8 00 e5 bd a4 42 9b bd f8 ae ed 3c 38 06 d8 3c
       -0.111818254 -0.0758107 0.029014096 0.026370153
0002e0 de c0 be 3d 40 8d a2 bc d0 3a 31 bc ec 0b 0e 3d
       0.0931413 -0.019842744 -0.010817245 0.03467934
0002f0 38 01 7f 3d 94 97 cc 3d 50 82 92 bd bc ff b3 bd
       0.06225702 0.09989849 -0.071537614 -0.08789012
000300 d8 da 9d 3d 00 27 56 3a 70 97 a6 bc 22 a6 bd bd
       0.07707757 0.00081692636 -0.020335883 -0.09260203
000310 92 3f e8 bd 0c c0 db bd 5e 1c b4 bd 1e 2b dd 3d
       -0.1134025 -0.107299894 -0.08794473 0.107992396
000320 dc 58 2a bd fc 50 2d bd d8 1f 3a bd e0 26 ba 3b
       -0.04158865 -0.04231356 -0.045440525 0.005680904
000330 40 27 48 bb 1e c3 94 3d c0 eb 31 3d 0e 12 cd 3d
       -0.0030540973 0.07263778 0.04343772 0.10013209
000340 3c 5e 3c bd ac bf 30 3d f4 be 77 3d e4 36 07 3d
       -0.045988306 0.043151543 0.06048484 0.033011332
000350 54 36 7a 3d 9a 7c aa bd bc 5e d0 bd 00 66 68 3b
       0.061086968 -0.08324547 -0.10174319 0.0035461187
000360 42 e7 9c 3d b6 13 c0 3d 52 1b b4 bd 70 18 33 bd
       0.076612964 0.093787596 -0.087942734 -0.043724477
000370 08 78 fa bd 04 ba 26 3d a2 26 e4 3d 10 ee de bc
       -0.122299254 0.040704742 0.11140181 -0.027213126
000380 56 dc d1 3d 8c a6 3c bd a6 3b 8c bd a2 a3 e1 3d
       0.10247104 -0.04605727 -0.068473145 0.110175386
000390 84 4f a6 3d a0 7b 75 bd f0 b0 41 3c 9c ee 63 3d
       0.08120635 -0.05993235 0.01182197 0.055647478
0003a0 4c de 80 bd 1a 7a e0 3d 40 28 8c bb c4 c8 06 3d
       -0.062924 0.10960789 -0.004277259 0.03290631
0003b0 00 73 0c 3d 70 96 b6 3d 98 10 8d 3d 9a a0 f2 bd
       0.03428936 0.089154124 0.06887931 -0.118470386
0003c0 18 06 eb bd 06 68 dd 3d 00 a8 e2 3b a8 8a ed bd
       -0.11475772 0.108108565 0.006917 -0.11598712
0003d0 48 16 58 3d 78 20 44 3d 90 72 8a 3d f8 23 6f 3d
       0.052755624 0.047882527 0.06760132 0.05838391
0003e0 60 93 d0 3b 50 fa b4 3d 4a 93 93 3d 00 22 f2 bc
       0.0063652247 0.08836806 0.072058275 -0.029557228
0003f0 f2 72 9b 3d 80 b0 55 3b 30 34 51 3c 74 b2 f1 bd
       0.075902835 0.0032606423 0.01276879 -0.11801615

attention.out_proj.bias f4 [64]
000000 00 00 00 00 00 00 00 00 00 00 00 00 00 00 00 00
       0.0 0.0 0.0 0.0
000010 00 00 00 00 00 00 00 00 00 00 00 00 00 00 00 00
       0.0 0.0 0.0 0.0
000020 00 00 00 00 00 00 00 00 00 00 00 00 00 00 00 00
       0.0 0.0 0.0 0.0
000030 00 00 00 00 00 00 00 00 00 00 00 00 00 00 00 00
       0.0 0.0 0.0 0.0
000040 00 00 00 00 00 00 00 00 00 00 00 00 00 00 00 00
       0.0 0.0 0.0 0.0
000050 00 00 00 00 00 00 00 00 00 00 00 00 00 00 00 00
       0.0 0.0 0.0 0.0
000060 00 00 00 00 00 00 00 00 00 00 00 00 00 00 00 00
       0.0 0.0 0.0 0.0
000070 00 00 00 00 00 00 00 00 00 00 00 00 00 00 00 00
       0.0 0.0 0.0 0.0
000080 00 00 00 00 00 00 00 00 00 00 00 00 00 00 00 00
       0.0 0.0 0.0 0.0
000090 00 00 00 00 00 00 00 00 00 00 00 00 00 00 00 00
       0.0 0.0 0.0 0.0
0000a0 00 00 00 00 00 00 00 00 00 00 00 00 00 00 00 00
       0.0 0.0 0.0 0.0
0000b0 00 00 00 00 00 00 00 00 00 00 00 00 00 00 00 00
       0.0 0.0 0.0 0.0
0000c0 00 00 00 00 00 00 00 00 00 00 00 00 00 00 00 00
       0.0 0.0 0.0 0.0
0000d0 00 00 00 00 00 00 00 00 00 00 00 00 00 00 00 00
       0.0 0.0 0.0 0.0
0000e0 00 00 00 00 00 00 00 00 00 00 00 00 00 00 00 00
       0.0 0.0 0.0 0.0
0000f0 00 00 00 00 00 00 00 00 00 00 00 00 00 00 00 00
       0.0 0.0 0.0 0.0

convs.0.convs.<core___to___core>.nn.lins.0.weight f4 [64, 64]
000000 93 37 4e 3d 3c 50 10 bd 66 00 be 3c 42 28 c0 3c
       0.05034597 -0.035232767 0.02319355 0.023456696
000010 1f 2b f4 bb 5b c7 49 bd 7c 21 95 3d 57 12 fe 3d
       -0.0074514295 -0.049262386 0.07281777 0.12405842
000020 c6 b2 f2 bd 97 fc ca 3c 05 1a a2 bd 61 e4 04 3d
       -0.118505046 0.024778647 -0.07915119 0.03244436
000030 a2 eb 45 3c 16 54 c7 bd ba 17 94 bd 3d 9d b3 bb
       0.012080105 -0.09732835 -0.07231088 -0.0054813907
000040 53 28 b6 bc 56 9b 9c bd 56 e6 e9 bd c7 8d 18 3d
       -0.022236025 -0.076468155 -0.11420886 0.037244584
000050 c6 91 30 3d c2 1f bc 3d 0d 9d 3e 3c 65 7a ce bb
       0.04310777 0.09185745 0.0116341235 -0.0063012117
000060 23 f3 4d 3c e2 d3 f6 3d 34 f5 69 3c 81 70 18 bd
       0.012570175 0.12052132 0.014279652 -0.037216667
000070 a7 77 84 3a 1e b9 88 3d de 87 99 bd c1 70 05 bd
       0.001010646 0.06675933 -0.07496618 -0.032578234
000080 7d 80 f8 bd e2 e7 9d 3d 04 c1 70 bd cc 8b fd 3d
       -0.12133882 0.07710244 -0.058777824 0.1238018
000090 e2 23 96 bc ca c5 4f 3c ed 34 28 bc be 4a 5e bd
       -0.018327657 0.012681434 -0.010266525 -0.0542705
0000a0 99 76 f7 3d 69 a0 8f bd 59 68 8c 3d b7 56 ec 3d
       0.120831676 -0.07013018 0.0685584 0.11539977
0000b0 23 1f cc 3c aa e4 8f bd c5 a8 a4 bd 9d 96 6a bc
       0.02491719 -0.07026036 -0.08040003 -0.014318136
0000c0 9a ff db 3d 30 f1 33 3a 6a cc a6 3d 51 d6 d0 bd
       0.107421115 0.0006864248 0.08144458 -0.101971276
0000d0 b2 a2 d7 bd 2b f8 7d bc be d3 b7 3c 90 2d 0c bd
       -0.105290785 -0.015501062 0.022439834 -0.03422314
0000e0 87 d9 91 bc 85 02 35 bd d4 56 e4 bd 6b cd d8 bd
       -0.01780392 -0.044191856 -0.11149374 -0.10586055
0000f0 6a dd a1 3d fc 30 43 3b d9 d0 29 bd a6 a4 aa 3d
       0.079035595 0.0029783836 -0.04145894 0.083321854
000100 57 68 d6 bd a3 9e 25 3d 1d dc b4 3c 53 7c 71 3c
       -0.1046912 0.04043449 0.022077614 0.014739114
000110 93 1d 91 bd b0 46 f8 3d 15 d5 ff 3d 8e 1f 15 bd
       -0.07085719 0.121228576 0.12491814 -0.036407046
000120 80 2f 03 be 04 0a 02 bd 32 15 0b 3d f6 ae 57 bd
       -0.12811089 -0.031747833 0.03395576 -0.05265709
000130 6e 8f ad bb 5f db 3a 3b fa bb a7 bd ec 79 ae 3a
       -0.005296639 0.0028512103 -0.081901506 0.0013311482
000140 30 12 e1 bd 77 cc 23 3d 68 dd 2c bd 97 c3 a3 3c
       -0.10989797 0.039989915 -0.042203337 0.019990725
000150 61 32 dc 3d fd 67 e4 3d a3 bc 45 bd ec 5d 53 3d
       0.107517965 0.11152647 -0.0482756 0.051603243
000160 a0 73 00 bd 59 54 eb bd 04 5f 5c bd e0 a2 35 bd
       -0.03136027 -0.114906974 -0.05380155 -0.044344783
000170 0d 2e 9d bd 82 0c 26 3c 35 9c 3a bd e9 ad 86 bc
       -0.07674799 0.010134818 -0.045559127 -0.016440349
000180 33 ae 57 3d 05 ab fe 3d 2f 18 e0 bd 84 6e 2d 3d
       0.052656364 0.12434963 -0.10942113 0.042341724
000190 8b 3b 9c bd 03 a5 c3 bb a8 30 e0 3d bb 78 df 3d
       -0.076285444 -0.0059705987 0.109467804 0.109116994
0001a0 a2 76 cd bc ac 32 1d 3d a0 3b ba bd a6 bf 00 bd
       -0.025080983 0.038378403 -0.09093404 -0.03143277
0001b0 a9 fa df bd 58 83 84 3d e2 30 c4 bd ee 2e a3 3c
       -0.109364815 0.06470364 -0.09579636 0.019919839
0001c0 a3 f8 b5 bd d4 26 a8 3c 0e fe 44 3b 8f 8c 8d bd
       -0.08885314 0.020526327 0.0030058655 -0.06911575
0001d0 ec d9 a4 bd a6 f4 8f 3b 19 74 d3 bd da 36 83 3c
       -0.08049378 0.004393178 -0.10324878 0.016017366
0001e0 a9 b1 03 bc c5 c6 0c be d3 60 8e bc 48 e1 fa bc
       -0.008037963 -0.137477 -0.017380154 -0.030625
0001f0 cd 4d a8 3d 63 ac 06 be 81 30 1b bd bd 3d 87 3d
       0.08217964 -0.13151698 -0.037888054 0.066035725
000200 d6 50 6d 3d c7 f0 9d 3d 6b 8e ca bc 7a 9c b5 3d
       0.05793842 0.0771194 -0.024726113 0.08867736
000210 69 b6 c8 bd 34 1e a3 3d b3 c8 fa bd 35 20 8c bc
       -0.09800417 0.07964745 -0.122453116 -0.017105201
000220 72 24 68 3d d8 2f b7 bd aa 73 5e bd ba cc f3 3d
       0.056675382 -0.08944672 -0.054309525 0.11904283
000230 04 42 a7 bd 20 8a 4b 3b 61 9e 1f bd 8e 1c 80 bd
       -0.08166888 0.003105767 -0.0389694 -0.062554464
000240 7d f9 95 b9 d1 2c b4 3d 68 ce 80 bd 8e 60 72 bd
       -0.00028605378 0.087976106 -0.06289369 -0.059174113
000250 e4 1a 67 3c 45 da cc 3d 3f e9 2c bc 04 2c b5 3d
       0.014105532 0.10002569 -0.010553657 0.08846286
000260 4e 0e da bd b1 3a 2f bd 9d 0d 14 3c 06 4d 4f 3d
       -0.1064726 -0.04278058 0.009036449 0.050610565
000270 8f 2c fb 3d 69 0f d2 3c 98 b2 f1 3d f0 95 cb bd
       0.12264358 0.025642114 0.11801642 -0.09940708
000280 49 dd b5 3d ee 51 be 3d 7e 90 93 bb 18 ee 4e 3d
       0.088800974 0.092929706 -0.004503309 0.050520033
000290 be 09 fc 3c 05 f0 88 bc fc a0 ee 3b 4d 8a 79 3d
       0.030766364 -0.016716013 0.0072823744 0.06092291
0002a0 9c 69 8f bd a6 da ca 3d 13 e3 fd bb 40 9d 82 bd
       -0.07002565 0.09904985 -0.0077480166 -0.06377649
0002b0 7f 71 22 3d 81 93 2b bd 33 29 ce 3d eb c0 d0 bd
       0.03965902 -0.041888718 0.10066452 -0.10193046
0002c0 c6 90 25 3d 25 21 95 bd 0e 6a 04 3e 9f c9 03 bb
       0.04042127 -0.072817124 0.12931082 -0.002010919
0002d0 35 c4 7a bd 98 2f f7 3c 85 83 cf 3d e4 da 25 bd
       -0.061222274 0.030174062 0.10132507 -0.040491953
0002e0 cb 1e 9e bd a4 c6 a2 3d 09 c3 86 3d d4 0e 8a 3d
       -0.07720717 0.07948044 0.06580169 0.067411095
0002f0 60 a1 9a bd 3b 0f b6 3c ce de 22 3d 78 e9 76 bd
       -0.07550311 0.02222406 0.039763264 -0.060281247
000300 9f 51 18 bc 76 87 fa bc 0f 6b cd bd 4e f0 a2 bd
       -0.009296804 -0.030582171 -0.100301854 -0.07955991
000310 2d 97 3f 3d e6 c7 c7 3c 9e ec a1 3b 6a 66 2f bb
       0.04677503 0.024387311 0.004941537 -0.0026763924
000320 49 58 d2 bd ce 14 e4 3d c8 43 ba 3d bf 44 b0 3d
       -0.10270745 0.11136781 0.090949595 0.08606862
000330 69 fc a1 3d 8b 21 57 3d 8e ea cb bd ff e3 d1 3d
       0.079094715 0.052522223 -0.09956847 0.10248565
000340 14 ba 35 bd 13 1e 7f 3d 0b 3f 50 bc 01 0c 55 bd
       -0.04436691 0.06228454 -0.012710343 -0.0520134
000350 cf 35 09 bc bc 68 08 3d fe fd cb 3d 7d 6b 43 bd
       -0.008374645 0.033303007 0.099605545 -0.04770993
000360 3d 76 f0 bd 51 ed a4 3c 7b 23 ac bc 9e 0f e0 3b
       -0.11741302 0.020132693 -0.021013012 0.006837799
000370 8d 95 ba 3d b0 2e 10 3d 42 d2 10 3d 99 5a 9e bd
       0.09110556 0.035200775 0.035356767 -0.07732124
000380 1f d8 ef bd 5d dd fe bd cb 80 8f bd b1 27 ec bc
       -0.11711144 -0.124445654 -0.07006987 -0.02882752
000390 55 9e 70 3d 86 73 ef 3d ab 97 91 bd ba 84 ea bc
       0.058744747 0.11691956 -0.071090065 -0.028627742
0003a0 ee 2c 87 3c 23 b9 46 bc 9b 3b cd bd 3e a7 ee 3d
       0.016500916 -0.012129101 -0.100211345 0.11652993
0003b0 d9 1d 27 3d 10 ea 9e 3d 27 4b cc bd fb b1 10 bd
       0.04079995 0.07759488 -0.09975272 -0.035325985
0003c0 ab 08 e0 3c de 23 bc 3d b2 7e 85 3d ce d0 bf bd
       0.027347883 0.091865286 0.06518306 -0.09365998
0003d0 c9 26 b2 3d 7d 68 87 bd 3c 19 f6 bd a0 0e 2e 3d
       0.08698804 -0.066117264 -0.12016532 0.042494416
0003e0 cf 4b 34 3d 0d bf db bd 10 ec e1 bc 5d 07 65 bd
       0.04401761 -0.107297994 -0.027578384 -0.055915225
0003f0 fe db ac bd a3 e7 60 3d fd 24 b4 3c 24 ec 55 3d
       -0.08440398 0.054908406 0.021990294 0.052227154

convs.0.convs.<core___to___core>.nn.lins.0.bias f4 [64]
000000 2e 61 88 3d c8 e4 e0 bd b3 24 e2 bd 4b df cc 3d
       0.066591606 -0.109811366 -0.11042156 0.10003527
000010 49 3c e8 bc c4 7b 8f 3d 87 b9 59 bd 4e 3e b4 3d
       -0.028349059 0.07006028 -0.05315545 0.08800946
000020 33 e2 17 3d 31 3f 46 3c ed fb cc 3c 1a f4 cf 3d
       0.037080955 0.012100027 0.025022471 0.101539806
000030 d5 28 9e 3d 4a b7 9a bb 54 9d f3 3d f6 f3 3c bc
       0.07722632 -0.004721557 0.11895242 -0.011532774
000040 65 ca f9 bd 8b 31 b5 3d 7c 84 26 3d c0 03 88 bd
       -0.12196807 0.0884734 0.04065369 -0.0664134
000050 95 dc 4b bd a6 8d b4 3c 27 92 22 bb e9 ff 55 bd
       -0.04977091 0.0220402 -0.0024806352 -0.052246008
000060 db 6f c4 36 db d2 2e 3d ab 97 65 bd 34 1d 45 3c
       5.854277e-06 0.042681556 -0.056052845 0.012030888
000070 36 9a 76 3d 3c 3f 86 bd 65 f6 0f bd b3 af 74 bc
       0.06020566 -0.0655503 -0.03514709 -0.014934468
000080 d4 b8 e9 bd c2 96 58 3d 50 e0 c4 bd 88 17 dc bd
       -0.11412206 0.05287815 -0.09613097 -0.10746676
000090 f2 d7 d6 bd 38 b6 ae 3d 97 e2 e4 bc 2e b0 e4 bd
       -0.10490407 0.08530849 -0.027940078 -0.11166416
0000a0 21 b0 d3 3d db ea 6e bd bd 80 d8 3d 66 cf 75 bd
       0.10336328 -0.058329444 0.1057143 -0.060012244
0000b0 89 c2 a5 bd ac 17 b6 bd 73 26 4a 3c a1 63 81 3d
       -0.08093745 -0.08891234 0.012338269 0.06317831
0000c0 b9 8a ad bd c8 1f db bd 61 c2 67 3d ed 8f 9b bd
       -0.08473725 -0.10699421 0.05658186 -0.07595811
0000d0 02 3e 37 3d 1f 89 c7 3c cc 7b 79 bd 99 f5 c5 3c
       0.04473687 0.024357377 -0.060909078 0.024164962
0000e0 49 6c ea bc cb d0 ae bd e9 33 1b 3d 93 94 d5 bb
       -0.028616088 -0.08535918 0.037891302 -0.0065179556
0000f0 cc e6 01 bd 02 80 7d bd 05 79 92 bd 8c a1 d7 bd
       -0.031714246 -0.061889656 -0.07151989 -0.105288595
