data/processed/model_20250725_172928/best_at.pth (torch, 496268 bytes, 29 tensors)

input_proj.weight f4 [64, 834]
-0.013833017 0.009770272 -0.005713849 -0.05660757 0.07467017 -0.044959255 -0.030280666 0.0015645192
0.009886457 -0.05244957 -0.0013840279 0.035414852 0.010052952 -5.9677794e-05 0.018198943 -1.8881262e-07
-0.08125263 -0.0024698167 -0.008489155 -0.011863378 -0.06259837 0.054373495 -0.03621959 0.024411911
-0.0027405808 0.0025689672 0.061642684 0.055120226 -0.03016526 -0.00790795 5.5341116e-05 0.00058497995
0.029667398 -0.0017131201 0.052111037 0.030220602 0.014443445 -0.003106313 -0.077487975 0.0007580818
-0.026190944 2.3437427e-05 0.011879132 -0.007295576 0.049992457 0.0011881856 0.003720626 -2.8129984e-05
-0.013633472 -0.0017111662 0.019663187 0.04697238 -0.045735124 -8.6004223e-07 -0.04794406 0.005641588
-3.0465565e-16 0.0792712 0.028424682 -0.05222878 -0.0018300785 -0.04792002 -0.062079288 -0.007871101
0.0008087506 -0.0075406944 -0.00030858297 0.051194236 -0.00428356 0.0067065656 0.030091325 -0.059229806
0.030370213 -0.067734 -0.021406626 -0.0027652173 0.014008511 0.14867881 9.40107e-08 0.014887396
0.040150043 -0.021912917 0.15467468 0.005100242 -1.2057991e-05 3.5721846e-11 0.07257469 0.053150825
0.03377112 0.009112476 0.02340676 0.04279263 -0.022138547 -0.0015272454 0.003455309 0.034490958
0.002144934 -0.05447489 -0.0008854073 -0.050228857 2.5959759e-08 -0.046841916 0.07731978 0.0070135547
0.002363881 0.00023204056 0.015161593 -0.0020360413 -0.008877801 -0.015276632 7.830133e-09 0.020784201
0.00019230292 0.01986018 2.9071367e-05 -0.017525716 0.002955132 -0.0004957754 0.00026498103 0.051473297
-1.7601326e-06 0.054798964 0.09627989 -2.954981e-07 1.0644701e-05 -0.021418668 0.006869032 0.023013609
-0.00079931633 0.032793827 -0.00014465471 -0.110032044 -0.00043890948 0.0603402 0.052073877 0.0062308325
0.040066585 -0.004032056 0.05380851 6.82872e-10 -0.012719636 0.05943073 0.07128698 0.0508016
0.03609439 -9.460494e-06 2.717226e-05 -0.04573029 0.030204378 -0.0013477317 0.004954769 -0.0066259783
-0.0044914605 0.009081348 -0.00024094053 0.13031021 0.06175607 -0.01256083 -0.001591957 -0.014557982
0.11243317 -6.9514945e-06 0.014183643 0.008331449 -3.1047612e-12 4.430608e-06 0.0033873327 0.012559344
0.010386051 -0.0020056483 0.026714055 0.049189176 0.051494204 -0.014084322 -0.028444078 -0.031380255
-0.024857221 -5.090405e-07 -0.07358936 -8.960833e-08 0.0077380077 0.009865029 -0.008087566 -3.089991e-05
-0.012175012 1.1902584e-05 0.010202041 0.03012992 -8.951628e-18 0.0003769492 0.014336441 -0.0152224675
-0.0008634739 -0.007302756 0.015344602 0.087169304 0.0004395293 -0.02853966 0.03412822 -0.0099105155
0.04051185 -0.091342665 0.07325635 -0.06080753 3.4298104e-05 -0.009687254 0.024922326 0.047244616
1.854384e-05 -0.045929432 -0.04354276 0.008950957 -0.011468207 0.05318611 4.2622974e-05 0.023752619
0.01057327 0.0049374155 -0.00052605406 -0.04374852 0.025652455 0.0790626 -0.004279377 0.017830309
-0.00012638175 0.023507752 0.0070034065 -2.3775765e-05 -0.004446224 -0.00011534882 -4.1312362e-07 0.037135024
0.029985027 -8.40481e-06 0.027082948 -0.089555465 -0.00391523 -0.03322171 -0.011314569 0.0417122
-0.089509785 0.015314646 0.0032111795 0.007906086 3.1832613e-14 0.05189424 0.03276268 0.02057626
-0.0038522999 -3.9299553e-06 -0.0052844137 0.012767463 -0.049821027 -0.012377303 0.039520815 -0.030643003
00000000: e1a3 62bc 7e13 203c 3d3b bbbb 57dd 67bd
00000010: adec 983d 3227 38bd 290f f8bc 8e10 cd3a
00000020: cefa 213c 5cd5 56bd 4568 b5ba 2a0f 113d
00000030: 23b5 243c 8b4e 7ab8 f315 953c 6bbc 4ab4
00000040: c767 a6bd a6dc 21bb 1916 0bbc 9d5e 42bc
00000050: 9333 80bd beb6 5e3d fe5a 14bd 7dfb c73c
00000060: 519b 33bb 1e5c 283b 0a7d 7c3d bfc5 613d
00000070: 231d f7bc 5990 01bc 121e 6838 5759 193a
00000080: 0b09 f33c c68a e0ba 6272 553d 3291 f73c
00000090: 33a4 6c3c 4993 4bbb 04b2 9ebd 02ba 463a
000000a0: 648e d6bc 7e9b c437 b1a0 423c ba0f efbb
000000b0: e4c4 4c3d e5bc 9b3a bfd5 733b aef8 ebb7
000000c0: ed5e 5fbc 3649 e0ba b114 a13c 1c66 403d
000000d0: c154 3bbd a7dd 66b5 fe60 44bd 12dd b83b
000000e0: 3d9f afa5 f058 a23d e1da e83c d8ed 55bd
000000f0: 3fdf efba c847 44bd da46 7ebd caf5 00bc
00000100: 5602 543a ee17 f7bb 4ec9 a1b9 0cb1 513d
00000110: 1b5d 8cbb c0c2 db3b 1582 f63c f49a 72bd
00000120: f4ca f83c 20b8 8abd f35c afbc a638 35bb
00000130: f483 653c 423f 183e eee2 c933 44ea 733c
00000140: 5f74 243d b882 b3bc 0a63 1e3e ee1f a73b
00000150: ad4c 4ab7 391b 1d2e 0aa2 943d aeb4 593d
00000160: 9653 0a3d 7f4c 153c 89bf bf3c 5347 2f3d
00000170: e65b b5bc da2d c8ba 7772 623b 6446 0d3d
00000180: 0592 0c3b 1021 5fbd ae1a 68ba c6bc 4dbd
00000190: 1dfe de32 4fdd 3fbd d559 9e3d f6d1 e53b
000001a0: 58eb 1a3b ea4f 7339 5568 783c 1b6f 05bb
000001b0: 3274 11bc d74a 7abc 4a85 0632 a143 aa3c
000001c0: eca4 4939 d1b1 a23c 49de f337 1792 8fbc
000001d0: e3aa 413b edf6 01ba 27ed 8a39 aad5 523d
000001e0: b23d ecb5 e174 603d 642e c53d f3a4 9eb4
000001f0: a596 3237 3476 afbc 9e15 e13b 0987 bc3c
00000200: 3689 51ba d252 063d 74ae 17b9 7b58 e1bd
00000210: 6f1d e6b9 4927 773d 6b4b 553d 032c cc3b
00000220: dc1c 243d 561f 84bb 5066 5c3d d8b4 3b30
00000230: 0566 50bc a36d 733d e8fe 913d 5715 503d
00000240: b6d7 133d 83b8 1eb7 fcef e337 af4f 3bbd
00000250: 2c6f f73c 5fa6 b0ba 9d5b a23b bc1e d9bb
00000260: 1a2d 93bb efc9 143c fba4 7cb9 0a70 053e
00000270: eff3 7c3d f1cb 4dbc 37a9 d0ba 9a84 6ebc
00000280: 5d43 e63d e240 e9b6 8362 683c a180 083c
00000290: 687a 5aac a2aa 9436 03fe 5d3b b5c5 4d3c
000002a0: 412a 2a3c 3271 03bb 6fd7 da3c 977a 493d
000002b0: 96eb 523d eec1 66bc 8e03 e9bc 9588 00bd
000002c0: 5fa1 cbbc ffa4 08b5 05b6 96bd b36e c0b3
000002d0: 1d8f fd3b eea0 213c b681 04bc 879a 01b8
000002e0: b479 47bc 36b1 4737 7626 273c 06d3 f63c
000002f0: de20 25a3 44a1 c539 64e3 6a3c a867 79bc
00000300: c15a 62ba f54b efbb ed67 7b3c d285 b23d
00000310: a070 e639 01cc e9bc 08ca 0b3d b75f 22bc
00000320: c1ef 253d dd11 bbbd 6d07 963d 5111 79bd
00000330: 4fdb 0f38 4ab7 1ebc e829 cc3c 9283 413d
00000340: 988e 9b37 8020 3cbd e559 32bd 09a7 123c
00000350: 26e5 3bbc aed9 593d 12c6 3238 da94 c23c
00000360: 823b 2d3c 0bca a13b e4e6 09ba a631 33bd
00000370: 1925 d23c 93eb a13d 043a 8cbb de10 923c
00000380: 5885 04b9 5493 c03c d57c e53b 1172 c7b7
00000390: a1b1 91bb 6de7 f1b8 47cb ddb4 e51a 183d
000003a0: 29a3 f53c 6202 0db7 0fdd dd3c db68 b7bd
000003b0: 544b 80bb 7d13 08bd be60 39bc 69da 2a3d
000003c0: e850 b7bd 48ea 7a3c a772 523b 8788 013c
000003d0: 815c 0f29 0e8f 543d 2932 063d 8b8f a83c
000003e0: de76 7cbb 0fde 83b6 e028 adbb 9f2e 513c
000003f0: 2211 4cbd 2cca 4abc 94e0 213d 0907 fbbc

input_proj.bias f4 [64]
-0.19396459 0.11742964 0.44133562 0.23593408 0.18903898 0.62760544 -0.35998294 0.3892843
0.036590647 -0.10992964 -0.1403867 -0.16450615 -0.32150248 0.20427845 -0.24226195 0.08782974
0.083815545 -0.36612386 -0.21600501 -0.42551202 0.6275881 -0.49146318 0.6576497 -0.5310564
0.62348837 -0.7562112 0.7957332 -0.27086127 0.57188785 -0.7654214 0.44646373 -0.8437086
0.34506786 -0.513245 0.72728866 -0.48924562 0.34711507 -0.5069075 0.11884141 -0.5170318
0.7242988 -0.496257 0.37476277 -0.7338776 0.4319645 -0.48044914 0.59805155 -0.42011258
0.3933351 -0.15665145 0.73716414 -0.55772096 0.38173705 -0.40227687 0.518392 -0.5151538
0.46582705 -0.31497347 0.11743734 -0.30236852 0.5346982 -0.48294044 0.7966309 -0.3800431
00000000: a79e 46be f37e f03d bef6 e13e b498 713e
00000010: 6f93 413e c0aa 203f af4f b8be 4650 c73e
00000020: 13e0 153d cb22 e1bd 88c1 0fbe 4d74 28be
00000030: f99b a4be 5f2e 513e 8413 78be 14e0 b33d
00000040: 7ca7 ab3d 9674 bbbe 6b30 5dbe b6dc d9be
00000050: 9da9 203f 10a1 fbbe bb5b 283f 50f3 07bf
00000060: ef9c 1f3f 0f97 41bf 2cb5 4b3f 54ae 8abe
00000070: 3e67 123f a8f2 43bf e596 e43e 49fd 57bf
00000080: bcac b03e 0664 03bf 972f 3a3f 677e fabe
00000090: 11b9 b13e b1c4 01bf 2063 f33d 325c 04bf
000000a0: a56b 393f 6615 febe e8e0 bf3e 67df 3bbf
000000b0: 732a dd3e 6efd f5be e819 193f ff18 d7be
000000c0: 3863 c93e 3d69 20be cab6 3c3f cdc6 0ebf
000000d0: 0a73 c33e 3cf7 cdbe 57b5 043f 1fe1 03bf
000000e0: e280 ee3e 3444 a1be fd82 f03d 0cd0 9abe
000000f0: fbe1 083f f843 f7be 01f0 4b3f 0295 c2be

pos_enc.pe f4 [1, 16, 64]
0.0 1.0 0.0 1.0 0.0 1.0 0.0 1.0
0.0 1.0 0.0 1.0 0.0 1.0 0.0 1.0
0.0 1.0 0.0 1.0 0.0 1.0 0.0 1.0
0.0 1.0 0.0 1.0 0.0 1.0 0.0 1.0
0.0 1.0 0.0 1.0 0.0 1.0 0.0 1.0
0.0 1.0 0.0 1.0 0.0 1.0 0.0 1.0
0.0 1.0 0.0 1.0 0.0 1.0 0.0 1.0
0.0 1.0 0.0 1.0 0.0 1.0 0.0 1.0
0.84147096 0.54030234 0.68156135 0.731761 0.53316844 0.8460091 0.40930894 0.91239583
0.3109836 0.9504153 0.23492105 0.9720145 0.17689219 0.9842302 0.13295726 0.99112177
0.099833414 0.9950042 0.07491915 0.9971896 0.05620449 0.9984193 0.04215715 0.999111
0.031617504 0.99950004 0.023711512 0.99971884 0.017781857 0.99984187 0.013334819 0.99991107
0.009999833 0.99995 0.0074988706 0.99997187 0.0056233825 0.9999842 0.0042169513 0.9999911
0.0031622713 0.999995 0.0023713715 0.9999972 0.0017782785 0.99999845 0.0013335211 0.9999991
0.0009999998 0.9999995 0.000749894 0.9999997 0.0005623411 0.9999998 0.00042169637 0.99999994
0.00031622782 0.99999994 0.00023713727 1.0 0.00017782794 1.0 0.00013335208 1.0
0.9092974 -0.41614684 0.99748 0.070948265 0.9021307 0.43146282 0.74690354 0.66493237
0.5911271 0.8065784 0.45669332 0.8896242 0.34820527 0.93741834 0.26355368 0.96464473
0.19866931 0.9800666 0.1494172 0.98877424 0.1122313 0.9936821 0.08423935 0.99644554
0.063203394 0.9980007 0.04740969 0.9988755 0.03555809 0.9993676 0.026667267 0.99964434
0.019998666 0.9998 0.014997319 0.9998875 0.011246587 0.99993676 0.008433828 0.9999644
0.006324511 0.99998003 0.00474273 0.99998873 0.0035565514 0.9999937 0.0026670396 0.9999964
0.0019999985 0.99999803 0.0014997876 0.99999887 0.0011246821 0.99999934 0.0008433926 0.99999964
0.0006324556 0.9999998 0.0004742745 0.9999999 0.00035565588 0.99999994 0.00026670416 1.0
0.14112 -0.9899925 0.7782725 -0.6279267 0.9932532 -0.11596616 0.95363444 0.3009673
0.8126489 0.58275366 0.652904 0.7574407 0.5085361 0.86104065 0.3894703 0.92103904
0.2955202 0.9553365 0.22307542 0.9748012 0.16790329 0.9858035 0.12617177 0.9920084
0.094726086 0.99550337 0.071081206 0.9974705 0.053323083 0.9985773 0.039994974 0.99919987
0.0299955 0.99955004 0.022494925 0.999747 0.016869437 0.9998577 0.012650555 0.99991995
0.009486687 0.999955 0.0071140616 0.9999747 0.005334813 0.99998575 0.0040005534 0.999992
0.0029999954 0.9999955 0.0022496805 0.9999975 0.0016870227 0.99999857 0.0012650888 0.9999992
0.00094868336 0.9999996 0.00071141176 0.99999976 0.0005334838 0.9999999 0.00040005625 0.99999994
00000000: 0000 0000 0000 803f 0000 0000 0000 803f
00000010: 0000 0000 0000 803f 0000 0000 0000 803f
00000020: 0000 0000 0000 803f 0000 0000 0000 803f
00000030: 0000 0000 0000 803f 0000 0000 0000 803f
00000040: 0000 0000 0000 803f 0000 0000 0000 803f
00000050: 0000 0000 0000 803f 0000 0000 0000 803f
00000060: 0000 0000 0000 803f 0000 0000 0000 803f
00000070: 0000 0000 0000 803f 0000 0000 0000 803f
00000080: 0000 0000 0000 803f 0000 0000 0000 803f
00000090: 0000 0000 0000 803f 0000 0000 0000 803f
000000a0: 0000 0000 0000 803f 0000 0000 0000 803f
000000b0: 0000 0000 0000 803f 0000 0000 0000 803f
000000c0: 0000 0000 0000 803f 0000 0000 0000 803f
000000d0: 0000 0000 0000 803f 0000 0000 0000 803f
000000e0: 0000 0000 0000 803f 0000 0000 0000 803f
000000f0: 0000 0000 0000 803f 0000 0000 0000 803f
00000100: a46a 573f 4151 0a3f ce7a 2e3f b054 3b3f
00000110: ba7d 083f 0d94 583f f190 d13e c692 693f
00000120: 3e39 9f3e 6b4e 733f 258f 703e f1d5 783f
00000130: 3a23 353e 83f6 7b3f f325 083e 28ba 7d3f
00000140: 7675 cc3d 98b8 7e3f 366f 993d d147 7f3f
00000150: ae36 663d 6898 7f3f faac 2c3d bdc5 7f3f
00000160: 5b81 013d 3cdf 7f3f a53e c23c 93ed 7f3f
00000170: 42ab 913c a3f5 7f3f 497a 5a3c 2cfa 7f3f
00000180: 57d6 233c b9fc 7f3f 16b9 f53b 28fe 7f3f
00000190: 5a44 b83b f7fe 7f3f 5a2e 8a3b 6bff 7f3f
000001a0: 1c3e 4f3b acff 7f3f 0369 1b3b d1ff 7f3f
000001b0: 2015 e93a e6ff 7f3f 8bc9 ae3a f1ff 7f3f
000001c0: 6d12 833a f8ff 7f3f 8994 443a fbff 7f3f
000001d0: 136a 133a fdff 7f3f 2117 dd39 ffff 7f3f
000001e0: 61cb a539 ffff 7f3f 0da8 7839 0000 803f
000001f0: 5377 3a39 0000 803f 6dd4 0b39 0000 803f
00000200: b7c7 683f 3311 d5be d95a 7f3f 534d 913d
00000210: 0af2 663f b2e8 dc3e 1235 3f3f 0239 2a3f
00000220: 1b54 173f ec7b 4e3f b5d3 e93e 69be 633f
00000230: f647 b23e a6fa 6f3f 82f0 863e f5f2 763f
00000240: f86f 4b3e a5e5 7a3f d300 193e 4f20 7d3f
00000250: 86d9 e53d f361 7e3f ae85 ac3d 0e17 7f3f
00000260: c870 813d f97c 7f3f aa30 423d 4eb6 7f3f
00000270: 5ca5 113d 8ed6 7f3f 5075 da3c b1e8 7f3f
00000280: 3ed4 a33c e5f2 7f3f 51b7 753c a1f8 7f3f
00000290: 9b43 383c dbfb 7f3f 0a2e 0a3c abfd 7f3f
000002a0: d83d cf3b b1fe 7f3f e768 9b3b 43ff 7f3f
000002b0: 0815 693b 96ff 7f3f 80c9 2e3b c4ff 7f3f
000002c0: 6812 033b dfff 7f3f 8594 c43a edff 7f3f
000002d0: 126a 933a f5ff 7f3f 1f17 5d3a faff 7f3f
000002e0: 60cb 253a fdff 7f3f 0ca8 f839 feff 7f3f
000002f0: 5377 ba39 ffff 7f3f 6dd4 8b39 0000 803f
00000300: c381 103e 2670 7dbf de3c 473f cebf 20bf
00000310: d745 7e3f ab7f edbd 6321 743f 6318 9a3e
00000320: c209 503f 582f 153f b724 273f a2e7 413f
00000330: 6c2f 023f 296d 5c3f a768 c73e 37c9 6b3f
00000340: 6c4e 973e ef90 743f e26d 643e 928c 793f
00000350: d7ee 2b3e 9e5d 7c3f 2c33 013e 43f4 7d3f
00000360: c0ff c13d 4fd9 7e3f 0693 913d 3a5a 7f3f
00000370: 4e69 5a3d c3a2 7f3f c5d1 233d 90cb 7f3f
00000380: 1fb9 f53c 83e2 7f3f 4747 b83c 6bef 7f3f
00000390: c631 8a3c adf6 7f3f 4644 4f3c c1fa 7f3f
000003a0: 0d6e 1b3c 0dfd 7f3f 131d e93b 58fe 7f3f
000003b0: a8cf ae3b 11ff 7f3f 1317 833b 7aff 7f3f
000003c0: 929b 443b b5ff 7f3f 606f 133b d6ff 7f3f
000003d0: 171f dd3a e8ff 7f3f 56d1 a53a f3ff 7f3f
000003e0: 10b1 783a f9ff 7f3f 097e 3a3a fcff 7f3f
000003f0: 7ed9 0b3a feff 7f3f a4be d139 ffff 7f3f

transformer.layers.0.self_attn.in_proj_weight f4 [192, 64]
0.11366522 0.28029573 -0.060873244 0.068774514 -0.15352607 -0.3129005 0.56922233 -0.09556524
0.44584438 0.05679731 0.18350504 0.20948271 0.031628467 -0.09203966 0.110724956 -0.14822958
-0.07524329 -0.097311154 0.11761171 -0.21878842 -0.05407535 -0.07988337 -0.030558608 -0.07059211
-0.031787645 -0.054238338 -0.002978035 -0.31502077 -0.025717983 -0.08404235 0.28242683 -0.16110586
0.119806044 -0.37156808 0.025191968 -0.30658114 0.24726373 -0.18151383 0.23078202 -0.24297427
0.18042362 -0.27212566 0.25863993 -0.1155454 0.33742362 -0.124004684 0.228422 -0.3647448
0.24119669 -0.33802152 0.045865677 -0.23888469 0.12625556 -0.35950485 0.20687711 -0.09428325
0.30049977 -0.102978595 0.23670979 -0.18199772 0.2620033 -0.17488378 0.014519077 -0.37508816
0.08864581 0.030217882 -0.1605021 0.08067341 -0.18664983 -0.7598421 0.22472507 -0.21287778
0.2937209 0.043412786 0.108356275 0.18027635 0.22133854 0.043926664 0.022141373 -0.0582202
-0.029599618 0.01943157 0.21361265 -0.009460173 -0.31836456 0.04608004 -0.40270713 0.049149245
-0.15843336 0.12875369 -0.27947265 -0.22418033 -0.15450427 0.21399206 0.08164876 0.08051664
-0.04939816 -0.20018923 -0.18176459 -0.19438884 0.028596185 -0.024675468 0.09056922 -0.10377629
-0.122876555 -0.04956114 0.1267928 0.11411783 0.047641642 -0.0042155418 0.0066866907 -0.16190839
0.054668143 -0.09822259 -0.22799973 -0.10328194 -0.007928705 -0.12830916 0.002097525 0.020674666
0.13031802 -0.10780721 0.09357726 -0.07655122 -0.031486742 -0.068697296 -0.24039917 -0.22815472
0.075093955 0.27106178 -0.15111543 0.101948045 -0.26783517 -0.5336551 0.33070916 -0.22277544
0.15501115 -0.10046954 0.31616136 0.24066918 0.21817237 0.060580395 0.011861904 0.11703536
-0.02337471 0.1326692 0.10599533 0.065014645 -0.20159683 -0.004754361 -0.26907173 -0.016867891
-0.20301886 0.016141849 -0.19853063 -0.33434018 -0.22292747 0.025815362 0.13635688 0.0048780036
-0.0076093306 -0.20317246 -0.10213932 -0.16826859 0.15218526 -0.16336648 0.14547653 -0.2614118
-0.06840004 -0.13090034 0.12631384 0.0287391 0.1290092 -0.01569438 0.14225608 -0.23794086
0.19350348 -0.12568197 -0.03365082 -0.2675306 0.07542619 -0.18001595 0.040188212 -0.06195246
0.23177885 -0.012630834 0.044847313 -0.05517999 -0.007849362 -0.19090419 -0.1382639 -0.16131626
-0.023931738 -0.1761684 -0.057044275 -0.089396864 0.20974688 0.48289984 -0.16440617 0.15710299
-0.20913614 0.15712158 -0.0447451 -0.0012077863 -0.15216884 -0.014740299 -0.26346526 -0.0065141064
0.06018942 0.10177453 -0.0710421 0.08964096 0.21499963 -0.019806765 0.15746687 -0.007113371
0.09121241 -0.07727564 0.09679666 0.15701823 0.102003545 -0.15004152 -0.08894109 -0.05918358
0.008283302 0.20565592 0.09676589 0.15488853 -0.1251695 0.037976846 -0.10039531 0.13752952
0.00013276834 0.050305814 -0.13749273 -0.10760555 -0.12779807 -0.026985575 -0.12641093 0.13292727
-0.08862643 0.15950884 0.12557162 0.1698973 -0.04593432 0.22250149 -0.030777328 -0.0052355244
-0.17659752 0.034108393 -0.07077612 0.03491492 -0.044122245 0.028116615 0.12063911 0.26883602
00000000: 50c9 e83d ec82 8f3e 3956 79bd a7d9 8c3d
00000010: f035 1dbe 7f34 a0be 8eb8 113f b5b7 c3bd
00000020: b745 e43e 4ca4 683d bfe8 3b3e a382 563e
00000030: da8c 013d 4a7f bcbd c4c3 e23d 7fc9 17be
00000040: 2719 9abd 124b c7bd 69de f03d 120a 60be
00000050: 1d7e 5dbd e499 a3bd 0c56 fabc 9992 90bd
00000060: c333 02bd 0529 5ebd 232b 43bb 674a a1be
00000070: 85ae d2bc 651e acbd 409a 903e eff8 24be
00000080: df5c f53d 2c3e bebe 635f ce3c 34f8 9cbe
00000090: b432 7d3e c3de 39be 1f52 6c3e 3fce 78be
000000a0: f8c0 383e 0e54 8bbe 746c 843e 11a3 ecbd
000000b0: cac2 ac3e 2bf6 fdbd 75e7 693e d5bf babe
000000c0: 44fc 763e 2811 adbe a6dd 3b3d 309e 74be
000000d0: 2349 013e 0511 b8be 98d7 533e 9417 c1bd
000000e0: 1bdb 993e 71e6 d2bd 0d64 723e 9c5d 3abe
000000f0: 4c25 863e bc14 33be 6ce1 6d3c 8e0b c0be
00000100: ef8b b53d 7e8b f73c aa5a 24be 1a38 a53d
00000110: 2221 3fbe 0385 42bf 541e 663e a2fc 59be
00000120: 9662 963e 9bd1 313d e5e9 dd3d 5d9a 383e
00000130: 92a6 623e 72ec 333d d361 b53c 4e78 6ebd
00000140: e67a f2bc f52e 9f3c 46bd 5a3e d7fe 1abc
00000150: ae00 a3be 6dbe 3c3d a12f cebe b850 493d
00000160: 5b3c 22be 02d8 033e 0a17 8fbe 878f 65be
00000170: 5e36 1ebe bc20 5b3e 7737 a73d e8e5 a43d
00000180: ba55 4abd 68fe 4cbe 7f20 3abe de0d 47be
00000190: 8c42 ea3c 3524 cabc 5b7c b93d aa88 d4bd
000001a0: b4a6 fbbd 9f00 4bbd f9d5 013e 9cb6 e93d
000001b0: e223 433d 8722 8abb 071c db3b 50cb 25be
000001c0: b4eb 5f3d ed28 c9bd c378 69be 7b85 d3bd
000001d0: 66e7 01bc 7a63 03be a176 093b eb5d a93c
000001e0: 1672 053e 07ca dcbd 6fa5 bf3d e3c6 9cbd
000001f0: 3ef8 00bd 2bb1 8cbd 332b 76be 64a1 69be
00000200: dcca 993d 9cc8 8a3e 01be 1abe 23ca d03d
00000210: b121 89be 9f9d 08bf b652 a93e 3f1f 64be
00000220: 3ebb 1e3e f9c2 cdbd e7df a13e fb71 763e
00000230: 9468 5f3e 2623 783d 6e58 423c 3cb0 ef3d
00000240: 527c bfbc 6fda 073e 1414 d93d 6626 853d
00000250: 666f 4ebe 79ca 9bbb c5c3 89be 882e 8abc
00000260: 2de4 4fbe e93b 843c 9d4b 4bbe a32e abbe
00000270: 1947 64be bd7a d33c 23a1 0b3e a9d7 9f3b
00000280: b157 f9bb 710c 50be 6b2e d1bd 9a4e 2cbe
00000290: 74d6 1b3e 8b49 27be cdf7 143e c4d7 85be
000002a0: 5215 8cbd bd0a 06be 6a58 013e 436e eb3c
000002b0: fd1a 043e 8091 80bc 94ab 113e c5a6 73be
000002c0: c725 463e c6b2 00be 71d5 09bd c5f9 88be
000002d0: 0c79 9a3d 1a56 38be 659c 243d ddc1 7dbd
000002e0: 6f57 6d3e 8ff1 4ebc d1b1 373d 6a04 62bd
000002f0: 9c9a 00bc 637c 43be 0d95 0dbe 1730 25be
00000300: 7e0c c4bc 7d65 34be 42a7 69bd b415 b7bd
00000310: e3c7 563e a63e f73e 175a 28be 9bdf 203e
00000320: c927 56be 7be4 203e a346 37bd 954e 9eba
00000330: 26d2 1bbe 4c81 71bc ebe4 86be 4974 d5bb
00000340: 2e89 763d 2a6f d03d 857e 91bd ae95 b73d
00000350: dd28 5c3e cc41 a2bc ff3e 213e 4817 e9bb
00000360: 92cd ba3d b142 9ebd 543d c63d 63c9 203e
00000370: 3ce7 d03d 7ca4 19be bf26 b6bd 7b6a 72bd
00000380: b0b6 073c 7797 523e 322d c63d 199b 1e3e
00000390: 6f2c 00be 9c8d 1b3d 0e9c cdbd 8ad4 0c3e
000003a0: bb37 0b39 780d 4e3d e5ca 0cbe 4c60 dcbd
000003b0: 7fdd 02be da10 ddbc de71 01be 161e 083e
000003c0: c681 b5bd 4956 233e d995 003e 8ff9 2d3e
000003d0: a025 3cbd 6ed7 633e bc20 fcbc c38e abbb
000003e0: fbd5 34be 3eb5 0b3d 12f3 90bd f202 0f3d
000003f0: 87b9 34bd d154 e63c a311 f73d e0a4 893e

transformer.layers.0.self_attn.in_proj_bias f4 [192]
-0.40628952 -0.33102888 -0.29715836 0.26726717 0.391336 -0.16837317 -0.24944057 0.40355495
0.21276803 0.30790198 -0.44423112 -0.31304336 0.2722394 0.24527408 -0.16268001 0.46539187
-0.0005490808 0.000634685 -0.025439844 0.00060366106 0.10011538 -0.2641357 -0.13163309 0.05457118
-0.091543585 -0.05509792 -0.19109057 0.052439943 -0.29061052 0.26259676 -0.30234817 0.029275162
-0.40037972 0.40088353 -0.40946326 0.011396651 -0.08405612 0.28909475 -0.21292591 -0.33669946
-0.087153204 -0.35287148 0.32523447 -0.41736248 -0.027496478 -0.3370542 -0.20675825 0.13365301
-0.005232059 0.17655644 -0.29008165 -0.30688468 -0.29231754 -0.13155214 -0.23756017 0.00370615
0.23452094 0.18764326 -0.1398004 0.26260486 0.29189608 -0.16354565 -0.09208336 -0.10838293
-2.6310584e-22 -5.906183e-20 -1.714431e-20 -1.4136032e-21 7.749819e-21 2.0306707e-20 -1.1062883e-20 1.192466e-20
-8.57206e-21 -1.1206197e-21 -2.057766e-20 3.5719064e-20 -1.3238105e-20 -3.8106065e-20 -8.141448e-21 8.6977395e-21
-2.6717304e-20 -5.06236e-21 -5.383171e-21 8.0399196e-20 -1.3649613e-21 1.0120438e-19 3.2308234e-20 2.5362366e-20
8.869832e-22 3.7996096e-20 1.8815757e-19 2.1841484e-20 4.4908928e-20 5.791052e-20 -9.239982e-21 4.0083056e-21
3.6604348e-23 2.1527506e-23 1.7787163e-23 -1.9787244e-23 -2.1641288e-23 4.321971e-23 3.0727713e-23 3.2404503e-23
1.6754562e-23 -3.0071788e-23 -6.5176698e-24 -4.089035e-23 -1.682953e-23 2.3026064e-23 -3.4790713e-23 -2.138336e-23
-2.8047853e-21 1.30630745e-20 -1.7625445e-20 -6.9239816e-21 1.1431326e-20 1.4426747e-20 5.5207997e-21 6.0672244e-21
-9.9859845e-21 -4.5509373e-23 1.3650676e-20 -3.5441397e-21 1.3902567e-20 1.1992093e-20 -1.02853794e-20 -1.4272325e-20
-0.2814905 -0.22611527 0.26372263 0.1678068 0.06997114 -0.3972219 0.19417228 -0.2707868
0.18815267 -0.017275127 -0.3561157 0.23642203 0.12998702 -0.31254026 -0.084201574 0.24891701
-0.0359868 -0.2514308 -0.048828125 -0.1188488 -0.24000318 -0.26398835 -0.15144517 0.12792885
-0.10513142 -0.22584844 0.019694775 -0.23181383 -0.23365073 0.25255018 0.22686793 -0.22236586
-0.2745261 -0.18332702 -0.2545361 0.2775917 -0.027592242 0.05178338 -0.19341642 -0.2435197
0.30953634 -0.2051061 -0.039779298 0.21788019 -0.27708626 -0.28534427 0.2365314 -0.23286307
-0.3775779 -0.028894234 -0.25419098 -0.16077794 -0.15601218 -0.09005786 -0.24115711 -0.15581825
-0.2562604 -0.10660636 -0.08140173 0.24967921 0.29274678 -0.24039267 -0.22093956 -0.07854938
00000000: 2e05 d0be 9e7c a9be 2425 98be 3ed7 883e
00000010: 315d c83e 046a 2cbe 596d 7fbe c19e ce3e
00000020: dddf 593e 54a5 9d3e 4372 e3be 3847 a0be
00000030: f662 8b3e 2129 7b3e 9795 26be d847 ee3e
00000040: 30f0 0fba fd60 263a 3867 d0bc 023f 1e3a
00000050: 4b09 cd3d cb3c 87be d3ca 06be 0886 5f3d
00000060: 347b bbbd 5bae 61bd 3fad 43be 44cb 563d
00000070: e7ca 94be 1573 863e 61cd 9abe 77d2 ef3c
00000080: 92fe ccbe 9b40 cd3e 2ba5 d1be 05b9 3a3c
00000090: 9d25 acbd 3a04 943e 4009 5abe df63 acbe
000000a0: 617d b2bd 92ab b4be 2285 a63e 89b0 d5be
000000b0: 4b40 e1bc 5e92 acbe 6fb8 53be 56dc 083e
000000c0: b171 abbb 36cb 343e 9585 94be fd1f 9dbe
000000d0: a5aa 95be 9bb5 06be f942 73be e1e2 723b
000000e0: 4226 703e 8e25 403e d627 0fbe 2574 863e
000000f0: 6773 953e 8378 27be 3396 bcbd dff7 ddbd
00000100: a809 9f9b b074 8b9f 66ec a19e 209e d59c
00000110: d363 121e 9bca bf1e d2f8 509e 1e40 611e
00000120: f0eb 219e e057 a99c bb59 c29e b3ad 281f
00000130: 8c0f 7a9e 68f3 339f a0c9 199e b04b 241e
00000140: 7a56 fc9e 2440 bf9d d65e cb9d 55d6 bd1f
00000150: 6244 ce9c 4bf6 ee1f 4292 181f 708a ef1e
00000160: 8009 861c 766e 331f 2323 5e20 7849 ce1e
00000170: 9013 541f c3bc 881f d089 2e9e f46d 971d
00000180: fd01 311a 8633 d019 e206 ac19 d85e bf99
00000190: 3c4d d199 69ff 501a 1197 141a d5b2 1c1a
000001a0: 490a a219 126b 119a e023 fc98 cdbb 459a
000001b0: e6c3 a299 c6b1 de19 d13c 289a a3ce ce99
000001c0: 70ec 539d 27c1 761e b677 a69e 52ca 029e
000001d0: 80ee 571e bc41 881e e691 d01d 9836 e51d
000001e0: 42a1 3c9e e011 5c9a 4fed 801e d1e4 859d
000001f0: 584e 831e 3486 621e 0b49 429e 5dcc 869e
00000200: 861f 90be c38a 67be a706 873e 8cd5 2b3e
00000210: 074d 8f3d ab60 cbbe 19d5 463e 91a4 8abe
00000220: 18ab 403e 9184 8dbc cc54 b6be 9e18 723e
00000230: 511b 053e 4705 a0be e071 acbd 1ae4 7e3e
00000240: e566 13bd 8abb 80be 0000 48bd 0067 f3bd
00000250: 65c3 75be 7b29 87be 7114 1bbe c8ff 023e
00000260: 244f d7bd d044 67be f056 a13c 9b60 6dbe
00000270: 2342 6fbe 424e 813e 1150 683e e0b3 63be
00000280: af8e 8cbe 14ba 3bbe 8e52 82be 8020 8e3e
00000290: 2009 e2bc cf1a 543d f40e 46be 3a5d 79be
000002a0: 8c7b 9e3e 5507 52be 9eef 22bd fc1b 5f3e
000002b0: 40de 8dbe a518 92be 4a35 723e a873 6ebe
000002c0: e451 c1be 9ab3 ecbc 5225 82be f9a2 24be
000002d0: a8c1 1fbe 4170 b8bd e4f1 76be d28e 1fbe
000002e0: 9034 83be 6f54 dabd f3b5 a6bd e8ab 7f3e
000002f0: e8e2 953e 7f29 76be fb3d 62be 7fde a0bd

transformer.layers.0.self_attn.out_proj.weight f4 [64, 64]
-0.2909955 -0.28078762 0.10126866 0.2722987 0.26479554 -0.13882041 -0.1597885 -0.258174
0.1602485 -0.25050595 -0.123970434 0.246459 -0.1087695 -0.087525725 0.12044826 0.15684786
0.09501914 -0.050043944 0.074742004 -0.30794784 -0.28042734 -0.16142765 0.010417562 0.44166467
0.14325172 -0.28290945 -0.028068831 -0.079134785 -0.27049187 0.17712526 0.29045144 -0.21003634
-0.22740075 0.27427965 -0.063753605 0.26872998 -0.1793388 0.19602053 0.35924214 -0.23071484
0.20162885 0.3387195 -0.19067119 0.16755778 -0.19957188 -0.08683026 -0.23630182 -0.27651668
-0.23753446 0.20262565 -0.096499465 0.28650442 0.29466704 0.34566003 -0.13252077 -0.37807554
-0.31819165 0.4144395 0.42147022 0.49830148 0.22693285 -0.2502917 -0.17867814 0.2318985
-0.19150634 -0.2107685 0.28601626 0.15340307 0.12426456 -0.18275447 -0.30758122 -0.428614
0.39319763 -0.26634184 -0.32065603 0.30610898 -0.107825786 -0.1857985 0.2946374 0.352901
0.19895111 -0.48606676 0.23080683 -0.12385145 -0.35682654 -0.25430214 0.15382393 0.29857206
0.22696096 -0.4339437 -0.22877952 -0.42050973 -0.35437492 0.40498224 0.2950353 -0.11798578
-0.36607572 0.2697833 -0.1627719 0.44094527 -0.24419838 0.08150844 0.42601004 -0.1120965
0.23526834 0.22251408 -0.1542679 0.2551538 -0.26381627 -0.20325758 -0.24950619 -0.24172273
-0.12847702 0.015496848 -0.09446899 0.11782336 0.21420884 0.009693464 -0.29008204 -0.03198753
-0.21781698 -0.06587901 -0.06660907 -0.22039531 0.051516946 -0.27260327 -0.11579873 -0.014286832
-0.34099185 -0.27624333 0.30190083 0.16724718 0.22265312 -0.24396133 -0.35842076 -0.419115
0.37357053 -0.30591354 -0.3389175 0.25580215 -0.24110076 -0.42275608 0.1894591 0.4053476
0.35739955 -0.49729508 0.2365643 -0.2281366 -0.39984977 -0.33014268 0.33864248 0.18829826
0.18360081 -0.44761264 -0.18567342 -0.47461167 -0.26466253 0.28705603 0.2539901 -0.3795862
-0.21381873 0.36627322 -0.1485246 0.39227968 -0.15202469 0.24129185 0.20993662 -0.067292154
0.27474248 0.2475034 0.016465457 0.3541952 -0.27577034 -0.27955493 -0.22782634 -0.40619305
-0.12547682 0.27754045 -0.17573948 0.028636424 0.30779895 0.11956806 -0.3028805 -0.22963415
-0.11051567 0.040382657 0.16188188 -0.2760484 0.19004147 -0.27001476 -0.21194188 0.24161345
0.14282683 0.08712377 -0.13312288 -0.13986 -0.19982788 0.11275088 -0.030473497 0.066280246
-0.058971334 0.36618277 0.25185475 -0.18723522 0.24203724 0.063401185 0.044567715 -0.117689036
-0.079655305 0.20225297 0.017315531 0.28180817 0.15658247 0.29385504 0.08109531 -0.19565839
-0.059065506 0.2718906 -0.018446298 0.14997342 0.09436229 -0.22845821 -0.18729632 0.27591386
0.2862872 -0.19146787 0.24473876 -0.20044045 0.35929227 -0.37114975 -0.15095817 0.2915745
-0.24425648 -0.040947337 0.22068068 -0.28732586 0.20028003 0.2799261 0.022089655 0.036048416
0.31799906 -0.27093807 0.15340811 -0.2361536 -0.34862366 -0.2450561 0.16704595 0.1958711
0.19579002 -0.3803105 -0.1928091 -0.44783488 -0.2567396 0.27548885 0.3168012 -0.43060926
00000000: 5dfd 94be 65c3 8fbe f165 cf3d bc6a 8b3e
00000010: 4893 873e f026 0ebe 999f 23be 622f 84be
00000020: 2f18 243e 5142 80be 36e4 fdbd c05f 7c3e
00000030: 8bc2 debd b040 b3bd 94ad f63d ba9c 203e
00000040: 6599 c23d e1fa 4cbd 5612 993d 57ab 9dbe
00000050: 2c94 8fbe 4a4d 25be 6cae 2a3c df21 e23e
00000060: 94b0 123e 82d9 90be 9bf0 e5bc 6b11 a2bd
00000070: e97d 8abe 5360 353e 0db6 943e c413 57be
00000080: bedb 68be 626e 8c3e 4091 82bd fa96 893e
00000090: 97a4 37be 9bb9 483e 96ee b73e 8340 6cbe
000000a0: cb77 4e3e a46c ad3e 4f3f 43be 4494 2b3e
000000b0: 925c 4cbe 10d4 b1bd 1bf9 71be 9893 8dbe
000000c0: 3c3c 73be 197d 4f3e 83a1 c5bd b5b0 923e
000000d0: 99de 963e 5afa b03e 86b3 07be 1e93 c1be
000000e0: 04ea a2be 6a31 d43e f2ca d73e 5f21 ff3e
000000f0: 1661 683e 3c26 80be 67f7 36be cd76 6d3e
00000100: 3d1a 44be b3d3 57be b970 923e b215 1d3e
00000110: 6b7e fe3d fd23 3bbe 497b 9dbe 4b73 dbbe
00000120: 3351 c93e f55d 88be 072d a4be 51ba 9c3e
00000130: c4d3 dcbd f641 3ebe b7da 963e 71af b43e
00000140: d7b9 4b3e bedd f8be a058 6c3e d4a5 fdbd
00000150: f8b1 b6be e433 82be 0584 1d3e 70de 983e
00000160: 7468 683e de2d debe 2e45 6abe 0d4d d7be
00000170: a170 b5be d559 cf3e de0e 973e 87a2 f1bd
00000180: 476e bbbe 0921 8a3e adad 26be 94c3 e13e
00000190: 240f 7abe e6ed a63d fd1d da3e da92 e5bd
000001a0: 2fea 703e bbda 633e 68f8 1dbe 85a3 823e
000001b0: ed12 87be c122 50be 8d7e 7fbe 2a86 77be
000001c0: 7b8f 03be 7ee6 7d3c f578 c1bd 604d f13d
000001d0: 9059 5b3e 56d1 1e3c a285 94be 5b05 03bd
000001e0: 6a0b 5fbe 93eb 86bd 566a 88bd 4faf 61be
000001f0: 6f03 533d a892 8bbe e227 edbd 5113 6abc
00000200: 7c96 aebe c46f 8dbe bf92 9a3e d842 2b3e
00000210: 2eff 633e 00d1 79be ed82 b7be 3e96 d6be
00000220: a344 bf3e b3a0 9cbe 9886 adbe 80f8 823e
00000230: 1ee3 76be 7c73 d8be 9101 423e b889 cf3e
00000240: 13fd b63e 769d febe e93d 723e a49c 69be
00000250: 1cb9 ccbe 7608 a9be 8c62 ad3e 42d1 403e
00000260: da01 3c3e 7c2d e5be 2c21 3ebe 4d00 f3be
00000270: d981 87be 02f9 923e fe0a 823e 1f59 c2be
00000280: 4cf3 5abe 2a88 bb3e d516 18be e2d8 c83e
00000290: 5cac 1bbe 3615 773e a0f9 563e 78d0 89bd
000002a0: 0cab 8c3e 8871 7d3e 91e2 863c 1359 b53e
000002b0: c531 8dbe d321 8fbe 4f4b 69be 89f8 cfbe
000002c0: ff7c 00be c819 8e3e 0df5 33be ef96 ea3c
000002d0: d397 9d3e 19e0 f43d 2713 9bbe 3725 6bbe
000002e0: 0a56 e2bd 4968 253d 5dc4 253e 3756 8dbe
000002f0: 3b9a 423e 603f 8abe 4b07 59be 8469 773e
00000300: 3241 123e f26d b23d 5d51 08be 7637 0fbe
00000310: ae9f 4cbe efe9 e63d 8ea3 f9bc f0bd 873d
00000320: ed8b 71bd 4f7c bb3e 1bf3 803e 97ba 3fbe
00000330: 9cd8 773e 7bd8 813d a38c 363d f306 f1bd
00000340: 5222 a3bd 671b 4f3e 4dd9 8d3c 2949 903e
00000350: 2857 203e 2b74 963e 4c15 a63d ac5a 48be
00000360: acee 71bd 3f35 8b3e b11c 97bc a292 193e
00000370: 0441 c13d f3f0 69be 9bca 3fbe 9544 8d3e
00000380: 3c94 923e 2710 44be cc9c 7a3e 4340 4dbe
00000390: 28f5 b73e 5707 bebe c794 1abe 4149 953e
000003a0: 5f1e 7abe 65b8 27bd 1efa 613e 601c 93be
000003b0: 3516 4d3e 7952 8f3e 5df5 b43c 81a7 133d
000003c0: c6d0 a23e 65b8 8abe 0417 1d3e 40d2 71be
000003d0: cd7e b2be fcef 7abe 180e 2b3e 6f92 483e
000003e0: 2e7d 483e 0fb8 c2be c06f 45be 9d4a e5be
000003f0: 5f73 83be e00c 8d3e c433 a23e d178 dcbe

transformer.layers.0.self_attn.out_proj.bias f4 [64]
0.07000027 -0.42145467 -0.36495546 -0.046582744 0.19742791 -0.14288321 -0.30728066 0.16052015
-0.201737 -0.14314066 0.4913674 -0.2959511 0.082264476 -0.016323388 0.19075033 0.36181393
0.20594603 0.12277877 -0.1836985 -0.18960047 0.27323276 -0.062176347 -0.0040022535 0.007482875
0.14611252 -0.15688503 -0.06674034 -0.03201047 0.35394886 -0.19587137 -0.588808 0.09075409
-0.02750608 0.21504168 0.13946189 0.11357422 0.03884186 -0.14236717 -0.2941027 -0.07484562
-0.046937983 0.11498228 -0.37477747 -0.3573396 -0.15350473 -0.22448844 -0.3506657 -0.16203636
0.1994053 0.078760155 -0.079867765 -0.17950423 0.109239794 0.05120921 0.08711469 0.11397363
0.31549966 0.1230959 0.23791596 0.17864823 -0.07918985 0.3835293 0.31945673 -0.004209031
00000000: 4d5c 8f3d e8c8 d7be 71db babe 8ccd 3ebd
00000010: 8b2a 4a3e fa4f 12be e453 9dbe 655f 243e
00000020: 2594 4ebe 7793 12be 8294 fb3e e786 97be
00000030: 477a a83d a0b8 85bc 0e54 433e ad3f b93e
00000040: 84e3 523e 7073 fb3d 761b 3cbe a026 42be
00000050: 2ae5 8b3e a0ac 7ebd 5625 83bb e832 f53b
00000060: 859e 153e 78a6 20be 29af 88bd 691d 03bd
00000070: c938 b53e 8192 48be 1fbc 16bf 48dd b93d
00000080: 6e54 e1bc e333 5c3e 19cf 0e3e 9a99 e83d
00000090: a418 1f3d b3c8 11be a194 96be a948 99bd
000000a0: 0b42 40bd d47b eb3d d5e2 bfbe 37f5 b6be
000000b0: 5830 1dbe 4ce0 65be 748a b3be dcec 25be
000000c0: e730 4c3e 014d a13d b691 a3bd f5cf 37be
000000d0: 1db9 df3d c0c0 513d 3069 b23d 026b e93d
000000e0: 2c89 a13e b419 fc3d 3ea0 733e 90ef 363e
000000f0: 4a2e a2bd f45d c43e d58f a33e e9eb 89bb

transformer.layers.0.linear1.weight f4 [128, 64]
-0.3569786 -0.28881335 -0.35664842 0.24002787 0.022580866 -0.23912616 -0.31489673 0.05516082
-0.20753 0.21666668 0.11822932 -0.46223417 0.25231975 0.30655792 -0.017082583 0.16569676
-0.039578702 -0.504928 -0.38488248 -0.36905238 0.0013687573 -0.11576098 -0.0655592 -0.34354612
-0.20759602 0.10379782 -0.1605148 -0.13172856 0.48930305 0.1631881 0.34443265 0.14461619
0.35876936 0.24970616 -0.30162075 0.2197846 0.36373845 -0.3291676 0.11206777 -0.4800259
-0.22379544 0.21706118 0.04288828 -0.0800587 0.43040058 0.33473346 -0.3457477 -0.3040253
-0.06663738 -0.3768899 -0.20957765 -0.1032691 0.18989408 -0.048102304 0.4930819 0.20800935
0.41665423 0.34293517 0.45237392 0.18865776 -0.28162718 0.32684433 0.45281056 -0.309759
-0.24944557 -0.2852979 -0.26027262 0.29452178 0.041830614 -0.22690308 -0.38130572 0.039557192
-0.22292124 0.20670836 -0.07760912 -0.34088185 0.18584466 0.3052402 -0.09734237 0.00021027238
-0.20217437 -0.34891185 -0.085815154 -0.2232316 -0.110984124 0.04622145 0.07141265 -0.44961932
-0.105977975 0.08467522 -0.3075502 -0.068793975 0.31660983 0.07681749 0.29577166 0.12217655
0.38641697 0.20759344 -0.20011891 0.34374657 0.064321935 -0.062472645 0.16791058 -0.37635761
-0.35001323 0.07549092 -0.04251748 -0.07981706 0.23741691 0.08109409 -0.3615869 -0.17981665
-0.16878083 -0.20053333 -0.26092264 -0.14219527 0.1959261 0.02496597 0.46463934 0.11440966
0.2677848 0.2721534 0.16457997 0.11727354 -0.079960644 0.299543 0.37535405 -0.34208214
0.30838248 0.35355842 0.47928843 -0.5085671 -0.057504993 0.16961338 0.5851775 -0.4154411
0.32649904 -0.3290159 -0.6701901 0.4787101 -0.3999305 -0.48489913 -0.5274894 -0.596694
-0.5034434 0.37539333 0.18228139 0.17033838 -0.3611721 0.390312 0.46159825 0.33705583
0.3861835 0.18157639 0.43159884 0.39677674 -0.49714306 0.042141613 -0.3059187 -0.2794018
-0.52792263 -0.3255304 0.2338726 -0.45896208 -0.44205698 0.55664045 0.41154838 0.39189917
0.43813577 -0.29551816 0.41151965 0.45611915 -0.36920553 -0.3232022 0.26317212 0.4928781
-0.5802467 0.36995336 0.3657015 0.5842705 -0.5052884 -0.30114684 -0.18460742 -0.2642336
-0.57549936 -0.3411041 -0.30486643 -0.058199212 0.28457168 -0.29767507 -0.43695205 0.45200697
0.12063857 0.112089686 0.058892187 0.20175484 0.09779043 0.021812214 0.1679862 -0.36470294
-0.2516761 -0.1116971 -0.24713771 0.1557125 0.054988716 0.07414071 -0.24170698 -0.016534517
-0.4151051 0.0818848 0.21746789 0.13985935 -0.06481944 0.28573802 0.12536985 -0.15803054
0.0174394 -0.13871682 -0.20562284 -0.05972549 -0.08313934 0.111598656 0.06863072 -0.11681147
-0.10181239 -0.25780943 0.05880374 -0.03970453 0.023857562 0.16955371 0.1911422 0.096164756
-0.13200463 -0.03856525 0.11553448 0.06833556 0.324717 0.163441 -0.12971573 -0.016345514
-0.16470572 0.11401214 -0.28698513 0.054896463 -0.021640092 0.09055708 0.13951676 0.08318752
-0.00031468415 -0.114219114 -0.29470918 -0.010123047 -0.04939839 0.50661874 0.07341388 -0.18313554
00000000: e6c5 b6be 58df 93be 9f9a b6be dec9 753e
00000010: 82fb b83c 7ddd 74be 253a a1be 50f0 613d
00000020: bf82 54be dfdd 5d3e 3722 f23d f5a9 ecbe
00000030: 0e30 813e 29f5 9c3e c6f0 8bbc 69ac 293e
00000040: 471d 22bd f642 01bf 510f c5be 6ff4 bcbe
00000050: e067 b33a 1814 edbd e743 86bd 47e5 afbe
00000060: 0d94 54be f493 d43d fe5d 24be dae3 06be
00000070: ee85 fa3e c81a 273e 7a59 b03e 4416 143e
00000080: 9eb0 b73e f9b2 7f3e 096e 9abe 370f 613e
00000090: ed3b ba3e a888 a8be c983 e53d f4c5 f5be
000000a0: a22a 65be 4945 5e3e 9fab 2f3d d1f5 a3bd
000000b0: 775d dc3e 2f62 ab3e d805 b1be 34a9 9bbe
000000c0: 2e79 88bd b7f7 c0be 869b 56be c07e d3bd
000000d0: 9873 423e ec06 45bd 3b75 fc3e 6700 553e
000000e0: b453 d53e 3395 af3e 8e9d e73e 802f 413e
000000f0: 7031 90be 2458 a73e c9d6 e73e bb98 9ebe
00000100: a96e 7fbe 9112 92be 7442 85be 8fcb 963e
00000110: 9456 2b3d 4859 68be 813a c3be b906 223d
00000120: 7745 64be 5bab 533e 88f1 9ebd 1188 aebe
00000130: 104e 3e3e 7248 9c3e 705b c7bd 907c 5c39
00000140: cc06 4fbe 93a4 b2be dbbf afbd d396 64be
00000150: a54b e3bd b452 3d3d cc40 923d 8134 e6be
00000160: fb0a d9bd 346a ad3d 3877 9dbe dbe3 8cbd
00000170: af1a a23e 7d52 9d3d 626f 973e b337 fa3d
00000180: 72d8 c53e 6093 543e f9eb 4cbe 8dff af3e
00000190: 38bb 833d 51e3 7fbd c0f0 2b3e f2b1 c0be
000001a0: ef34 b3be fc9a 9a3d cf26 2ebd 2077 a3bd
000001b0: 6b1d 733e a914 a63d eb21 b9be db21 38be
000001c0: e2d4 2cbe 9c58 4dbe a797 85be a39b 11be
000001d0: daa0 483e 6f85 cc3c 35e5 ed3e 9d4f ea3d
000001e0: 171b 893e b157 8b3e a787 283e 1c2d f03d
000001f0: 68c2 a3bd b35d 993e 682e c03e 6425 afbe
00000200: 4fe4 9d3e 9c05 b53e 4b65 f53e 7431 02bf
00000210: 5b8a 6bbd 21af 2d3e 31ce 153f b2b4 d4be
00000220: e22a a73e c674 a8be 9491 2bbf 7d19 f53e
00000230: b1c3 ccbe b344 f8be 8c09 07bf f0c0 18bf
00000240: abe1 00bf 8e33 c03e f9a7 3a3e 2f6d 2e3e
00000250: 8deb b8be f9d6 c73e 9b56 ec3e 9592 ac3e
00000260: d8b9 c53e 29ef 393e 86fa dc3e 5226 cb3e
00000270: 8989 febe af9c 2c3d 60a1 9cbe c10d 8fbe
00000280: f025 07bf ecab a6be 4d7c 6f3e 14fd eabe
00000290: 4b55 e2be fd7f 0e3f 78b6 d23e 02a7 c83e
000002a0: 5553 e03e 284e 97be b4b2 d23e 7388 e93e
000002b0: 8208 bdbe c27a a5be 7fbe 863e 855a fc3e
000002c0: 0c8b 14bf 876a bd3e 3a3d bb3e c092 153f
000002d0: 955a 01bf eb2f 9abe ba09 3dbe a049 87be
000002e0: ed53 13bf 32a5 aebe 7417 9cbe 4c62 6ebd
000002f0: 61b3 913e de68 98be 2eb8 dfbe 756d e73e
00000300: 5b11 f73d 478f e53d ef38 713d d298 4e3e
00000310: 5946 c83d 87af b23c 9304 2c3e 58ba babe
00000320: b1db 80be 73c1 e4bd ab11 7dbe 1973 1f3e
00000330: d93b 613d 16d7 973d 0982 77be 6573 87bc
00000340: a888 d4be 38b3 a73d e7af 5e3e 4a37 0f3e
00000350: 0ec0 84bd 414c 923e f460 003e c2d2 21be
00000360: 13dd 8e3c c80b 0ebe cb8e 52be b7a2 74bd
00000370: f544 aabd d68d e43d 438e 8c3d da3a efbd
00000380: 0483 d0bd 99ff 83be 31dc 703d 38a1 22bd
00000390: ef70 c33c 7d9f 2d3e c8ba 433e 07f2 c43d
000003a0: 392c 07be 98f6 1dbd 579d ec3d 84f3 8b3d
000003b0: 4e41 a63e 145d 273e 33d4 04be 07e7 85bc
000003c0: 9ea8 28be 327f e93d b7ef 92be 1ddb 603d
000003d0: 9046 b1bc fe75 b93d 7bdd 0e3e 385e aa3d
000003e0: 31fc a4b9 b6eb e9bd 1fe4 96be 23db 25bc
000003f0: f755 4abd c4b1 013f 045a 963d e287 3bbe

transformer.layers.0.linear1.bias f4 [128]
-0.43766162 -0.37763116 0.03857616 -0.2511005 0.3087952 -0.47645882 0.33813605 0.11660381
0.010886783 0.20020612 0.20076893 0.15960942 -0.40483075 0.3370141 0.047302205 0.13450047
-0.23327155 0.3171039 0.29131147 0.0305925 0.39394778 -0.035826083 0.24450885 0.44308963
-0.5040516 0.21201375 0.1810285 -0.045375764 0.076501966 0.1858232 -0.4676827 -0.08229103
0.04237758 0.23161742 -0.25093037 -0.08368917 0.53482765 0.1242937 0.282809 0.17661445
-0.03860358 0.22087444 0.056167465 0.034969546 0.1588931 -0.018377788 0.38264552 0.4115305
0.08494557 -0.0062499847 0.095513865 0.29387122 0.29553995 -0.39502418 0.018798022 -0.18505621
-0.093242206 -0.25731826 0.17197034 0.013729231 -0.1405145 0.25503245 -0.13105261 0.04426362
0.31273326 -0.49504453 -0.05908445 0.6300259 0.04217319 0.0819165 -0.22581057 0.24237208
-0.24925359 0.22303407 -0.019449845 -0.07613258 -0.17292413 0.19176714 0.3070638 -0.08007595
0.052977256 0.33915412 0.13004723 0.34253317 -0.11355745 -0.3465635 -0.0022618044 -0.13257308
-0.36848935 -0.09763712 -0.49923638 -0.2733053 0.2348051 0.1817665 0.20796762 -0.052414816
0.32578185 0.36538458 -0.018427558 0.11329752 0.14018369 0.12153356 0.25714538 0.14276189
0.19717227 -0.15203144 -0.3288607 0.1784291 -0.0026579893 -0.00249494 0.21050683 0.1455931
0.062747024 -0.119499594 0.17930187 0.28190222 0.0002384199 0.27778983 0.032101214 -0.11343928
-0.26367414 0.038287878 0.04526606 -0.07702041 0.24681082 0.18523593 -0.047324643 0.28512347
00000000: 2f15 e0be df58 c1be 0902 1e3d 3f90 80be
00000010: 681a 9e3e 69f2 f3be 2b20 ad3e facd ee3d
00000020: 7a5e 323c d502 4d3e 5f96 4d3e a770 233e
00000030: fa45 cfbe 1d8d ac3e f5bf 413d 7eba 093e
00000040: bdde 6ebe 715b a23e c726 953e 1f9d fa3c
00000050: 86b3 c93e 5fbe 12bd 8760 7a3e a5dc e23e
00000060: 8709 01bf 221a 593e 895f 393e f0db 39bd
00000070: 10ad 9c3d 7048 3e3e 1b74 efbe 3388 a8bd
00000080: 1d94 2d3d 1e2d 6d3e f279 80be 3a65 abbd
00000090: 77ea 083f b28d fe3d 57cc 903e 6bda 343e
000000a0: ca1e 1ebd e92c 623e db0f 663d 3a3c 0f3d
000000b0: dfb4 223e 048d 96bc 1dea c33e 20b4 d23e
000000c0: f1f7 ad3d accc ccbb c69c c33d 4a76 963e
000000d0: 0351 973e 9c40 cabe 4ffe 993c 607f 3dbe
000000e0: c5f5 bebd 38bf 83be fe18 303e 92f0 603c
000000f0: 08e3 0fbe 9d93 823e a832 06be c54d 353d
00000100: 931e a03e 7a76 fdbe 8902 72bd 6149 213f
00000110: cbbd 2c3d d7c3 a73d e33a 67be 6330 783e
00000120: 553c 7fbe 0b63 643e 4855 9fbc 66eb 9bbd
00000130: 0613 31be 9b5e 443e 7737 9d3e dcfe a3bd
00000140: aefe 583d 9ca5 ad3e 1a2b 053e 8260 af3e
00000150: cf90 e8bd c570 b1be c83a 14bb 3dc1 07be
00000160: a3aa bcbe f8f5 c7bd e99b ffbe acee 8bbe
00000170: c070 703e ff20 3a3e 77f5 543e ebb0 56bd
00000180: e1cc a63e b013 bb3e 64f5 96bc 8808 e83d
00000190: 508c 0f3e 96e6 f83d 8fa8 833e 2c30 123e
000001a0: 87e7 493e 21ae 1bbe 6e60 a8be 1eb6 363e
000001b0: a931 2ebb 2682 23bb 1a8f 573e 5c16 153e
000001c0: 8381 803d 34bc f4bd e99a 373e 7d55 903e
000001d0: 5b00 7a39 783a 8e3e 907c 033d da52 e8bd
000001e0: 4c00 87be c0d3 1c3d e768 393d e0bc 9dbd
000001f0: fabb 7c3e 7dae 3d3e 7cd7 41bd b4fb 913e

transformer.layers.0.linear2.weight f4 [64, 128]
-0.081968844 -0.20921959 -0.0663102 0.09881898 -0.10356174 -0.1495355 -0.338435 -0.19039819
-0.25604948 -0.20077062 -0.38960737 -0.015602844 -0.044231422 0.22116189 -0.3990422 -0.30662176
-0.20386565 -0.024046103 -0.41644436 -0.34897494 0.047392912 0.028938923 0.051106386 -0.048839558
0.042605888 0.17992854 -0.08245509 -0.013871692 -0.1636305 -0.26360705 -0.31407198 -0.08212125
0.24812049 -0.38463232 -0.20775425 -0.19426906 -0.18619952 0.19513269 -0.4372899 -0.45930043
-0.14420745 0.19428761 -0.25712514 -0.06801285 -0.29378787 -0.107613266 -0.18097843 -0.026652912
0.26815778 0.10554427 -0.011997406 -0.15430996 0.028347775 -0.14619766 0.1402741 -0.17643203
-0.12764464 -0.2906136 -0.2799845 0.09168492 -0.23647073 -0.2961542 -0.056275934 -0.080616586
-0.3809862 -0.21113105 0.07530716 -0.23365547 -0.14018293 -0.28631184 -0.14048298 -0.26558614
-0.030973246 -0.11279734 -0.0049192966 0.13050714 -0.22022903 -0.20971459 -0.36379275 -0.17420287
-0.38315064 -0.20466763 -0.13884583 -0.25324526 -0.16692428 -0.052166253 0.2482582 -0.1871441
-0.113024525 -0.25821105 -0.013565815 -0.32800597 0.32031792 -0.18870965 -0.3140041 0.05081005
-0.40644327 -0.34590673 -0.23065433 -0.11474436 -0.35929978 -0.39678222 -0.13627508 0.112169236
0.2344811 -0.001019867 0.01667241 -0.08929822 -0.31701106 -0.19144078 0.07442054 0.19464386
0.06776482 -0.26150712 0.17595369 -0.15095687 -0.0579975 -0.3363455 -0.28266335 -0.062157437
-0.15617365 -0.22298831 -0.18933155 -0.2859347 -0.08303512 -0.4321888 -0.22009848 -0.30938056
-0.53322446 -0.2962975 -0.29933697 -0.16332264 -0.60921377 -0.4614315 -0.59863025 -0.43573126
-0.39715186 -0.41973937 -0.38199055 -0.16933027 -0.40865833 0.204703 -0.49946773 -0.41700047
-0.4515328 -0.33146557 -0.37904108 -0.4619657 -0.37497142 -0.22050028 -0.30692095 -0.33968234
-0.43932295 0.008947779 -0.31278196 -0.51952326 -0.46589324 -0.48849994 -0.48848918 -0.21012548
0.07376963 -0.50877345 -0.48059344 -0.555644 0.005213065 -0.5216502 -0.5252893 -0.40360662
-0.47258896 -0.27496448 0.022328312 0.025336804 -0.47463465 -0.14044376 -0.5619693 0.23957707
0.14731443 -0.4832963 -0.27428067 -0.54112786 0.21381477 -0.5087359 0.24254796 -0.28847393
-0.58801246 -0.4585212 -0.116130024 -0.016744366 -0.43791792 -0.46127138 -0.39718065 -0.32140502
-0.5081547 -0.5696066 -0.4634076 -0.33155048 -0.53269017 -0.41002584 -0.41924542 -0.6291413
-0.13182457 -0.36575466 -0.21937267 -0.11853648 -0.3196088 -0.51068527 -0.32233846 -0.3577906
-0.42969322 -0.44475684 -0.07777295 -0.4221923 -0.41179824 -0.480673 -0.5955346 -0.36760074
-0.5082316 -0.08407255 -0.5511557 -0.18284045 0.24736159 -0.25523594 -0.40669176 -0.15930094
-0.33231473 -0.3327251 -0.53033 -0.10848318 -0.5106773 -0.414576 -0.59478235 0.34919214
0.15793517 -0.22731547 -0.33368468 -0.6946876 -0.44525412 -0.21127985 0.1653273 0.09230819
-0.4662593 -0.5684077 0.24123123 -0.45782247 -0.20047107 -0.560715 -0.5476206 -0.028488731
-0.47522008 -0.39925927 -0.37097764 -0.3335529 -0.05074759 -0.6167315 -0.40289277 -0.466964
00000000: 48df a7bd a93d 56be a4cd 87bd 9b61 ca3d
00000010: 2d18 d4bd d61f 19be 5a47 adbe bef7 42be
00000020: eb18 83be d096 4dbe 9e7a c7be 12a3 7fbc
00000030: 022c 35bd 4378 623e 424f ccbe 87fd 9cbe
00000040: 28c2 50be 55fc c4bc 3238 d5be d8ac b2be
00000050: 121f 423d 5211 ed3c ee54 513d fd0b 48bd
00000060: 8383 2e3d 303f 383e 37de a8bd 1846 63bc
00000070: c18e 27be 81f7 86be 0bce a0be 302f a8bd
00000080: 4c13 7e3e 87ee c4be 88bd 54be 78ee 46be
00000090: 16ab 3ebe ddd0 473e 76e4 dfbe 6d29 ebbe
000000a0: 1eab 13be 55f3 463e e8a5 83be 524a 8bbd
000000b0: 5d6b 96be 5864 dcbd 6952 39be 3557 dabc
000000c0: fa4b 893e 9827 d83d c590 44bc 6e03 1ebe
000000d0: 9839 e83c d7b4 15be 03a4 0f3e 99aa 34be
000000e0: 47b5 02be 4ecb 94be 215a 8fbe 4ec5 bb3d
000000f0: 6225 72be 86a1 97be 9881 66bd 4f1a a5bd
00000100: a010 c3be bd32 58be a43a 9a3d 6143 6fbe
00000110: 1d8c 0fbe 7797 92be c5da 0fbe e8fa 87be
00000120: 9bbb fdbc 4b02 e7bd 0d32 a1bb aaa3 053e
00000130: b883 61be 6cbf 56be 0b43 babe 3d62 32be
00000140: 522c c4be 6494 51be 9a2d 0ebe 5da9 81be
00000150: 33ee 2abe 48ac 55bd 6637 7e3e b4a2 3fbe
00000160: 6779 e7bd 3d34 84be 2743 5ebc 66f0 a7be
00000170: b600 a43e 1a3d 41be 25c5 a0be 331e 503d
00000180: 5519 d0be b01a b1be a630 6cbe 17ff eabd
00000190: 24f6 b7be 0a27 cbbe b28b 0bbe fcb8 e53d
000001a0: d01b 703e 0fad 85ba 9494 883c fce1 b6bd
000001b0: 464f a2be 0d09 44be cc69 983d b850 473e
000001c0: 48c8 8a3d 43e4 85be 342d 343e 7094 1abe
000001d0: c98e 6dbd 7a35 acbe 40b9 90be cc98 7ebd
000001e0: fceb 1fbe 0c57 64be 21e0 41be 0866 92be
000001f0: 510e aabd da47 ddbe 7f61 61be 2167 9ebe
00000200: 6681 08bf 4eb4 97be b242 99be 0d3e 27be
00000210: 6ff5 1bbf c040 ecbe d53f 19bf 2b18 dfbe
00000220: 7d57 cbbe 14e8 d6be 4494 c3be ea64 2dbe
00000230: aa3b d1be aa9d 513e 3cba ffbe 1681 d5be
00000240: 4f2f e7be dbb5 a9be ac11 c2be c586 ecbe
00000250: 41fc bfbe d3ca 61be be24 9dbe d8ea adbe
00000260: f0ee e0be b599 123c f524 a0be 7aff 04bf
00000270: 8f89 eebe aa1c fabe 411b fabe 222b 57be
00000280: 8814 973d fa3e 02bf 5810 f6be af3e 0ebf
00000290: 5cd2 aa3b de8a 05bf 5c79 06bf 87a5 cebe
000002a0: 2ef7 f1be 25c8 8cbe dde9 b63c 218f cf3c
000002b0: 5003 f3be 7dd0 0fbe 38dd 0fbf b153 753e
000002c0: 98d9 163e 9d72 f7be 846e 8cbe 5b87 0abf
000002d0: 42f2 5a3e 843c 02bf 7e5e 783e dbb2 93be
000002e0: fc87 16bf 4ac3 eabe 94d5 edbd 7b2b 89bc
000002f0: c736 e0be c32b ecbe 435b cbbe 338f a4be
00000300: 6d16 02bf bdd1 11bf c343 edbe fcc0 a9be
00000310: 625e 08bf e8ee d1be 56a7 d6be 670f 21bf
00000320: 05fd 06be 3244 bbbe 3ba3 60be 41c3 f2bd
00000330: c4a3 a3be 45bc 02bf 8c09 a5be 5430 b7be
00000340: c000 dcbe 2bb7 e3be 6d47 9fbd 9729 d8be
00000350: 38d7 d2be c51a f6be f574 18bf 2a36 bcbe
00000360: 771b 02bf 3b2e acbd 8a18 0dbf 873a 3bbe
00000370: 5b4c 7d3e 49ae 82be e739 d0be c91f 23be
00000380: 2825 aabe f25a aabe b5c3 07bf 6e2c debd
00000390: bfbb 02bf 4e43 d4be a843 18bf 50c9 b23e
000003a0: c2b9 213e 63c5 68be b8d8 aabe 0cd7 31bf
000003b0: 59f8 e3be bf59 58be 8f4b 293e 140c bd3d
000003c0: 8ab9 eebe 2b83 11bf 5205 773e b567 eabe
000003d0: 4a48 4dbe 058b 0fbf dd30 0cbf 3361 e9bc
000003e0: 0c50 f3be b66b ccbe c8f0 bdbe 72c7 aabe
000003f0: b4dc 4fbd 1ee2 1dbf f647 cebe e815 efbe

transformer.layers.0.linear2.bias f4 [64]
-0.12122615 -0.5628598 -0.39050075 -0.028433999 -0.09836029 -0.13867345 -0.37139508 -0.021836601
-0.28412294 -0.24505274 0.42163628 -0.3975426 0.25065875 -0.099805 0.13213408 0.23649512
0.24621423 0.29084006 -0.31171408 -0.22806302 0.4061283 0.07625687 0.04164812 0.07010714
-0.20442335 0.039695952 -0.25939852 -0.12471245 0.28627533 0.12973966 -0.5492832 0.16888976
-0.11604457 0.44737685 -0.11439971 0.46231025 -0.04536084 0.17581794 -0.41945565 0.1724494
-0.33946893 0.27146137 -0.37758344 0.020645643 -0.27612263 0.12133057 -0.37438634 0.17470467
0.07716127 0.19991468 -0.29098603 0.17640989 -0.43365967 0.18605413 -0.013002199 0.1856495
0.40719885 0.2251448 0.15413925 0.17480695 -0.19826502 0.541437 0.04473233 0.043054584
00000000: 6a45 f8bd 9417 10bf b7ef c7be 6bee e8bc
00000010: 1f71 c9bd 6a00 0ebe 7f27 bebe ace2 b2bc
00000020: 9078 91be 1bef 7abe b6e0 d73e b48a cbbe
00000030: 5856 803e 9066 ccbd 284e 073e c72b 723e
00000040: 951f 7c3e fde8 943e fd98 9fbe 5a89 69be
00000050: 0cf0 cf3e 902c 9c3d 3897 2a3d 5594 8f3d
00000060: 5b54 51be 3998 223d e2cf 84be 3e69 ffbd
00000070: ae92 923e 79da 043e d39d 0cbf 70f1 2c3e
00000080: c7a8 edbd 940e e53e 654a eabd eeb3 ec3e
00000090: 4acc 39bd 9e09 343e e4c2 d6be 9396 303e
000000a0: dfce adbe fcfc 8a3e 9e52 c1be 0d21 a93c
000000b0: f25f 8dbe 297c f83d 91af bfbe c8e5 323e
000000c0: ba06 9e3d 6fb6 4c3e 1ffc 94be cba4 343e
000000d0: a408 debe f984 3e3e 2d07 55bc e71a 3e3e
000000e0: 5e7c d03e 5c8c 663e aed6 1d3e 9800 333e
000000f0: fc05 4bbe 9d9b 0a3f 3f39 373d 015a 303d
