data/processed/model_20250725_172928/best_gnn.pth (torch, 912191 bytes, 220 tensors)

lin_dict.core.weight f4 [64, 3]
00000000: 3c77 a4bd 80b5 3a3e 9636 0b3f ae07 d7be
00000010: 5ace 91be 4e21 04bf 0225 05be bb0f ecbe
00000020: ec97 3a3e f621 6bbe b80f c83d b8b2 f13e
00000030: 4cf0 3bbe a81c e2be f562 d2be ca8f cdbe
00000040: 64ea 01be 8818 883d f035 5bbd 0fe9 09bf
00000050: 88c2 463e fce3 d83e 242d fb3e 3209 ba3e
00000060: e890 93bd 9a7d 873e c0d1 95bd e074 843e
00000070: 069d 803e 3cd1 733e 56e6 013f 4881 9b3d
00000080: a4c8 fbbd 57c0 f2be 41bb e8be 1a96 d63e
00000090: c013 a03c 4a0c 52be a6df 103f 902a dcbd
000000a0: 1065 b93e 5fc1 9cbe 42cd 063f 307b 41be
000000b0: 9e23 123f d21e 9d3e 8e82 cc3e 00ea c3bc
000000c0: 9320 0ebf 3075 133e 765c e6be 4a5f 12bf
000000d0: cc28 713e 50e7 cd3e ee5a f8be 487b 113e
000000e0: 0a95 0fbf 90db 503d 78d6 043f 76e2 e8be
000000f0: e2a7 16be c0ae 193d 3e67 34be bced f7bd
00000100: 04b7 db3e 41b7 03bf c020 d43e 9cfd bebe
00000110: bc73 203e 9a2a 093f ce80 053f 9e20 b13e
00000120: 5065 e53d 6e00 903e a4b6 e03e 4072 293e
00000130: f849 e03e 7e7f 073f a863 f0be 545b 033e
00000140: aa95 64be bfbc 00bf 68b6 95be f0dc cabe
00000150: 2703 c4be a203 56be f148 ecbe 64d9 a13e
00000160: 00ae f9ba e188 c0be 0821 29be dc82 5d3e
00000170: f4f5 febe c0f5 ffbc 001a 293b 6035 203d
00000180: 4696 15be 42e6 bf3e 4c7b 023f 1a79 49be
00000190: eaaf 003f 04a4 0b3e 7291 0d3f 2a82 123f
000001a0: d8f5 523e 2d74 d9be 84dc 013e cc31 ba3e
000001b0: 3953 9bbe 14fc 5f3e 9ad7 64be 6083 8a3c
000001c0: e6af 9b3e ec20 d1be c604 a23e 4620 ecbe
000001d0: 5af8 0a3f 56e7 ae3e 6ebd 113f 9075 dbbd
000001e0: 141b a4bd 7248 0a3f e57d dfbe 945c 533e
000001f0: defc a1be 7484 513e bc0e 053f 1004 8fbe
00000200: 2798 02bf 94b9 0d3e f031 ce3d 88fa b1be
00000210: b076 103f 0022 8cbe 6433 d1be 2ede 0abf
00000220: 232d 02bf 3cc7 313e 0861 633e 8c9e 0fbe
00000230: 3c38 933e 6335 0fbf 0284 b63e 80f8 43bd
00000240: 2269 8fbe 30a7 10bf a067 cc3d e493 4d3e
00000250: 77af eabe fc86 b2be 28a6 f63e eae1 863e
00000260: 00aa be3b 5240 093f f61f ffbe 45a9 ecbe
00000270: 32cf c43e 3821 583e bc13 91be e200 0d3f
00000280: a395 f6be 7cbc bdbe ee5b a9be 7025 67bd
00000290: 703c 913e c0a4 b03e 902d 743e c0e7 e33c
000002a0: bca3 423e 98e0 c2be 90f1 e93d 1628 59be
000002b0: 7455 333e ee25 e7be 21bc 0ebf 12b7 43be
000002c0: 708d 013e f42e 053e de33 043f 60da 6fbe
000002d0: 68a9 dfbd 209e 343e 64f8 ef3e 4c0a 5fbe
000002e0: bc48 57be 6aba 033f 5822 0f3f d0f5 ecbe
000002f0: 64e4 0abf 2274 833e 764e 78be 505f 013d
-0.08030555 0.182333 0.54380167 -0.41998047 -0.28477746 -0.5161332 -0.13002399 -0.4610575
0.18222016 -0.22962174 0.09768623 0.47206664 -0.18353385 -0.44162488 -0.41091123 -0.40148765
-0.12687069 0.06645304 -0.053518236 -0.53871244 0.19410145 0.42361438 0.49057877 0.3633514
-0.07205373 0.26463014 -0.07315397 0.2587042 0.251198 0.23810285 0.5074209 0.07593018
-0.122941285 -0.4741237 -0.45455363 0.41911393 0.019540668 -0.205125 0.5659126 -0.10750306
0.36209917 -0.3061628 0.5265695 -0.18894649 0.570856 0.30687577 0.39943355 -0.02391529
-0.55518454 0.14400172 -0.44992417 -0.5717665 0.23550719 0.4021554 -0.48506874 0.14207184
-0.5608679 0.05099064 0.51889753 -0.45485276 -0.1471248 0.03752017 -0.17617509 -0.12105891
0.42913067 -0.514515 0.41431236 -0.37302864 0.15669149 0.5358063 0.52149665 0.34595197
0.112009645 0.28125328 0.43889344 0.16547489 0.43806434 0.5292891 -0.46951032 0.12827808
-0.22322717 -0.50288004 -0.29240727 -0.39621687 -0.38283655 -0.20899823 -0.461494 0.31611168
-0.0019049048 -0.3760443 -0.16516507 0.2163195 -0.49797022 -0.031245112 0.002580285 0.039113402
-0.14608106 0.3748036 0.50969386 -0.19675103 0.50268424 0.13636786 0.55300057 0.57229865
0.20601594 -0.42471448 0.12681776 0.36366117 -0.3033693 0.21873504 -0.2234787 0.016908348
0.30407637 -0.4084543 0.31644267 -0.46118373 0.54285204 0.3416087 0.5692967 -0.10715783
-0.08012977 0.5401679 -0.43650737 0.20640785 -0.31638235 0.20460683 0.5197561 -0.27932787
-0.51013416 0.13840324 0.100681186 -0.34761453 0.564311 -0.2736969 -0.4085952 -0.5424527
-0.50850123 0.17361158 0.22204983 -0.14025325 0.2875384 -0.55940837 0.3564759 -0.04784441
-0.28009897 -0.5650511 0.099807024 0.20075947 -0.45836994 -0.3486861 0.48173642 0.26344234
0.0058186054 0.5361377 -0.49829072 -0.46222892 0.38439327 0.21106422 -0.2833537 0.5507947
-0.4816104 -0.37057865 -0.3307795 -0.056432188 0.28366423 0.34500694 0.23845506 0.027820468
0.19007772 -0.38061976 0.114230275 -0.21206698 0.17513067 -0.45146126 -0.5575581 -0.19112805
0.1265161 0.13006192 0.51641643 -0.23423147 -0.109209836 0.17638445 0.46869195 -0.21781272
-0.2102384 0.5145632 0.5591178 -0.4628129 -0.54254746 0.2567454 -0.2424868 0.031585038

lin_dict.core.bias f4 [64]
00000000: d624 073f 00c0 353a 20be 5fbd 2e53 13bf
00000010: 4c13 453e 48b7 a4bd 2804 a2be dd8a f3be
00000020: d22f 07be c099 983d 4af2 cebe 6a9a a63e
00000030: 18f5 ed3d 5ecb 11be 3a72 80be 808d 0fbc
00000040: b053 103f caac 0cbf 464a 9ebe 3c79 0f3f
00000050: 6676 b5be bc3f e03e 6c30 b43e cac5 b23e
00000060: 9033 f6bd f81f cc3e 447f 0a3e eeb2 24be
00000070: 4815 063f b04a ba3d 2e30 c03e fcfc 8a3e
00000080: 9efa a9be ba31 d73e 20f6 c0be 107c 253e
00000090: a4fe 8dbe 3079 1a3d 209e 1abd d6e2 a83e
000000a0: f119 c5be a06a 0ebe 749a fb3e 0cec 113f
000000b0: aadc 8d3e b8f4 26be 0085 2e3d 3191 0ebf
000000c0: 7a75 d43e 9e65 36be 20a0 aebd 1ee0 d6be
000000d0: 7c72 fd3e f8c6 afbd 6016 77bd d89c 923e
000000e0: dc4b 81be f85d 5b3e 5000 b9be c5de e7be
000000f0: 1388 b2be ca8b 77be 1f17 8dbe 150f 02bf
0.5279058 0.0006933212 -0.054624677 -0.575488 0.19245642 -0.080427706 -0.31643796 -0.47566882
-0.13201836 0.074512005 -0.40419227 0.32539684 0.116190135 -0.14237735 -0.25087148 -0.008761764
0.56377697 -0.54951155 -0.3091604 0.56044364 -0.35441893 0.43798625 0.35193193 0.34916526
-0.120215535 0.3986814 0.1352511 -0.16083881 0.5237622 0.09096277 0.37536758 0.27146137
-0.33199018 0.42030126 -0.37687778 0.16160607 -0.27733338 0.03771323 -0.037748456 0.32985562
-0.38496354 -0.13907862 0.49141276 0.57000804 0.27707416 -0.1630429 0.042607307 -0.55690295
0.41495878 -0.17812201 -0.08526635 -0.41967863 0.49501407 -0.08582872 -0.060324073 0.28635287
-0.2525319 0.21422565 -0.3613305 -0.45287147 -0.3486944 -0.24174419 -0.27556702 -0.50804263

lin_dict.agg.weight f4 [64, 3]
00000000: ae2b 0a3f a6de 6dbe cc3b e13e c0a0 cbbe
00000010: a869 693e e751 0fbf 30bf 543d 7c46 b4be
00000020: c1c4 8ebe 80ca e63d 0a20 923e 30f3 c93d
00000030: aa34 a63e f0bc 2ebe 1adf af3e ccc6 d8bd
00000040: a879 abbe e407 ed3e 5c19 f43e 4af1 29be
00000050: f6ac 08bf 7651 13be f60a 42be ee69 33be
00000060: 8a4d 12be eaae abbe c086 d9be 8297 bebe
00000070: e065 99bd ce4e aabe 9250 d2be 5494 0e3f
00000080: b03a 84bd e15d 0abf e8f3 803d 729e 0c3f
00000090: 18c0 04bf 6c4e 0c3f 7000 a0bd 2088 f73c
000000a0: 5e51 c13e 1ef7 44be 1404 063f 5919 08bf
000000b0: 5259 5fbe 1e43 c7be 0cca fc3e 2acd c5be
000000c0: dde4 86be 647f b9be 81b8 12bf e67c 06bf
000000d0: 62a5 07bf 78f1 593e fe5f bebe 8019 de3d
000000e0: c03e 6f3d a2bd 103f 2845 2a3e 0c9e a9bd
000000f0: f058 a23e 0d07 debe 2286 09bf 2cad c13e
00000100: 5400 053e da8e b8be 9a0f 823e 508f a03e
00000110: fa84 d4be c219 b33e 543c c5be 72f7 ecbe
00000120: 50c4 053f 5aa7 023f 6e7f 0abf 40b3 2abc
00000130: 2004 0b3f 2203 0dbf 1ee7 983e d671 70be
00000140: 6cf5 60be 347a fdbd 7fcc b9be f8b5 a03d
00000150: 7017 423e 6a51 afbe d89b 85bd 3ed0 a43e
00000160: 6061 c33e a6d7 0fbf 9ead a43e 0028 0bba
00000170: 7e0c 053f 005a 1d3e c03f 8ebc 6282 033f
00000180: ecd1 163e 643d a33e a44a 283e 145e 04be
00000190: 70a8 943e a804 8c3d 08bf ff3e 3748 07bf
000001a0: 88dd b5bd 3014 583e a0f6 a3bd 2ca2 fabe
000001b0: 5529 12bf 2456 a4be ee41 cdbe 20af edbe
000001c0: f4e6 a0bd 7073 6ebd 58b7 aebe 2015 733e
000001d0: 020e cc3e c0c4 8cbd aa42 31be 7b84 b8be
000001e0: c461 fa3e b228 853e 003e 293c feef 0c3f
000001f0: ceb0 ce3e 3085 6abd 30ad 093f 8642 0b3f
00000200: be3c 0dbe 00ee ddbe 56a1 36be 52e5 0abf
00000210: 10e3 3bbd 4e95 973e 14eb e0be b293 f2be
00000220: d81d e9be 5b0a a4be acf4 d3bd df56 e0be
00000230: 44ea e73e 7006 d43e 1a66 61be ec44 19be
00000240: b437 943e 08c0 5bbe d3e9 aebe b008 06bf
00000250: 789e f03e 907f 06bd 30bf b9bd 1e41 b83e
00000260: d6fb 37be 1467 203e b630 42be 14e1 7d3e
00000270: 3e53 45be 6ca3 48be bac1 a3be b078 ac3e
00000280: 0a96 a93e 808f 3e3e ebe8 07bf a00f 863c
00000290: 2851 8c3d a41a 513e 40cb fb3d 8471 133f
000002a0: 001b d43b 984c be3d 7456 d7bd 684a aa3d
000002b0: ffd4 10bf 08dd a43e ca03 7abe dc2f 0e3e
000002c0: d69a 083f ac20 92be 9459 8bbe 4c1c dcbd
000002d0: a806 fb3d 6483 643e 5cea 513e 937d 10bf
000002e0: bb35 d9be 42aa ce3e 4021 043e 6066 f43e
000002f0: 8032 f23e 06c0 08bf 7ce4 f33e fc5c 9a3e
0.539729 -0.23229465 0.43990934 -0.3977108 0.22794211 -0.5598435 0.051940143 -0.35210025
-0.27884486 0.112690926 0.2854007 0.098608375 0.32462054 -0.17064261 0.343499 -0.105847925
-0.33491254 0.46295083 0.47675598 -0.1659595 -0.5338892 -0.14386544 -0.18949494 -0.17520878
-0.14287391 -0.33531886 -0.4248562 -0.37224966 -0.07490134 -0.33263248 -0.41077095 0.5569508
-0.06456506 -0.540495 0.062965214 0.5492927 -0.5185561 0.5480716 -0.078125834 0.030216277
0.3775739 -0.19234893 0.5234997 -0.5316368 -0.21811417 -0.38918394 0.493729 -0.3863309
-0.26346484 -0.36230004 -0.5731278 -0.5253433 -0.5298673 0.2128352 -0.3718261 0.108447075
0.058409452 0.56539357 0.16627944 -0.08282098 0.3170848 -0.43364754 -0.53720295 0.37827432
0.12988406 -0.36046487 0.25402528 0.3135934 -0.41507703 0.3498059 -0.3852259 -0.46282536
0.52252674 0.5103661 -0.5410069 -0.010418713 0.5430317 -0.55082905 0.29863828 -0.23480925
-0.21968621 -0.12376824 -0.3628883 0.07847208 0.18954253 -0.34241802 -0.065238655 0.32190126
0.3816023 -0.5618843 0.3216371 -0.00053083897 0.51972187 0.15366364 -0.017364383 0.51370823
0.14728516 0.31882775 0.16434723 -0.12926513 0.29034758 0.068368256 0.49950433 -0.52844566
-0.08880144 0.21101451 -0.08006024 -0.48951852 -0.5709432 -0.3209697 -0.40089363 -0.46422672
-0.07856551 -0.05821556 -0.34124255 0.23738527 0.39854437 -0.068734646 -0.17310587 -0.36038575
0.48902714 0.2600761 0.010329723 0.550537 0.40369266 -0.057255924 0.5377989 0.5439838
-0.13792703 -0.43345642 -0.17834982 -0.54256165 -0.04587084 0.29606098 -0.4392935 -0.47378308
-0.4553058 -0.3203915 -0.10349402 -0.43816277 0.45295918 0.4141116 -0.22011605 -0.14967698
0.28948748 -0.21459973 -0.3416277 -0.52357006 0.46995902 -0.032836497 -0.09069669 0.3598718
-0.17967162 0.15664321 -0.18963894 0.24792892 -0.19270036 -0.1959359 -0.3198374 0.33685827
0.33122283 0.18609428 -0.5308978 0.016364872 0.06851417 0.20420319 0.12294626 0.57595086
0.006472945 0.09291953 -0.105145365 0.08314973 -0.56575006 0.32199883 -0.24415508 0.13885444
0.5336126 -0.28540552 -0.2721678 -0.10747585 0.12257129 0.22315747 0.20499557 -0.5644161
-0.42423806 0.4036427 0.12903309 0.47734356 0.47304153 -0.53418005 0.47635257 0.30149066

lin_dict.agg.bias f4 [64]
00000000: 0c15 bfbd 00d8 cf3a aa4d 9e3e b2ee f6be
00000010: 3866 2e3e f512 f4be 701a f83d 4095 0dbc
00000020: 0042 9eba 6499 903e 64b0 783e d69b 853e
00000030: 8c7c 9c3e e892 b53e be4b 833e a5e5 f4be
00000040: d05c b1bd a878 f13e 8a0a 7fbe 0cbb dfbe
00000050: 56eb c1be 2eb8 66be 1108 05bf 54db 703e
00000060: f46c 0a3f fa08 c2be 58db de3e d423 84be
00000070: ef4f 92be 70f9 63bd 0003 3a3d e070 f83e
00000080: 54b1 9bbe 646f b2be a0d8 44bd e0a9 283d
00000090: 6087 f23e f8ea 08bf c4f4 39be 708b e33e
000000a0: 4400 123f ba36 52be c080 1c3c d07b f43e
000000b0: 6e04 d7be ace4 3f3e 2ef8 c2be 70d3 023f
000000c0: c2ef 8fbe b805 68be 8888 8e3d 40ef 5abc
000000d0: 45d2 dfbe c61c b93e 187c 043f e027 d53e
000000e0: 66be eebe 13bc 80be ddab 84be 2099 6fbd
000000f0: c047 aebd 67f5 c1be f467 cd3e b929 cbbe
-0.09330186 0.001585722 0.30918628 -0.48228985 0.17031181 -0.47670713 0.121144176 -0.008641541
-0.0012074113 0.28242028 0.24286038 0.26095456 0.30563772 0.35463643 0.25643724 -0.47831455
-0.08660281 0.47162366 -0.24906364 -0.43697393 -0.3787486 -0.22531196 -0.51965433 0.23521167
0.540725 -0.37897474 0.4352672 -0.25808585 -0.2857661 -0.055657804 0.045413017 0.48523617
-0.30408728 -0.3485061 -0.048058152 0.04117763 0.47368908 -0.53483534 -0.18159777 0.4444232
0.57031655 -0.20528689 0.009552181 0.4775071 -0.41995567 0.18739575 -0.3807997 0.5110388
-0.28112608 -0.22658432 0.06959635 -0.013362706 -0.4371511 0.36154765 0.5175185 0.41631985
-0.46629637 -0.2514349 -0.2591237 -0.05849564 -0.08509779 -0.3788254 0.40118372 -0.3968027

lin_dict.access.weight f4 [64, 3]
00000000: 509a 9abd 1eaf 9abe 664f f6be 607b 013f
00000010: 4060 65bc 803b 3dbd 22cf d3be 8016 ddbc
00000020: a0bb a03e e0c7 f73e 06e0 b43e 20f8 013d
00000030: 9d9f 9cbe 90df 4d3d 50fd 96bd 2e8e e5be
00000040: 8cac f93e eb0c 11bf de55 cfbe 161c 5abe
00000050: 1891 dd3e e889 2abe 2875 563e 603c 0a3e
00000060: 4e8f 77be 8041 5cbd 8c81 01bf 00c6 e23e
00000070: 7442 eabe 4477 9d3e 42d3 ce3e 5b0a cabe
00000080: b6e1 a7be 40a7 5abc 2359 d7be 2c5c 40be
00000090: f433 afbd 87c8 0cbf 60eb 983c 0000 da3c
000000a0: d492 bc3e 40f1 a9bd 1a02 9b3e 80dc 933d
000000b0: d45c 643e 00e0 91bb 40a5 8c3c 9c11 cf3e
000000c0: 4a40 cd3e e09d 1dbd b8a6 a2be 1097 193d
000000d0: 7401 5d3e 80a8 603c 90bf e23e 43ca 8bbe
000000e0: 19c4 aebe e0c0 ff3c 381d 6ebe ed69 0cbf
000000f0: ac47 db3e 3ac8 14be 082e 803d 1059 4f3d
00000100: aa33 71be fa83 c9be 8854 9fbe f5a1 0dbf
00000110: 2695 5ebe e4dd 94be f032 bd3d f0d2 c53e
00000120: b2fe 58be d809 e53e 3c6b 9d3e 065c c83e
00000130: 8c8c 113f 02d7 8a3e c8e8 4c3e 3876 d03e
00000140: 3439 553e 64e3 d2be 883b b13d 9dcc eabe
00000150: 7cc1 d53e 3681 8d3e 007e e73c 22a5 b63e
00000160: 9685 093f 1bb4 fdbe 9077 8e3e f8da 98bd
00000170: 9028 03bf c0a9 eabc e029 253e 10e7 dcbd
00000180: 0c9c 0bbf 7471 c23e 54cc 5b3e 2018 ec3e
00000190: 3065 00bd fafb 873e b8e3 e63e f09d fc3e
000001a0: 4db8 eebe e792 f3be c03f 9fbe 68ad aa3e
000001b0: 4a90 003f a89c ffbd 2081 ac3c 5575 c3be
000001c0: 7874 f53d 604f bdbc 667a 68be 7883 bd3d
000001d0: 86bc 803e f27c 8f3e a0bf 823c b84a eebe
000001e0: 0d03 a6be 289d 743e f0bd 363e 01d5 96be
000001f0: 1444 a23e b052 7e3d caae 083f 2e25 bb3e
00000200: ac71 0abe 5e18 ba3e 6859 673e 6c02 f03e
00000210: 0ee4 e4be 846f c43e 4050 d13e 71e2 cfbe
00000220: 10c4 cb3e 2031 ce3c 90b9 e73e 72e7 c83e
00000230: 94e8 c6be dcea b6bd 08e5 f43d 354b c7be
00000240: a0c6 de3d 285e 4b3e 92e8 033f 5852 00bf
00000250: 60c8 113f 88c9 a13e a4ed 6fbe 8f1b 0cbf
00000260: 72fd a03e 8491 ad3e 4a07 0d3f ac5e 01be
00000270: d20f 5cbe 200f 413e 9647 28be 5840 a43e
00000280: 305e fa3d 04a7 803e 0066 e3ba b4c8 133e
00000290: 76fc 41be 60e5 2dbd 63f8 febe 0006 a63a
000002a0: 482c d73d 6293 5ebe 02c8 c83e 644c a23e
000002b0: 8882 143e e49d e03e b8f3 ff3e 5c1b dd3e
000002c0: 00c5 523d dc91 f73e 07cd 0dbf 08b8 13bf
000002d0: 4c6c 1e3e 2cfb 0c3f 61b2 05bf 3ccf 553e
000002e0: f0e3 063f 9c5f 123f 229e d9be dc59 b9bd
000002f0: e66f c23e 42f6 4abe e45f e73e 881d d13e
-0.07548964 -0.3021173 -0.4810745 0.5057888 -0.013999999 -0.04619932 -0.41368967 -0.026988268
0.31393147 0.4839468 0.35327166 0.03173077 -0.30590525 0.050262034 -0.07372534 -0.44835037
0.48764455 -0.56660336 -0.404952 -0.21299776 0.4327476 -0.1665417 0.20943129 0.13499594
-0.2417576 -0.053773403 -0.505883 0.44291687 -0.45753825 0.30755055 0.40395552 -0.39461026
-0.3278939 -0.01334554 -0.42060193 -0.18785161 -0.08554831 -0.5499348 0.018666923 0.026611328
0.3683077 -0.08297968 0.3027504 0.072197914 0.22301036 -0.0044517517 0.017168641 0.40443122
0.4008811 -0.03848064 -0.3176782 0.03749758 0.21582586 0.0137120485 0.44286776 -0.2730275
-0.34133986 0.0312199 -0.23253334 -0.5484913 0.4282812 -0.14529505 0.0625878 0.050622046
-0.23554865 -0.39358503 -0.3111918 -0.5532525 -0.21736583 -0.2907554 0.09238231 0.38637495
-0.21190909 0.44734073 0.30745876 0.39132708 0.5685508 0.27117163 0.20010674 0.40715194
0.20822603 -0.4118911 0.08653933 -0.45859233 0.4174918 0.27637643 0.028258324 0.3567286
0.5371946 -0.49551472 0.27825594 -0.0746364 -0.5123377 -0.028645396 0.16129255 -0.10786259
-0.54534984 0.37977183 0.21464664 0.46112156 -0.0313465 0.2655943 0.4509561 0.49339247
-0.46624985 -0.47573015 -0.31103325 0.33335423 0.5022017 -0.12481052 0.021057665 -0.38175455
0.11985105 -0.023109138 -0.22702941 0.09253591 0.25143832 0.28025013 0.015960515 -0.4654138
-0.32424203 0.23888075 0.17845893 -0.29459384 0.31692564 0.062090576 0.53391707 0.36551803
-0.13519925 0.36346716 0.225927 0.46876848 -0.44705242 0.3836633 0.40881538 -0.4060245
0.3979802 0.025169909 0.4525876 0.3923908 -0.38849318 -0.089315146 0.11957747 -0.38924566
0.108777285 0.19860137 0.5152675 -0.50125647 0.56946373 0.3159907 -0.23430496 -0.5472955
0.31443363 0.33900082 0.5508925 -0.1263377 -0.2149041 0.18853426 -0.16433558 0.3208034
0.12224996 0.25127423 -0.0017349124 0.14432031 -0.18943962 -0.042455077 -0.4979888 0.0012666583
0.10506493 -0.2173591 0.39215094 0.31698906 0.14502919 0.4387046 0.4999063 0.43184936
0.051457405 0.4835347 -0.5539097 -0.57702684 0.15471 0.5507076 -0.5222531 0.20879835
0.52691555 0.5717714 -0.42503458 -0.090503424 0.37975997 -0.19820502 0.45190346 0.40842843

lin_dict.access.bias f4 [64]
00000000: 969c 803e f03d 143e f886 5e3e e8eb 02bf
00000010: bf87 babe 1c7a c1be 49e1 a4be c0ea ebbc
00000020: 5e9e 823e f0b5 cc3e aa3c 6ebe b42a ab3e
00000030: ccca e7be 79b2 08bf da03 04bf 4c40 73be
00000040: 6803 c33d 8c4e 133e 9cef 373e b00e 053f
00000050: c0b7 ba3e 00c4 44bc fe72 9abe e241 c4be
00000060: 2418 0e3f 6e79 12bf 50d6 373e 0e50 053f
00000070: 60f0 b8bd 36fe 083f 6068 59bd fcb5 113e
00000080: 903f 623d 387c 253e ec62 5fbe 89ef eebe
00000090: 70e3 2abd a276 06be 84d5 68be 4ecf 68be
000000a0: 008c 6d3b 7864 f5bd 9059 613e d86a 113e
000000b0: a4d6 d8be 28d9 08bf a0b8 d6bc 3ed3 04be
000000c0: 5edb e8be eca7 17be eee1 b6be 8040 663e
000000d0: d8e2 9c3e aea2 aa3e ca60 54be 542b c93e
000000e0: 0ce3 013e 00bc c5ba cc00 d73e 008f 113f
000000f0: f5f5 e0be e325 89be c052 64bc e2db bf3e
0.25119466 0.14476752 0.21731174 -0.51141214 -0.3643169 -0.37788475 -0.3220313 -0.028798461
0.2551145 0.39982557 -0.23265329 0.33431017 -0.4527191 -0.5339733 -0.51568377 -0.23754996
0.09522134 0.14385432 0.17962497 0.51975536 0.36468315 -0.012009621 -0.30165857 -0.38331515
0.55505586 -0.57216537 0.17952847 0.5207528 -0.09030223 0.53512895 -0.053078055 0.14229578
0.0552364 0.16160667 -0.2181508 -0.46667126 -0.041720808 -0.13131192 -0.227377 -0.2273533
0.0036246777 -0.119820535 0.22006822 0.14200914 -0.42351258 -0.53456354 -0.026211083 -0.12971207
-0.45479864 -0.14810151 -0.35719246 0.22485542 0.30641818 0.3332724 -0.20740047 0.3929087
0.12684268 -0.0015085936 0.41992795 0.56858826 -0.4393765 -0.26786718 -0.013935745 0.37472445

attention.in_proj_weight f4 [192, 64]
00000000: a0c4 9cbc 75f1 183e beaa e03d 82ad bf3d
00000010: 5079 0a3c 2013 fabb 6537 17be c05f 3abb
00000020: a3e0 0a3e e70e 85bd 8862 2e3d 0fd7 adbd
00000030: 00a2 01bb c5e9 053e eccf 4ebd 743f 7d3d
00000040: 6485 0dbd c86f 9b3c 36cf 823d 368d 16bd
00000050: e951 0c3e 008f a03c 75df 133e 0863 8e3d
00000060: f667 19bd 5089 043c 4eb0 ebbd 1d88 b7bd
00000070: 6a25 69bd f8db 66bd 5caf 41bd dec7 8d3d
00000080: c4f0 b63d b432 113d ac3d 00bd 8663 49bd
00000090: 4799 133e 00b4 0ebc 349d 553d d363 04be
000000a0: 50b7 c73c 9016 c2bc 722a c23d 14db 78bd
000000b0: 0002 e93a e64a c83d 60af b43c 56d0 11be
000000c0: d5a8 8cbd c9af 0b3e 0043 feba b06f 5dbc
000000d0: 6cb3 8abd 404c 453c 4d35 8cbd 0aba fdbd
000000e0: f0a7 dabc 987d 8e3d 0e83 e33d 4040 633b
000000f0: 8019 30bc 0810 cbbc 6ec3 e03d 40eb ccbb
00000100: abce c7bd e4d1 a63d 4187 0a3e 4e7a 20bd
00000110: 6a24 c73d 60aa 8e3d cb07 143e 7eb4 9cbd
00000120: e09b 34bc d208 0fbe f048 8dbd d490 113d
00000130: 6c71 493d 60d8 7d3d f0d8 7e3d 622c f93d
00000140: 00b5 86bc 7a72 bd3d 6c37 98bd 9717 06be
00000150: 7f49 0c3e d2ab 933d b0d4 cebd 36cf 2fbd
00000160: c077 e6bd 3a9b c83d e289 b33d 7697 f03d
00000170: 19a6 0e3e 3cec 623d 5854 3a3d 3c3a 653d
00000180: 60b6 bb3d 7c0d 343d 40ee c5bd 641a 0f3d
00000190: e1a9 013e b35c c8bd 084e ba3c 9cc6 6bbd
000001a0: ab3e 153e fb22 bebd 16ef e1bd ee69 5cbd
000001b0: 2825 f9bd d1b7 0e3e 0447 08be 58c9 a4bd
000001c0: a6f8 dd3d bfe6 13be aebf 19be 84d3 11be
000001d0: cc2b b13d 00eb 383a 8c03 86bd 2030 c43c
000001e0: b8bf b4bc 6086 aabb fabf 25bd c017 be3c
000001f0: 7e8d 68bd e8b3 b1bd ee2c 7dbd f426 393d
00000200: 80e9 98bc bb73 01be 9edd b23d b25f fabd
00000210: 4673 d43d faf7 e13d f468 af3d 0d49 0b3e
00000220: 9f22 123e 1c2f 9f3d c66c cabd 6c77 b33d
00000230: 94b0 583d 2213 f43d 78ec dcbc 8e55 07be
00000240: 6014 a0bc 00e8 693c cd23 0cbe 14e0 0b3d
00000250: 4cc1 063d e00d 61bd ec32 683d 88ca 863c
00000260: 1311 99bd 043b 193d b11d a9bd 85db ffbd
00000270: 40b0 e6bd 23a0 01be dac5 0ebe 5f85 0f3e
00000280: d76e 093e 3c24 6c3d 10c4 4c3c 7ae8 f53d
00000290: 0a61 b83d b5f7 0f3e 5a8f cc3d 1889 e03c
000002a0: 300d cebc 2e7f d23d b825 5fbd 31ce 1a3e
000002b0: 2093 f73c 5458 cabd ff8c 193e e0ad c5bb
000002c0: 0088 75bc c8f4 c13c b998 0bbe e072 853d
000002d0: 7403 0fbd ad94 1c3e b283 943d c4e6 453d
000002e0: f888 eabd acb7 7e3d ca94 78bd 5840 993d
000002f0: 8eb0 e53d 9a3d 923d ac09 893d 1e37 e73d
00000300: 0eb5 9c3d 005d b8ba acec af3d eae4 803d
00000310: b089 783d 6031 d33c c497 b0bd e4f3 6f3d
00000320: 88ca 67bd 4ee1 bc3d 125f f0bd feaa fd3d
00000330: e00b 1abc 4edd 93bd e8a1 ad3c b2c2 f5bd
00000340: 7e5c e5bd fe57 eb3d 706b 6a3c 31d0 80bd
00000350: cfa7 1b3e 34e7 07be d2ef f8bd 0815 1cbe
00000360: 692b 0f3e 8804 a3bd 80d8 77bd 1678 e83d
00000370: 4118 183e 7168 18be c442 b73d 60b7 d93b
00000380: 4cec 1a3d d39e 10be 9e97 46bd ca6d 01bd
00000390: 8fef b7bd f195 08be bc07 423d 00f3 cdbd
000003a0: 182c cf3c 1685 f6bd 181a a93c 2c8f af3d
000003b0: ae0b cebd a3fd 1a3e cb77 153e c04e 863b
000003c0: 1a87 ecbd 022f f73d c8d4 593d b58b d9bd
000003d0: 8540 173e a676 93bd c83b c53c 0820 3abd
000003e0: b0ab e0bd 40e7 593d 3e93 d3bd 329c f9bd
000003f0: faec cc3d 1070 10bd cc96 0ebd 3730 8fbd
-0.019136727 0.14935859 0.109700665 0.09359266 0.008451775 -0.0076316744 -0.14767225 -0.002843842
0.13562255 -0.06496983 0.042574435 -0.08488285 -0.0019780397 0.13077457 -0.05049126 0.06182809
-0.03455104 0.0189742 0.063871786 -0.036755763 0.13703121 0.019599438 0.14440711 0.069524825
-0.03745266 0.0080893785 -0.11508237 -0.089615084 -0.056920446 -0.056362122 -0.047286376 0.06922887
0.08932641 0.035448745 -0.031308815 -0.04916718 0.1441394 -0.0087099075 0.052151874 -0.12928705
0.024379402 -0.0236924 0.09480752 -0.060755804 0.0017777085 0.09779911 0.022056282 -0.1423963
-0.0686814 0.13641275 -0.001939863 -0.013515398 -0.06772503 0.012042105 -0.06846104 -0.12389
-0.026691407 0.06957549 0.11108981 0.0034675747 -0.010748267 -0.024787918 0.10974775 -0.00625363
-0.09756216 0.08145502 0.13528158 -0.03917914 0.09723742 0.0696609 0.14456098 -0.07651614
-0.011023492 -0.13968208 -0.06898677 0.03553851 0.049180433 0.06197393 0.062218606 0.121666685
-0.01644373 0.0925035 -0.07432446 -0.13094936 0.13699912 0.072105065 -0.10099161 -0.04292222
-0.11253309 0.09795232 0.087665334 0.11747639 0.13930549 0.055401072 0.045490593 0.05596374
0.09165645 0.043958172 -0.09664583 0.034937277 0.1266246 -0.09783306 0.022742286 -0.057562456
0.14574687 -0.09284016 -0.1103193 -0.05381196 -0.1216529 0.13937308 -0.1330834 -0.08046216
0.108384416 -0.14443491 -0.15014526 -0.14240843 0.08650932 0.00070540607 -0.06543645 0.023948729
-0.022064075 -0.005204007 -0.040466286 0.023204684 -0.056775562 -0.086768925 -0.061810426 0.045203164
-0.018666029 -0.12641804 0.087336764 -0.12225284 0.10373549 0.11033626 0.0856494 0.13602085
0.1427102 0.07772657 -0.09884028 0.08763012 0.052902773 0.11917712 -0.026968226 -0.1321623
-0.019540966 0.0142765045 -0.13685532 0.034149244 0.032899186 -0.054944873 0.056689188 0.016453996
-0.0747396 0.037409797 -0.08257616 -0.12493042 -0.11264086 -0.12658744 -0.13942662 0.14015721
0.13421188 0.057651743 0.012497917 0.12007232 0.09002884 0.14059336 0.0998828 0.027409121
-0.025152773 0.10278164 -0.05447933 0.15117718 0.030221522 -0.098801285 0.14995192 -0.0060326904
-0.014986038 0.023676291 -0.13632478 0.06516051 -0.034915403 0.1529109 0.072516814 0.04831578
-0.11451906 0.062186882 -0.06068877 0.07482976 0.11215316 0.07140656 0.06691298 0.1128981
0.07651721 -0.0014065802 0.085900635 0.06293662 0.060678184 0.02578038 -0.08622697 0.0585822
-0.056589633 0.09222661 -0.11736883 0.1238613 -0.009402245 -0.07219945 0.021195367 -0.12000026
-0.11199282 0.114913926 0.014307842 -0.06289709 0.15200733 -0.1327179 -0.12155117 -0.15242398
0.13981403 -0.07959849 -0.060509205 0.113510296 0.14853002 -0.14883591 0.089482814 0.0066441745
0.037823007 -0.14123087 -0.048484437 -0.031598844 -0.08981239 -0.13338448 0.047370657 -0.10056114
0.02528958 -0.12037103 0.020642325 0.0857223 -0.100608215 0.15135817 0.14596479 0.004098743
-0.11549206 0.12069513 0.05318144 -0.1062235 0.14770706 -0.07200365 0.024076357 -0.045440704
-0.10970247 0.053199053 -0.103308186 -0.12187995 0.10006137 -0.03526312 -0.03481178 -0.06991618

attention.in_proj_bias f4 [192]
00000000: 0000 0000 0000 0000 0000 0000 0000 0000
00000010: 0000 0000 0000 0000 0000 0000 0000 0000
00000020: 0000 0000 0000 0000 0000 0000 0000 0000
00000030: 0000 0000 0000 0000 0000 0000 0000 0000
00000040: 0000 0000 0000 0000 0000 0000 0000 0000
00000050: 0000 0000 0000 0000 0000 0000 0000 0000
00000060: 0000 0000 0000 0000 0000 0000 0000 0000
00000070: 0000 0000 0000 0000 0000 0000 0000 0000
00000080: 0000 0000 0000 0000 0000 0000 0000 0000
00000090: 0000 0000 0000 0000 0000 0000 0000 0000
000000a0: 0000 0000 0000 0000 0000 0000 0000 0000
000000b0: 0000 0000 0000 0000 0000 0000 0000 0000
000000c0: 0000 0000 0000 0000 0000 0000 0000 0000
000000d0: 0000 0000 0000 0000 0000 0000 0000 0000
000000e0: 0000 0000 0000 0000 0000 0000 0000 0000
000000f0: 0000 0000 0000 0000 0000 0000 0000 0000
00000100: 0000 0000 0000 0000 0000 0000 0000 0000
00000110: 0000 0000 0000 0000 0000 0000 0000 0000
00000120: 0000 0000 0000 0000 0000 0000 0000 0000
00000130: 0000 0000 0000 0000 0000 0000 0000 0000
00000140: 0000 0000 0000 0000 0000 0000 0000 0000
00000150: 0000 0000 0000 0000 0000 0000 0000 0000
00000160: 0000 0000 0000 0000 0000 0000 0000 0000
00000170: 0000 0000 0000 0000 0000 0000 0000 0000
00000180: 0000 0000 0000 0000 0000 0000 0000 0000
00000190: 0000 0000 0000 0000 0000 0000 0000 0000
000001a0: 0000 0000 0000 0000 0000 0000 0000 0000
000001b0: 0000 0000 0000 0000 0000 0000 0000 0000
000001c0: 0000 0000 0000 0000 0000 0000 0000 0000
000001d0: 0000 0000 0000 0000 0000 0000 0000 0000
000001e0: 0000 0000 0000 0000 0000 0000 0000 0000
000001f0: 0000 0000 0000 0000 0000 0000 0000 0000
00000200: 0000 0000 0000 0000 0000 0000 0000 0000
00000210: 0000 0000 0000 0000 0000 0000 0000 0000
00000220: 0000 0000 0000 0000 0000 0000 0000 0000
00000230: 0000 0000 0000 0000 0000 0000 0000 0000
00000240: 0000 0000 0000 0000 0000 0000 0000 0000
00000250: 0000 0000 0000 0000 0000 0000 0000 0000
00000260: 0000 0000 0000 0000 0000 0000 0000 0000
00000270: 0000 0000 0000 0000 0000 0000 0000 0000
00000280: 0000 0000 0000 0000 0000 0000 0000 0000
00000290: 0000 0000 0000 0000 0000 0000 0000 0000
000002a0: 0000 0000 0000 0000 0000 0000 0000 0000
000002b0: 0000 0000 0000 0000 0000 0000 0000 0000
000002c0: 0000 0000 0000 0000 0000 0000 0000 0000
000002d0: 0000 0000 0000 0000 0000 0000 0000 0000
000002e0: 0000 0000 0000 0000 0000 0000 0000 0000
000002f0: 0000 0000 0000 0000 0000 0000 0000 0000
0.0 0.0 0.0 0.0 0.0 0.0 0.0 0.0
0.0 0.0 0.0 0.0 0.0 0.0 0.0 0.0
0.0 0.0 0.0 0.0 0.0 0.0 0.0 0.0
0.0 0.0 0.0 0.0 0.0 0.0 0.0 0.0
0.0 0.0 0.0 0.0 0.0 0.0 0.0 0.0
0.0 0.0 0.0 0.0 0.0 0.0 0.0 0.0
0.0 0.0 0.0 0.0 0.0 0.0 0.0 0.0
0.0 0.0 0.0 0.0 0.0 0.0 0.0 0.0
0.0 0.0 0.0 0.0 0.0 0.0 0.0 0.0
0.0 0.0 0.0 0.0 0.0 0.0 0.0 0.0
0.0 0.0 0.0 0.0 0.0 0.0 0.0 0.0
0.0 0.0 0.0 0.0 0.0 0.0 0.0 0.0
0.0 0.0 0.0 0.0 0.0 0.0 0.0 0.0
0.0 0.0 0.0 0.0 0.0 0.0 0.0 0.0
0.0 0.0 0.0 0.0 0.0 0.0 0.0 0.0
0.0 0.0 0.0 0.0 0.0 0.0 0.0 0.0
0.0 0.0 0.0 0.0 0.0 0.0 0.0 0.0
0.0 0.0 0.0 0.0 0.0 0.0 0.0 0.0
0.0 0.0 0.0 0.0 0.0 0.0 0.0 0.0
0.0 0.0 0.0 0.0 0.0 0.0 0.0 0.0
0.0 0.0 0.0 0.0 0.0 0.0 0.0 0.0
0.0 0.0 0.0 0.0 0.0 0.0 0.0 0.0
0.0 0.0 0.0 0.0 0.0 0.0 0.0 0.0
0.0 0.0 0.0 0.0 0.0 0.0 0.0 0.0

attention.out_proj.weight f4 [64, 64]
00000000: 002f ebba ba5f b83d 7e03 9b3d d0c1 cfbc
00000010: 34d4 673d e0db b43c c092 57bb 8889 c73c
00000020: 6028 273d c6ef f53d 1cb1 89bd c228 dfbd
00000030: a02e efbb 2c86 333d c8ac 9d3c 2cd2 87bd
00000040: a0bb 49bc 7804 db3c 56cc bc3d 9075 d53c
00000050: f45c 43bd fa98 893d 1459 c13d a0ee c73b
00000060: 421a aebd a020 813d 4678 92bd 2017 9cbb
00000070: c4b5 883d 5051 693d 3222 b93d e8e0 0b3d
00000080: a652 a3bd d46b 353d 60bc 1b3c 1ee6 b23d
00000090: e8c0 e8bc 6829 453d c800 ab3c 881c d73c
000000a0: 1058 01bc 4245 ba3d 307c c3bc 9621 9abd
000000b0: 5ee4 e53d d6c0 ebbd 8022 57bc f47a 96bd
000000c0: 7afe a4bd 3e9b e93d bcda d8bd d826 28bd
000000d0: a48e dbbd d210 8b3d d40d 7a3d ce40 eb3d
000000e0: dc94 a9bd b47e 65bd a0a3 66bc 400f 5ebb
000000f0: 4086 a03c 7400 853d e435 3b3d f014 62bd
00000100: e4f1 dabd bc84 163d 68c2 5c3d 18fc 253d
00000110: 0068 a03b 40b6 203b b81c f9bd 5493 18bd
00000120: c0eb 393d 6a3a f3bd b852 82bd e60d 9c3d
00000130: b03a 693d c0b4 e73c 6847 d3bc 4614 8bbd
00000140: a266 993d 1087 bb3d 8ce8 483d 2068 09bc
00000150: 5cf4 babd d4dd 603d 009b 983a ccb7 adbd
00000160: e818 fd3d 8074 9ebc 10a7 c53d acf8 85bd
00000170: b657 d93d f88e 07bd 4803 1b3d 90e8 463c
00000180: 2841 cd3d ac91 a63d 9653 b03d 9ef4 ad3d
00000190: b8eb e2bd 143c 26bd f684 eabd 4800 df3c
000001a0: fe87 d8bd 389b f53d b0e8 9bbd ae13 e2bd
000001b0: 5809 953c ce7e dcbd 3419 793d 6077 a23c
000001c0: 743c 033d a06b ecbb 1867 fbbc 307c 37bc
000001d0: c09b 3d3b febe bf3d 3c46 ddbd 362b bf3d
000001e0: a0c7 843b f6c8 c53d 60df cdbd 78db 3d3d
000001f0: d0d1 6d3d b074 b13c 6e3a 983d 3c38 473d
00000200: 103f 3a3d 1414 763d 3cd9 aebd 88c1 d63d
00000210: 8494 6b3d 545f 653d 1cef f73d 6872 dd3c
00000220: 50c0 6d3c 8c05 77bd 906e 89bc c63c d63d
00000230: 5a7d fbbd 746c e13d 006d e23c 68e8 a4bc
00000240: 58d5 2b3d acd5 1bbd 481f 90bd e00e 3fbd
00000250: 68a5 e0bc 70cd 0e3c 64df 3c3d 743d d0bd
00000260: 02e9 e8bd c059 333c 709a 92bd 705b d0bc
00000270: 7ac3 af3d 9099 133c ba0b bc3d 5876 82bc
00000280: 0cd3 28bd 389f c5bd dc81 33bd cef6 f23d
00000290: b4fc 443d c009 a63b 90d6 b8bd f0b5 713d
000002a0: 1ad4 a03d 0048 b6b8 a03c 7c3c 5253 fbbd
000002b0: 0e70 fbbd fc5a 97bd b04e 60bd 842f 68bd
000002c0: 6088 ebbb 60ab b9bc f2e5 e43d 2441 463d
000002d0: 2a5c d83d 50d5 643c 884d 103d 5e40 d03d
000002e0: c048 54bd ac35 033d 10a9 42bc d0e7 f0bc
000002f0: f808 f53c f055 b23d b2fb a4bd 88f5 2dbd
00000300: 6c38 473d 6882 a0bd 2090 46bd b04d 263c
00000310: d03b 07bd 9099 9e3c e80d 113d 8084 c53a
00000320: 48ef 44bd a0b4 163d 3cf0 903d 2894 d73d
00000330: 1ed2 813d 0008 01bd 54fb 44bd 2815 af3c
00000340: e0dd 96bd 2efd b03d 083f 95bd 18af 07bd
00000350: e04a 873d b081 dc3d d83a 073d a8f1 f03c
00000360: f670 dbbd a0d3 783d 8e83 f5bd 2cf6 cfbd
00000370: 4839 f9bd 7c15 0b3d 9acd d5bd c0c5 a7bd
00000380: 6815 13bd c609 e1bd e241 ffbd 1cf0 e93d
00000390: d872 44bd f000 eebc c802 03bd a828 7c3d
000003a0: a8e5 46bd 1c85 f23d 0ac4 edbd c03b babb
000003b0: 70d2 ce3d 4676 e8bd 8056 9eba e078 253d
000003c0: 70d1 dfbc 94aa ddbd 4a87 95bd 8ccd d13d
000003d0: 7267 c83d 0431 f23d 8a5e b53d 10c2 db3c
000003e0: 4c42 4f3d 94ad 8ebd acb4 de3d 0c0d 0ebd
000003f0: 643f 29bd 7042 95bc 62d8 c7bd 9caf 10bd
-0.0017943084 0.090026334 0.075690255 -0.025360972 0.056598857 0.0220775 -0.0032893866 0.024357572
0.04080999 0.12008624 -0.06723234 -0.10896446 -0.0072992593 0.04382913 0.019247428 -0.06631884
-0.0123128 0.02673553 0.092186615 0.026057035 -0.04769607 0.06718631 0.094408184 0.0061014444
-0.08501102 0.06305051 -0.071518466 -0.004763499 0.06675294 0.05696231 0.09039725 0.034150034
-0.07974748 0.044292286 0.009505361 0.087352976 -0.028412297 0.04813519 0.020874396 0.026258722
-0.007894531 0.09095241 -0.023862928 -0.07525937 0.11225198 -0.1151139 -0.013130784 -0.0734767
-0.0805635 0.11406563 -0.10588595 -0.04105267 -0.10720566 0.067903176 0.061048344 0.1148697
-0.08280346 -0.056029037 -0.014077097 -0.0033883601 0.019595265 0.06494227 0.04570569 -0.05519575
-0.10690668 0.03674768 0.053896338 0.04052362 0.0048952103 0.0024522692 -0.12163681 -0.037249878
0.045390844 -0.11876376 -0.063634336 0.076198384 0.056940734 0.02828443 -0.025790885 -0.06790976
0.07490279 0.091566205 0.0490499 -0.008386642 -0.09128639 0.05489905 0.0011642873 -0.08482322
0.12358266 -0.01934266 0.09651005 -0.06541571 0.10612433 -0.03309533 0.037844926 0.012140408
0.10022193 0.081332535 0.08609693 0.08493923 -0.11080116 -0.04058464 -0.114511415 0.027221814
-0.105728135 0.11992496 -0.07612741 -0.1103891 0.018192932 -0.107663736 0.06081505 0.019832313
0.032040074 -0.0072149783 -0.030688807 -0.011199042 0.0028931946 0.09362601 -0.10804412 0.09334414
0.0040521175 0.09657471 -0.10052371 0.04635188 0.05806142 0.021662086 0.074330196 0.048637614
0.045470297 0.06007774 -0.08537528 0.10486132 0.057514682 0.055999115 0.12106153 0.027032092
0.014511183 -0.060308024 -0.016776353 0.1046081 -0.12279768 0.11007014 0.027639866 -0.020130351
0.041951507 -0.03804557 -0.070372164 -0.046645045 -0.027422622 0.008715972 0.04611148 -0.10167971
-0.11372568 0.010946691 -0.07158363 -0.025434226 0.08582206 0.00900878 0.09181924 -0.015925571
-0.041216895 -0.09649509 -0.043825015 0.118634805 0.04809256 0.0050670803 -0.090252995 0.0590114
0.07852955 -8.691847e-05 0.0153953135 -0.122717515 -0.12277232 -0.07390401 -0.054762542 -0.05668594
-0.007187888 -0.022664726 0.11176671 0.048401967 0.10564454 0.013966873 0.03523019 0.10168527
-0.051827192 0.032033607 -0.011881128 -0.029407412 0.029911503 0.087077975 -0.080558196 -0.042470485
0.048637792 -0.07837373 -0.048477292 0.010150358 -0.033016026 0.019360334 0.035413653 0.0015069395
-0.04807976 0.03679335 0.07077071 0.105263054 0.06338905 -0.03150177 -0.048091248 0.021372393
-0.07366538 0.0864204 -0.07287413 -0.033125967 0.06606078 0.107669234 0.033015102 0.029412106
-0.10714905 0.060748696 -0.11987983 -0.101543754 -0.12169129 0.033956036 -0.10439606 -0.08192015
-0.035909086 -0.10988192 -0.12463738 0.1142275 -0.047961086 -0.029053181 -0.031985074 0.06156221
-0.04855886 0.11841795 -0.11609657 -0.0056833923 0.100987315 -0.11350684 -0.0012080222 0.04039848
-0.027321547 -0.10823551 -0.07301195 0.10244283 0.09785356 0.11825755 0.088559225 0.026825935
0.050600335 -0.06966701 0.10874304 -0.03468041 -0.04132022 -0.018220156 -0.097580686 -0.035323724

attention.out_proj.bias f4 [64]
00000000: 0000 0000 0000 0000 0000 0000 0000 0000
00000010: 0000 0000 0000 0000 0000 0000 0000 0000
00000020: 0000 0000 0000 0000 0000 0000 0000 0000
00000030: 0000 0000 0000 0000 0000 0000 0000 0000
00000040: 0000 0000 0000 0000 0000 0000 0000 0000
00000050: 0000 0000 0000 0000 0000 0000 0000 0000
00000060: 0000 0000 0000 0000 0000 0000 0000 0000
00000070: 0000 0000 0000 0000 0000 0000 0000 0000
00000080: 0000 0000 0000 0000 0000 0000 0000 0000
00000090: 0000 0000 0000 0000 0000 0000 0000 0000
000000a0: 0000 0000 0000 0000 0000 0000 0000 0000
000000b0: 0000 0000 0000 0000 0000 0000 0000 0000
000000c0: 0000 0000 0000 0000 0000 0000 0000 0000
000000d0: 0000 0000 0000 0000 0000 0000 0000 0000
000000e0: 0000 0000 0000 0000 0000 0000 0000 0000
000000f0: 0000 0000 0000 0000 0000 0000 0000 0000
0.0 0.0 0.0 0.0 0.0 0.0 0.0 0.0
0.0 0.0 0.0 0.0 0.0 0.0 0.0 0.0
0.0 0.0 0.0 0.0 0.0 0.0 0.0 0.0
0.0 0.0 0.0 0.0 0.0 0.0 0.0 0.0
0.0 0.0 0.0 0.0 0.0 0.0 0.0 0.0
0.0 0.0 0.0 0.0 0.0 0.0 0.0 0.0
0.0 0.0 0.0 0.0 0.0 0.0 0.0 0.0
0.0 0.0 0.0 0.0 0.0 0.0 0.0 0.0

convs.0.convs.<core___to___core>.nn.lins.0.weight f4 [64, 64]
00000000: ea8a b6bd 88cb 8b3c fe57 963d 0a57 873d
00000010: c8e8 883d a417 793d 742e 473d d80b 553d
00000020: 2c5f 7f3d f8cc e5bc c857 29bd 8050 46bd
00000030: 9ebe 913d e40a 2c3d c8a8 6e3d 7031 01bc
00000040: 8a5c f53d 60e3 f13c 36bd a9bd e00f eebb
00000050: d029 7dbd 70bf f8bc 40b1 52bc 4afc febd
00000060: a8dd 413d 56cb 90bd d6ad 953d 0839 173d
00000070: e80a cf3c 000e 403b 8c3b 963d e6b1 953d
00000080: 1224 c63d a686 a83d 00aa 3cbc e0f8 85bd
00000090: acfb 03bd 2e28 eb3d 66b7 c6bd caa5 b2bd
000000a0: a45e 2b3d b0a9 bebd 2613 e3bd 4c21 823d
000000b0: b225 c33d 10e2 86bc be81 f6bd 50be 18bd
000000c0: b4e4 7b3d a8ed d53d baf3 dcbd f0bf 7f3c
000000d0: fa72 933d 10dc 513c 18d5 653d dc3c c6bd
000000e0: 50e2 c4bd 144d e83d 0a1c b9bd 68a7 c83c
000000f0: b0bd 953c cc77 d7bd e8d0 be3c 0073 513a
00000100: 74b1 70bd 44a5 2dbd b014 fc3c 6459 dbbd
00000110: e03d 98bc 1063 b4bc 846c 0f3d 64a5 4fbd
00000120: 9c2e 5bbd dcc9 8a3d 6e5e d43d 00ee ebbc
00000130: 0acb d1bd 6466 593d ac9e af3d c682 903d
00000140: a003 6fbc 70f0 df3c 7424 e73d 505c df3c
00000150: ca51 e5bd 542c f1bd 8c98 14bd 5cdd 753d
00000160: 8854 49bd 4a46 fdbd 402e a03d c0e4 123c
00000170: 22ca db3d 206f 13bc 4851 953d 2011 f0bd
00000180: 8cdc 683d 3038 13bd 9cdd 50bd b486 033d
00000190: 283f 483d 9e6a bebd d0a1 813d b44c f8bd
000001a0: 3a58 823d 884b 7bbd 605f 203c 6c71 c5bd
000001b0: bc63 b93d c0d9 19bb a031 9bbb 0076 ba3a
000001c0: 90d3 e4bc 520f d03d 346f 4cbd 2835 cabc
000001d0: d282 efbd f823 e43c 1c6d 3b3d 8659 e93d
000001e0: 6c86 dbbd 42f6 c4bd 6017 0d3d 80ad fbbd
000001f0: 78b5 e2bc e05e 2abc 7c00 923d 844f 39bd
00000200: dc56 46bd 401c 103c c8ce 883d 7403 1abd
00000210: 48cc 35bd a807 83bd 5862 73bd 2ce3 71bd
00000220: 0079 75bc 30a0 353d dea4 91bd e0c2 53bc
00000230: f205 9dbd 78e7 d93c d6a5 993d 5c9d ca3d
00000240: aaaa fabd 5c5b b13d 882d cd3c a266 893d
00000250: 506b 2a3d fa93 863d 4834 5e3d 7aa2 fa3d
00000260: c490 c13d e04d 763d 820a ea3d 74c2 7abd
00000270: 66c4 e93d 40d3 a3bc 8cf2 20bd 0c31 18bd
00000280: e0e8 00bd d615 993d 6033 0ebd fa2f e93d
00000290: 207d 803b 14fd 0dbd ac68 e03d 089c d53d
000002a0: 62ad f03d 906c 2d3c f09f c73d 7855 84bc
000002b0: 72f9 913d 7a06 fcbd 8401 a13d b842 dd3d
000002c0: 90ff 4e3c 0819 9f3d 4014 303b c0b9 b43c
000002d0: 3a68 b43d f060 45bd a805 fbbc b06f d7bd
000002e0: 3461 9bbd bcf2 483d 5a00 b43d 2884 5ebd
000002f0: 1cb1 97bd 9667 c9bd b897 be3d 9469 f2bd
00000300: 668d 8a3d fc12 0abd d076 54bd 48de b73c
00000310: c445 e33d 9ebb dabd 4839 babc 0295 89bd
00000320: 7462 88bd 3eff ba3d 62ac f83d 401a e33d
00000330: d859 b2bd 48a1 023d deb4 df3d 70aa 5c3c
00000340: d693 a53d f8b3 c53d c824 05bd 4040 cbbc
00000350: 6a59 9c3d c626 b2bd a647 bdbd 987f 393d
00000360: b605 ce3d 20df adbd c866 d1bd eeed b3bd
00000370: 0074 773b 149b 053d aee0 ca3d 609c f63d
00000380: 6022 ae3d 581c f9bd 2439 0f3d 00e2 fcbb
00000390: ee38 8d3d 24d3 27bd 5616 8e3d 886b 743d
000003a0: 38a6 3e3d bc1d fdbd 40ab e4bb 582d 7abd
000003b0: 2899 cb3c d292 fe3d 2696 bbbd f6b5 ccbd
000003c0: ea41 8bbd 7834 b93c c00d 80bd 9089 143c
000003d0: 5ad2 d33d d6da c83d 30e8 dfbc ee3b 97bd
000003e0: 80ce 50bc f082 7dbc f070 213c 6008 fe3d
000003f0: 9ec9 b2bd e817 a53d 2cca 453d 18ad 98bd
-0.089132145 0.017064825 0.07341002 0.06608398 0.066850245 0.06081356 0.048628286 0.05201325
0.062346622 -0.028051838 -0.04134348 -0.048416615 0.071164355 0.042002574 0.05826643 -0.007885322
0.11980541 0.029527366 -0.08288042 -0.007265076 -0.061807454 -0.030364722 -0.0128596425 -0.12450464
0.04733053 -0.07070033 0.07308547 0.036919624 0.025273755 0.002930522 0.073355764 0.07309322
0.096748486 0.08228807 -0.0115151405 -0.0654161 -0.032222435 0.11482273 -0.09702949 -0.08723028
0.041838303 -0.09309709 -0.11087637 0.06354007 0.09528674 -0.016465217 -0.12036465 -0.03729087
0.061497405 0.1044572 -0.10788675 0.015609726 0.071996644 0.012808815 0.056111425 -0.09679577
-0.09613478 0.113428265 -0.09038551 0.024493888 0.018278927 -0.10520896 0.023292974 0.00079898536
-0.058762982 -0.042393938 0.030771583 -0.10710409 -0.018584192 -0.022019893 0.035015598 -0.05069484
-0.053511247 0.06776783 0.103695735 -0.02880001 -0.10243805 0.053076163 0.08575186 0.07056193
-0.014588267 0.02733633 0.1128625 0.027265698 -0.11197241 -0.11776033 -0.036278293 0.060025558
-0.04915288 -0.12366922 0.078213215 0.008965671 0.10731913 -0.008998662 0.07290894 -0.11722016
0.056850955 -0.035942256 -0.050992593 0.032110885 0.048888355 -0.09297679 0.063296914 -0.12124005
0.06364484 -0.06135133 0.009788364 -0.09640774 0.09052226 -0.0023475736 -0.0047361404 0.001422584
-0.027932912 0.10159172 -0.04991074 -0.02468355 -0.11694874 0.027849182 0.04575835 0.11394028
-0.10718998 -0.096172825 0.03444612 -0.12288952 -0.027674422 -0.0103985965 0.07128999 -0.045241848
-0.04842268 0.008795798 0.066800654 -0.03760095 -0.04438427 -0.06397945 -0.05941996 -0.05905454
-0.014982462 0.04434222 -0.07111524 -0.01292488 -0.076671496 0.02659963 0.07502334 0.09893295
-0.12239583 0.086600035 0.025046125 0.06709029 0.041606247 0.06571193 0.054249078 0.12238021
0.0945144 0.06013286 0.114277855 -0.0612206 0.11414413 -0.019998193 -0.03929381 -0.03715615
-0.031472087 0.07474868 -0.034716964 0.11386104 0.003921166 -0.034665182 0.109574646 0.10430151
0.1175182 0.010584965 0.097473025 -0.016154036 0.07127656 -0.12305923 0.07861617 0.10803741
0.012634173 0.07768446 0.0026867539 0.022061229 0.08808942 -0.04818815 -0.030642346 -0.105193496
-0.075868994 0.049059615 0.087891296 -0.054325253 -0.07406828 -0.098342106 0.09306282 -0.11836544
0.06765251 -0.03370951 -0.05187112 0.02244486 0.11097291 -0.106803164 -0.022732392 -0.06717874
-0.066594034 0.09130715 0.121422544 0.11088991 -0.087085426 0.03189209 0.109231696 0.01346837
0.08084838 0.09653467 -0.03250578 -0.02481091 0.07634242 -0.08698802 -0.092421815 0.0452877
0.10059683 -0.08489823 -0.10224682 -0.08785616 0.003775835 0.032618597 0.099061355 0.12041545
0.0850265 -0.12163609 0.034966603 -0.007717371 0.06895624 -0.040972844 0.06937854 0.059672862
0.046545237 -0.12359187 -0.0069784224 -0.0610784 0.024853304 0.124303475 -0.09159498 -0.09995644
-0.067996815 0.022608027 -0.062526226 0.009066001 0.10342856 0.09807365 -0.027332395 -0.073844776
-0.012744546 -0.015473112 0.009853587 0.12403941 -0.08729862 0.080612004 0.04828851 -0.0745489

convs.0.convs.<core___to___core>.nn.lins.0.bias f4 [64]
00000000: 5c71 233d b8db b2bd 52d2 b33d 6e1a cbbd
00000010: 5e90 fbbd 8a4d 9c3d 30fa dabc e81f 593d
00000020: d008 35bd ac57 3bbd 988c f93d ac02 013d
00000030: e8ae 54bd f0db 613d a48a fabd c2c9 bb3d
00000040: b002 c03d 3415 3c3d 20be 2a3d 8a7b dbbd
00000050: e005 d43c a8d5 9fbd 8ca8 183d 6cda d6bd
00000060: 3c81 823d aa6e 97bd 9aa0 9b3d a0e5 eabc
00000070: a86f 4b3d 10d9 803d 7486 1c3d 3826 733d
00000080: 603a c7bd f492 4f3d ccf8 cd3d 60e3 9c3c
00000090: f02a 81bd b45f 693d 0247 f3bd 4838 e83d
000000a0: b0c4 28bc bc75 243d dcba d9bd 960e 87bd
000000b0: e61f f83d f839 c23d 3cad cbbd fcfc 673d
000000c0: 645d cc3d 5408 633d 526b 92bd b85e f8bc
000000d0: 1482 eb3d c020 8d3b bc06 f83d 5e14 b6bd
000000e0: f07f 3b3d f418 1fbd 74de 2abd c26d 95bd
000000f0: f8a0 96bc 8018 723b 385a 8d3c 2022 fcbb
0.03990303 -0.08733314 0.0878035 -0.099171504 -0.12283395 0.07631977 -0.026730627 0.053008944
-0.044197857 -0.045737907 0.12185019 0.03149669 -0.051924616 0.05514139 -0.12233475 0.091693416
0.093755126 0.04591866 0.041685224 -0.107169226 0.025881708 -0.078044236 0.037270114 -0.104908794
0.06372306 -0.07394154 0.07598992 -0.028673947 0.04966703 0.062914014 0.038214162 0.05936262
-0.09727931 0.050677255 0.1005722 0.01915139 -0.06307018 0.056976035 -0.11878778 0.1133886
-0.0103008 0.040151343 -0.10631344 -0.06594579 0.12115459 0.09483713 -0.09945151 0.05663775
0.0997875 0.055427864 -0.07149376 -0.030318603 0.1149942 0.0043068826 0.121106595 -0.088906035
0.045776308 -0.038842157 -0.041716054 -0.07296325 -0.018387303 0.0036940873 0.017254934 -0.0076944977

convs.0.convs.<core___to___core>.nn.lins.1.weight f4 [64, 64]
00000000: 8048 303d 10e0 2ebc c479 3c3d 202a c13c
00000010: 80d9 913b 50dc 52bc a029 0a3d 40f3 4ebb
00000020: 9ebc e43d 5010 c2bc 7aa6 dabd 6c2a 98bd
00000030: d268 e73d d4c5 69bd 1c0b f13d 0030 7c3a
00000040: f02f 6e3c 4093 72bd 98bc cdbd a205 973d
00000050: 2ce9 5c3d 78c3 a33d b0ac 0fbd 18c4 e03c
00000060: 6423 22bd 167a b33d b8c3 6a3d c025 26bd
00000070: 5c81 6ebd 2054 533c a01c db3b aadb bd3d
00000080: c875 cabc 46e7 f6bd 3eaf cc3d acd1 41bd
00000090: 98fe a1bc 90c5 133d 641d 41bd 5cda a3bd
000000a0: 68c4 e9bd a034 7fbd 380e ff3d ac06 433d
000000b0: f042 64bc ec67 7ebd 0072 b13d dcf2 4f3d
000000c0: 18df 5a3d 4c9f 47bd 5a08 8d3d 9630 dd3d
000000d0: 7074 b8bd 2404 c8bd 14e6 9ebd 50e3 d4bc
000000e0: 48fe e5bd c6d6 d23d 28f4 263d 9050 163c
000000f0: b8ef a2bd e813 93bc 58f0 753d 20d3 c73c
00000100: cca0 04bd 1ed3 afbd 26e7 a5bd 504c 4b3c
00000110: b0ab 6f3d d81e 443d c03c 3abc 8640 d53d
00000120: 26ef bbbd 0e96 fa3d 1aeb 99bd 184d f83d
00000130: b8e5 7c3d dae4 c33d 1058 613d b0ca 283d
00000140: ce47 a2bd f465 acbd b28e c9bd 5c70 f0bd
00000150: 0446 42bd a0d3 9ebd aeea d2bd 0e72 fbbd
00000160: d69b 893d b8a9 dfbc b679 8f3d b8bd aa3d
00000170: c0de 21bc 5033 fbbc ee90 aa3d f0a2 fabd
00000180: d041 88bd 1870 b53c 88c5 febc 2cbf f23d
00000190: 7467 02bd 661c e83d c807 9a3d 40aa 2bbb
000001a0: f689 fdbd 8847 7c3d d066 8f3c 360f d33d
000001b0: e059 383d 9248 d73d 889a 5fbd 4075 4cbc
000001c0: 84b8 1dbd d410 533d 3481 743d dc33 e4bd
000001d0: a009 753d 34d2 afbd b039 2d3d 8023 5b3b
000001e0: 78e7 a5bc d629 bf3d 9e1f bcbd d26b 9f3d
000001f0: 90a0 cb3c 7032 edbd 3853 f63c d02d d63d
00000200: fe4f a23d 6890 cf3c 260a b83d d0e9 ddbd
00000210: dc87 38bd 3060 24bd 5c01 64bd 081d 49bd
00000220: 104b 75bd a060 0ebc c608 afbd 18ee 86bd
00000230: 8c13 b63d 00fd 613d 626e d33d a0c3 0d3d
00000240: b81c 7e3d d09d 1dbc 5a4c 90bd 508b b43c
00000250: d051 493d 2a41 ff3d 3e5c 923d acb3 a3bd
00000260: 7aa8 d63d dc78 e4bd ac1b c1bd fc6b b03d
00000270: 8099 5e3d 00c6 dbbd 0485 5bbd 7a20 d03d
00000280: 30d6 6d3c 504a 973d 0894 e5bd 344f c63d
00000290: a0c2 ce3d 826c 8bbd fae0 bb3d cc78 6f3d
000002a0: b0f2 78bc 54c7 dd3d 640c fcbd 9c6c f4bd
000002b0: d84b 30bd 34ea ee3d 0070 1cbb e0a8 efbb
000002c0: d0ff 2abd 2898 0abd 3e43 aebd 58e1 b5bc
000002d0: 38fc ffbc 9880 ca3c 8c89 583d 08d9 48bd
000002e0: 1889 a83c 4e1b e73d 0499 7c3d 80f8 a9bb
000002f0: ccba 25bd 5ccd 1cbd 9401 153d a82a 42bd
00000300: 8063 9e3d 02c2 cb3d 5e36 be3d bcc1 523d
00000310: 6663 f3bd 68ee 443d 7ab4 a83d 94f1 b6bd
00000320: 2ed9 893d e04c 1ebc 1848 3e3d 1a0d a6bd
00000330: 2826 923c 100c d6bd 50b9 2e3d 6eab ef3d
00000340: 40df 0e3c 4cdd 4bbd e46e 193d f097 4cbc
00000350: 9e5d e6bd 061a 8ebd 801e cabb 2007 cdbb
00000360: dc30 dfbd c494 fdbd a6de 883d f0f1 ca3d
00000370: 84cf 783d e4a0 273d 48d3 a63d 883c 46bd
00000380: 4ad4 fb3d 80dc 61bb 9407 f43d b809 723d
00000390: 183f 983c 24eb 7fbd b008 c1bd 2044 6cbd
000003a0: d094 2cbd 9c8a 673d 5829 dd3d f0c4 8fbd
000003b0: 001b cbbb 8cc1 043d b2fb 97bd 1c69 d03d
000003c0: d219 8abd 5e84 843d e254 d83d 1875 debc
000003d0: b0cf 033c a6e0 8c3d 60e4 8b3c 9086 c4bc
000003e0: 1caf f03d 28b0 e23d 6ae2 cc3d c86f 4fbd
000003f0: fe80 ef3d 74d6 263d eac0 e83d 10a6 f83d
0.04303789 -0.010673538 0.046014562 0.023579657 0.004450977 -0.012869909 0.033731103 -0.0031578094
0.111687884 -0.023689419 -0.10676284 -0.07429966 0.1129929 -0.05707343 0.11769697 0.00096201897
0.014537796 -0.05922246 -0.10045737 0.07374121 0.053933308 0.07996267 -0.035076797 0.027437255
-0.039584532 0.087635204 0.05731556 -0.040563345 -0.058228835 0.012898475 0.006686762 0.09270413
-0.024714366 -0.12055831 0.09994362 -0.0473191 -0.01977472 0.036077082 -0.04714717 -0.08000633
-0.11414415 -0.062306046 0.12453884 0.047613785 -0.013931975 -0.062110826 0.08664322 0.050768718
0.053435415 -0.0487359 0.068863586 0.10800283 -0.09006584 -0.09766415 -0.07758728 -0.025987297
-0.11230141 0.10294871 0.04076019 0.009174481 -0.07955879 -0.017953828 0.060043663 0.024392664
-0.03237991 -0.08585189 -0.08100729 0.012408331 0.058513343 0.047880977 -0.011367023 0.104126975
-0.09176473 0.12235652 -0.07515545 0.121240795 0.061742514 0.09565134 0.055015624 0.041208923
-0.07923852 -0.084178835 -0.0984167 -0.11740181 -0.047430053 -0.07755208 -0.10298668 -0.122776136
0.067191765 -0.027302608 0.070056364 0.08336967 -0.009879768 -0.030664116 0.083284244 -0.12238109
-0.06653178 0.022148177 -0.03110005 0.118528694 -0.03183694 0.113335416 0.075210154 -0.0026194006
-0.123798296 0.061591655 0.01750508 0.10305636 0.045007586 0.105118886 -0.05459073 -0.012479126
-0.038506046 0.05152972 0.05969353 -0.11142704 0.059823632 -0.08585015 0.042291343 0.0033437908
-0.020251974 0.093341514 -0.09185718 0.07784237 0.024856836 -0.11581886 0.030068979 0.10457957
0.079254135 0.025337413 0.08986311 -0.10835612 -0.04505144 -0.040130794 -0.05566536 -0.049099952
-0.05988604 -0.008690029 -0.08546595 -0.065883815 0.08890447 0.05517292 0.10323788 0.03461039
0.062039107 -0.009620145 -0.07045813 0.022039086 0.049150288 0.12463601 0.071465 -0.07993254
0.10481353 -0.111558646 -0.09429106 0.086143464 0.054345608 -0.10731125 -0.05359365 0.101624444
0.014516398 0.07387221 -0.11209875 0.096830755 0.100957155 -0.068078056 0.0917377 0.05846481
-0.01519458 0.108290344 -0.12307051 -0.11934778 -0.04304108 0.116657645 -0.0023870468 -0.0073138326
-0.041747868 -0.033836514 -0.08508919 -0.022202179 -0.031248197 0.024719521 0.05286555 -0.049035102
0.020573184 0.11284505 0.061669365 -0.005187094 -0.040461347 -0.038281783 0.03637846 -0.04740396
0.07733822 0.099491134 0.092877135 0.05145429 -0.11884193 0.048078924 0.08237548 -0.08932796
0.06730877 -0.009661883 0.046455473 -0.08107968 0.01784046 -0.104515195 0.042657197 0.117026195
0.008720219 -0.049771592 0.03745927 -0.012487397 -0.11248325 -0.06938557 -0.0061681867 -0.006256953
-0.10897991 -0.123818904 0.06683092 0.09909427 0.060744777 0.04092492 0.081457675 -0.04839757
0.1229635 -0.0034463704 0.11915508 0.0590913 0.018584773 -0.062480107 -0.09425485 -0.057682157
-0.042134106 0.056528673 0.10798901 -0.07019985 -0.006198287 0.032411143 -0.07421054 0.10176298
-0.06743206 0.064705595 0.10563065 -0.027155444 0.008045122 0.06878786 0.017076671 -0.023989946
0.117521495 0.110687554 0.100041226 -0.050643712 0.11694525 0.040731862 0.113649204 0.12141049
